logs/game_data/raise_model_player2.pt (torch, 9957 bytes, 5 tensors)

model.0.weight f4 [32, 14]
00000000: 9959 37be baa5 833e 722b 233e 485a 80bd
00000010: 11c3 3b3d eb47 f9bd 5db5 ff3c d962 85bd
00000020: 4900 363d 22c8 9abd 2df9 1a3e af60 423e
00000030: 0c95 5bbe ca5a 933d dac0 5bbe 1433 ae3d
00000040: 0dd0 65be ba25 ca3d 0236 3f3e f885 193e
00000050: 8bf7 edbd bba0 313d 1908 11bd 0271 fd3d
00000060: 00aa 203e ddb0 05be 3731 7d3e 55fe 76be
00000070: f5d2 94bc 7969 c8bd 3e44 093d f0bc 98bd
00000080: f0cc 09be 8925 193e 4791 d43d 7b05 6abd
00000090: a3df fd3d e93f 333e c0a1 953c dac2 27be
000000a0: c5bf 12be 9d81 c9bd e9c7 033e 9784 683e
000000b0: 89c0 353e bf5e 10be 464e f03d 15fc 4e3d
000000c0: d902 b2bd b6dd 81bd 59bc 5abe 6055 c13c
000000d0: da44 98bc 8d26 98bd 0952 d4bd 885b 393e
000000e0: 6c41 9b3d 3fe1 a83c 2dc3 0fbd 8e6c b43c
000000f0: a901 263e b446 403e 0dca 4abe 40ec 29be
00000100: 3c69 523d 3d4d af3c 29f3 423c 4c09 3c3e
00000110: 67db ccbc b677 7dbe c6cf 59be 6c04 903c
00000120: 46ee 6abe a463 5f3e e4ff 743e b110 4e3e
00000130: cad2 0ebe 6cc2 4fbe 15e1 5ebe 914c 173d
00000140: 7d00 1fbd c963 48be e840 223d 5729 923d
00000150: 7b4d 213e 21f8 c53d cc9f 5bbe 97cd c03d
00000160: 7d03 84be 92c0 213e 7eb8 5dbe 9677 6e3e
00000170: 034a 87be bdcc 61be 8e6c 28bd 178a 40bd
00000180: f593 6e3e 5940 ebbd 5cbf 86bd 1664 e83c
00000190: ff9e 5f3e 1e7c 293e 19f3 143d 8581 23be
000001a0: b278 45be 049b 663e c307 10bd d8ba 393c
000001b0: a281 0bbe a39b 85be 10e5 013e c7d7 c0bd
000001c0: 14a0 9abd d2b2 093d 67cf c9bd 129c 35be
000001d0: 3578 da3d 201e 5bbd 47f3 2d3e 386b 3a3e
000001e0: fdc4 cdbc 2d41 f4bc 20be c8bc 56be 3c3e
000001f0: 7035 67be f8b6 0a3d 4d33 5dbe 2850 343e
00000200: 9b51 44bd cc1e 513e 6f0b 553e 15e4 89bd
00000210: 05ce 513c e303 1cbd c264 4a3e 05db 853e
00000220: 9e3f 85be 69ae 7bbe 5375 29be 4a87 633e
00000230: ca95 4ebc fa2c ad3d e596 2cbe 613a 6fbc
00000240: 36b9 663e f69c e2bd 0cbf 7d3c 48ab f6bd
00000250: 0662 803e a6da 843e 5333 1cbd 1d83 48be
00000260: 5c3f 87bd 456c b9bb 8ee0 e63c 9147 ecbd
00000270: 9c06 453e 991c c7bd 5b1b 843d f680 49bd
00000280: 7165 f53d 3eaa 6cbe cb33 48be 3933 47be
00000290: eb35 2fbe 7236 89bd 3609 78be 986f 6e3d
000002a0: c01d 81be 1452 7f3d 6fcb fa3c 651d e83d
000002b0: 5c76 223d a008 c3bd d7a6 a43d 93ba 8abd
000002c0: fd05 833e 263b 823e 20d8 e2bb f942 c43a
000002d0: 6a7f 1d3e 17f5 103d 5c9e 833c 7692 f6bd
000002e0: af40 61bd cdcd d6bb 3e64 8d3d 339b d43d
000002f0: 4aaa 47be 85dd 3fbe 93a1 92bd 6ddc 813e
00000300: 4f6c 47be 5587 51bc d0be 37be 23a5 02be
00000310: 3804 ffbd 9227 47be f903 f43d 524a ebbd
00000320: 322e 76be 341e a4bc 83a1 abbd 2446 163e
00000330: 9a62 1bbe 554d 15bd 5a00 133e 8ab4 48bd
00000340: 4195 82be d392 753d 0b13 763e e4db 04be
00000350: 4689 df3d 7703 143e ffcf 013e aaee 2c3e
00000360: 5cc5 0dbe 9b51 6f3e acb5 243e d9a6 b33d
00000370: d7d3 333e d7a4 1d3e 0a6b bc3c 818b f33b
00000380: 7e1a 883e e8ac d43d 5193 093d 0f5f 203e
00000390: f9da 2abe cf80 d43d 76ca 793e c249 36be
000003a0: 28d2 66be 3a32 5a3e a051 3ebe 2ca9 973c
000003b0: c3b3 77be 383d 093e 4d55 d73b 691b 6abe
000003c0: 3f50 df39 987f cabc 08af f8bd c4d8 3ebe
000003d0: 01d7 d0bc cb37 023e fa98 56be 27e9 9ebd
000003e0: fe18 10be 38e2 49be c97a 3f3d e33a 0ebe
000003f0: 2ca3 3ebd 8dab 8dbd ce12 e93c 23f3 913d
-0.17905273 0.25712377 0.15934542 -0.0626722 0.045840327 -0.121719204 0.03121441 -0.06512994
0.044433866 -0.075577036 0.15134116 0.18982194 -0.21443576 0.07195051 -0.21460286 0.08505836
-0.22442646 0.09870477 0.18672946 0.14992511 -0.11619481 0.043366175 -0.035408113 0.1237507
0.1568985 -0.13055749 0.24725805 -0.24120457 -0.018166998 -0.09785742 0.033512346 -0.07457912
-0.13457084 0.14955725 0.10379272 -0.057134133 0.12396171 0.17504849 0.018265605 -0.16382924
-0.14330967 -0.09839175 0.12869228 0.22706829 0.17749228 -0.14098643 0.117336795 0.050533373
-0.086919494 -0.06341116 -0.21360911 0.02360028 -0.018587518 -0.07429228 -0.103672095 0.18101323
0.075808376 0.020615218 -0.035098244 0.02202442 0.16211571 0.18776971 -0.19803639 -0.16594028
0.05136989 0.021399135 0.011898794 0.18362921 -0.025006963 -0.24752697 -0.21270666 0.017580234
-0.22942457 0.21815354 0.2392574 0.20123555 -0.13947597 -0.2028901 -0.2176555 0.036938254
-0.038818825 -0.19569315 0.03961268 0.07136791 0.15752213 0.096664675 -0.21447676 0.09414213
-0.2578391 0.15796116 -0.2165241 0.23287806 -0.26423654 -0.22050758 -0.04111915 -0.047006693
0.23298629 -0.11486883 -0.06579468 0.028368037 0.21837996 0.16551253 0.03636465 -0.15967377
-0.19284323 0.22520071 -0.035163652 0.011336051 -0.1362367 -0.26095304 0.12685037 -0.09416156
-0.07550064 0.033617802 -0.09854012 -0.17735317 0.10667459 -0.053495526 0.16987334 0.18204963
-0.025118345 -0.029816234 -0.024504721 0.18431982 -0.22578979 0.0338659 -0.21601601 0.17608702
-0.047929388 0.20421904 0.20805143 -0.06732956 0.012805467 -0.038089644 0.19764999 0.2614366
-0.260251 -0.24578251 -0.16548662 0.22219577 -0.012608955 0.08455844 -0.16854437 -0.014601321
0.2253159 -0.11065094 0.015487444 -0.12044388 0.25074786 0.25948066 -0.038134884 -0.19581266
-0.06603882 -0.0056586587 0.028183248 -0.11537088 0.19240803 -0.097222514 0.0645053 -0.049195252
0.11982239 -0.23111817 -0.19551007 -0.19453134 -0.17110412 -0.06699838 -0.24222264 0.058211893
-0.2521801 0.062334135 0.030614583 0.113337316 0.039663658 -0.095231295 0.08039635 -0.067738675
0.25590506 0.25435752 -0.0069227368 0.0014973573 0.15380636 0.035389986 0.016066723 -0.12039654
-0.054993328 -0.006555295 0.06903885 0.103811644 -0.19498554 -0.18736847 -0.07159724 0.25363484
-0.1947491 -0.012788613 -0.17943883 -0.12758307 -0.124519765 -0.19448689 0.1191482 -0.11488785
-0.2404106 -0.020033933 -0.08380415 0.14675194 -0.15174332 -0.036450703 0.14355603 -0.0490003
-0.25504497 0.059954476 0.24030702 -0.12974507 0.10914855 0.14454447 0.12677 0.16887918
-0.13844818 0.23370974 0.16084927 0.08772058 0.17561279 0.15394913 0.023000259 0.0074324016
0.26582712 0.10384542 0.033587757 0.15661262 -0.16685094 0.10376131 0.24393639 -0.17801574
-0.22541106 0.21308222 -0.18585825 0.018513285 -0.24189667 0.1340226 0.006571448 -0.22862019
0.00042593663 -0.024719045 -0.121427596 -0.18637377 -0.025493147 0.12716596 -0.20956793 -0.07759314
-0.14072034 -0.19715202 0.046747956 -0.13889651 -0.04654233 -0.06917486 0.02845135 0.07126453

model.0.bias f4 [32]
00000000: 15ec ac3a a093 1c3e b2b9 67be 0c1b e53d
00000010: a6cb 22bb a514 2cbe c85c 783d c77d 35be
00000020: 6a21 c93c 9ab1 7e3e 5a8d 25bd 5402 b73d
00000030: dc1b 17be 49bc 463e 9c5b 02be 2e9d 9c3d
00000040: ba5c 133d 623e 043d 7902 79be e34d 5dbe
00000050: 5d2e dc3d 29de 8cbc 6245 31be fc0c 263e
00000060: 9d29 9fbd 9445 95bd 9678 f03d 48d9 153e
00000070: 7453 383e 4c6a e83d f1cd 873d 1a46 bfbd
0.0013192917 0.1529069 -0.22629431 0.111867994 -0.0024840622 -0.1680475 0.060635358 -0.17723761
0.024552066 0.24872437 -0.040418006 0.08935991 -0.14756721 0.19407763 -0.12730259 0.07647167
0.035977103 0.032286055 -0.2431735 -0.21611743 0.107510306 -0.017195778 -0.17311624 0.1621589
-0.07771609 -0.072886616 0.1174175 0.14633667 0.18000585 0.113483995 0.06631077 -0.09339543

model.2.weight f4 [32, 32]
00000000: ef19 ef3d 3331 013e 7a85 723c 5625 993d
00000010: ac35 f0bd 7973 043d fc6f 6cbb c45d ab3d
00000020: 1ced 6abc fc61 bcbd 8b96 fdbd 53f9 ac3d
00000030: 0d24 303e 438e 28be e623 37bd c57e 1cbd
00000040: 6b9d 8b3d aa6e 2a3e f6df 7fbd 4ba2 003d
00000050: fcbe d93d cc4c 4cbd 4891 19bc 0a95 0c3e
00000060: 0627 a8bc d902 bc3d fa0d b5bd f397 48bc
00000070: 7ccf fe3c a5ca ed3c 282b 28be 1548 133c
00000080: 6f89 f8bd 993d 13be f092 543b 8d4e d53d
00000090: dcb3 0ebe 4936 213e 6ea1 8d3d 535f 1cbe
000000a0: f89f a9bd 2690 1d3e 091e 9f3c 71d5 1f3a
000000b0: 5fe4 293b 0799 1a3e 7d9e ee3d 8788 f0bd
000000c0: 6eac cbbd 1199 f6bd 1174 ac3d b276 e93d
000000d0: 4bde cbbd 4820 d1bd bf39 e83d 11a4 fd3d
000000e0: 2014 253e 1e6c 05be 84fe 4ebd 90c2 313a
000000f0: 265d a23c 781b 17bd 3d7a 85bd 017e 23bd
00000100: 8e71 703c 2d7d 0ebe ff42 c2bd 27c5 863d
00000110: c246 fe3d 815f 823d fd88 053c d334 69bd
00000120: a85a 7abc 4239 34bd b8e6 9bbd c08e 2cbe
00000130: 8e52 9c3d 0a40 10be ad61 62bc e806 7abd
00000140: 5ac8 9c3d ee88 8c3d 0cb1 1fbe bbe6 543d
00000150: ca41 0abe 4d13 34be 406b 2d3e 8b9c ab3d
00000160: 8ddb 90bc 1821 543b 5a21 2fbe 4f7a 823d
00000170: 14a2 98bd 95a4 053e f2e4 14bd 4e31 13be
00000180: 14be adbb 422a c0bc 0ed3 903d 65a1 c2bc
00000190: 143b 97bd c6b3 b23c 1ee6 2abe aae9 06be
000001a0: c604 673d 49ec 84bd 4542 e5bd c81c ddbb
000001b0: 757a 0fbe 6742 823d 595a 0bbe d550 a8bc
000001c0: 6eff 2fbc d92f 1abe ddcf bebd 42e1 28be
000001d0: 1db3 b43d ba8b 94bd a2dc 9fbd 5e57 a53c
000001e0: 138f 293e 0732 35bc 5631 19be 92de c6bd
000001f0: b040 8b3d a00c 193e 02cc c43d 5e79 6ebd
00000200: 40a4 b93d 17af b0bd 8885 a23d 8112 2ebe
00000210: 12cc 083e b679 343e d2d4 99bd 16b7 8d3d
00000220: 5db0 c93c f81e 133e 9590 24bd c312 e1bd
00000230: 413b 003c b117 debd 9ee4 0cbe 8f99 3c3d
00000240: 7f8f 19be f84d ec3d ace4 3bbc 1ac9 a53d
00000250: a749 e9bd 11ac d13d 39bc 0a3e 80a7 1ebe
00000260: 96f5 f4bd e853 debd b924 83bc c737 c73d
00000270: 6129 433d d6a8 7a3d 427a 71bd b100 1f3c
00000280: 95d5 3fbd ad61 003e 616a 8a3d 542e 26be
00000290: 95f8 283e cb9a 193e 3fc8 10be b77d 413c
000002a0: 41d0 33be 7eed 5cbc d6c5 ac3d 9f7b b7bd
000002b0: 5a2d fbbd 7c20 ae3d 83a0 833d 264c 563d
000002c0: dedf 1b3e aae9 0d3d 9ee9 903d 476f 133e
000002d0: c8c5 243e ff9a c03d 4fac f53d 682d 06be
000002e0: fe25 2f3b 2f4f 22be 0f26 2c3e 03cf 0fbe
000002f0: d326 cc3d 0733 323e ef4f a73c efd5 f63d
00000300: ad55 273d a1fb 0c3e ba77 34bd 87a3 0bbe
00000310: 5fa0 54bc 7bc4 b4bd a4db 8ebd 375b 02be
00000320: d69f 6e3c 67a4 52bd f6a1 e53d ca87 023e
00000330: 1d2c 7fbd d687 f3bb da18 e5ba e0a8 2e3e
00000340: 1e55 0f3e 042a 2b3e c686 2cbc 2138 e13d
00000350: c1a5 0abd 0c4a f23d 0f36 0cbe f3b2 e83d
00000360: c96c b9bd bef3 f4bd 5f11 283d 53c3 ea3d
00000370: ad1b 0ebe 4411 2d3e 22a3 e3bd ac8d 1b3e
00000380: 747d 19be 9439 20be 2641 3cbd 56da 28be
00000390: bda1 b5bd b812 1abe 9946 a9bc 702b 10bb
000003a0: 202f d83d a7c0 063e c272 4d3d e6d3 0dbd
000003b0: 2aa4 99bd 7374 ea3d e254 9e3d eaac 03be
000003c0: 7e8d 09be abeb d0bd 5bde 08bd b403 aa3d
000003d0: a230 16be 225d 26be 8d81 12be 8038 8dbd
000003e0: aa9d 18be eca1 31be c1d6 2ebe 5105 76bd
000003f0: 1ae1 d93d ecb6 093e 7f87 17be 88ef d73c
0.11674868 0.12616424 0.014802331 0.074778244 -0.11728987 0.032336686 -0.003607749 0.08367494
-0.014338758 -0.091983765 -0.123822294 0.08445992 0.17201252 -0.16460519 -0.04471197 -0.038206834
0.068171345 0.16643777 -0.062469445 0.031404775 0.106321305 -0.049877927 -0.009373017 0.13728729
-0.02052642 0.09180231 -0.088405564 -0.012243259 0.031104796 0.029027293 -0.16422713 0.008989354
-0.121355884 -0.14378966 0.0032436214 0.10415373 -0.13935798 0.15743364 0.06915556 -0.15270738
-0.08282465 0.1538702 0.019423502 0.0006097174 0.0025923473 0.15097438 0.11651323 -0.117447905
-0.09944998 -0.12040914 0.084205754 0.113995925 -0.099545084 -0.10211235 0.11339139 0.12384809
0.16120958 -0.13029525 -0.050535694 0.0006781006 0.019819807 -0.03689143 -0.06517456 -0.03991509
0.014675511 -0.13914938 -0.09485435 0.065805726 0.1241584 0.06365872 0.008150336 -0.056935143
-0.015280403 -0.043999918 -0.076123655 -0.1685133 0.076329336 -0.14086929 -0.013817233 -0.061041743
0.076554015 0.06862055 -0.15594882 0.051977854 -0.13501659 -0.17585488 0.16935444 0.083794676
-0.017682815 0.0032368358 -0.17102566 0.06370985 -0.07452789 0.13051064 -0.03635115 -0.14374277
-0.0053022 -0.02345765 0.070715055 -0.0237586 -0.07384315 0.021814238 -0.16689345 -0.13175073
0.056401037 -0.0649038 -0.111942805 -0.0067478158 -0.14011557 0.063603215 -0.13608684 -0.020546356
-0.0107420515 -0.15057315 -0.093169905 -0.16492179 0.08823226 -0.07253213 -0.07805754 0.020183261
0.16558485 -0.011059291 -0.14960226 -0.09710421 0.067994475 0.14946222 0.09609224 -0.058221214
0.09064531 -0.08627146 0.07935625 -0.16999246 0.13359097 0.17624554 -0.075112954 0.069196865
0.02462023 0.14367282 -0.040176947 -0.10989907 0.007826627 -0.108443625 -0.13759086 0.046044882
-0.14996146 0.11538309 -0.011468094 0.08094998 -0.11391001 0.10237897 0.13548364 -0.15493584
-0.11960904 -0.108558476 -0.016008722 0.097274356 0.047646884 0.06119617 -0.058954485 0.009704755
-0.046834547 0.1253726 0.067585714 -0.1622861 0.16501077 0.15000455 -0.14138888 0.011809758
-0.17559911 -0.013484357 0.08436172 -0.08959126 -0.122645095 0.0850229 0.064270996 0.052318715
0.15222117 0.034646668 0.07075809 0.14397918 0.16091073 0.09404563 0.11995756 -0.13103259
0.0026725526 -0.15850519 0.16811393 -0.14043812 0.09968343 0.17402278 0.020423857 0.12052523
0.04085319 0.13767864 -0.044059493 -0.136366 -0.012977689 -0.08826538 -0.06975487 -0.12730108
0.014564475 -0.051426318 0.11212532 0.12747112 -0.06229793 -0.0074319644 -0.001747872 0.17056608
0.13997313 0.16715246 -0.010530179 0.10997034 -0.03384948 0.118305296 -0.13692497 0.11362257
-0.09053952 -0.11960553 0.04103219 0.114630364 -0.13877745 0.16901118 -0.111150995 0.15190762
-0.14989263 -0.15646964 -0.045960568 -0.16489539 -0.0886874 -0.15046203 -0.020663546 -0.0021998547
0.105558634 0.13159429 0.05015827 -0.03462591 -0.07502015 0.11447992 0.07731034 -0.1285893
-0.13432881 -0.102012 -0.03341518 0.083014876 -0.1466699 -0.16246465 -0.14307232 -0.06895542
-0.14903894 -0.17346925 -0.1707411 -0.060063664 0.10638638 0.13448685 -0.14797781 0.026359335

model.2.bias f4 [32]
00000000: 60a8 c93d f48c 2dbe 9ff3 ce3d 8112 e6bc
00000010: bc0e 793d 2e99 7cbc 24b1 b3bc 0d77 d23d
00000020: 98d3 d63d bc71 13be 2f5d c63d 6a12 d53d
00000030: 8b78 debc 8939 a5bd 66d2 123e 3fc1 12bd
00000040: 4d48 1b3e 3887 3c3b ac40 053e 8b33 bbbc
00000050: 580e 043e ded5 113d c7ec 04be 0bed 773d
00000060: 076f 283e 35cf bdbd 5bda b2bc cac8 bf3d
00000070: 0573 f33c c45d afbc cd6f 103e e10b 2e3d
0.09846568 -0.169483 0.10105061 -0.028084995 0.060805067 -0.01541738 -0.021935053 0.102766134
0.10489577 -0.14398855 0.09685742 0.10403903 -0.027157089 -0.080676146 0.14338073 -0.035828825
0.151643 0.002876712 0.13012952 -0.022851726 0.12896097 0.03560435 -0.12980948 0.060528796
0.16448604 -0.09268037 -0.021832636 0.09364469 0.029717932 -0.021407016 0.14105149 0.042491797

model.4.weight f4 [1, 32]
00000000: 45ee 533c 99e0 153e 13fb 29be ce26 02be
00000010: f571 d83d f884 d93c d78a 0e3d 52b8 e63d
00000020: 6e33 9ebd a907 043e ca3c 323e f663 203e
00000030: d2fb d83d b455 bbbc 5d36 dcbd fb5c 423d
00000040: 790d c73c 33cf d33d 28e9 8dbc 4519 a2bb
00000050: debc eb3d d44a a7bd 6fbb 1f3e edb5 1e3e
00000060: 76cd a6bd 91e9 35bd 8e51 5c3d c331 0f3d
00000070: fd5d d9bd e187 45bd d2f7 24be 33f8 06bd
0.012935226 0.14636458 -0.16599683 -0.12710115 0.105686106 0.026552662 0.034800377 0.11265625
-0.07724653 0.12893547 0.17406002 0.15663132 0.10594906 -0.022868015 -0.107525565 0.047451954
0.024298416 0.103422545 -0.017323092 -0.00494686 0.11510633 -0.08168569 0.15598844 0.15499087
-0.08144657 -0.0444122 0.053788714 0.034959566 -0.1061363 -0.048225287 -0.16110161 -0.032951545
