logs/game_data/raise_model_player1.pt (torch, 9957 bytes, 5 tensors)

model.0.weight f4 [32, 14]
0.14427607 0.010358426 0.15416603 -0.1966042 0.0806331 0.26561266 0.12186395 0.17814735
-0.05704607 -0.032466415 -0.23746473 -0.19049273 0.2355017 -0.10912058 -0.20219128 -0.077762894
0.12240538 -0.0043392396 -0.15987273 0.19348043 0.13262062 -0.23327918 0.0811369 -0.050089434
0.104462676 -0.12520652 -0.042803336 0.011752971 -0.03589484 0.09219436 0.18785615 0.19021982
-0.06749383 -0.119334355 0.26100445 0.2126035 0.23853394 0.120891295 0.09118823 0.18691523
-0.16606562 -0.11108414 0.11781706 0.022876069 0.08871165 0.19488466 -0.094225 -0.10192614
0.022029994 -0.19667895 -0.045956265 0.058281124 -0.0805292 -0.037395764 0.091989726 0.16256034
-0.11418059 -0.08063577 -0.024657268 0.17521667 -0.033391755 0.053430308 0.070455 0.24906477
-0.120773956 0.19812477 -0.22006288 0.18695787 0.062366247 -0.21643122 -0.04401032 -0.22897416
0.060325008 0.15888718 0.055910453 0.15412018 -0.21035558 -0.23686811 0.023488227 -0.24210925
-0.21335357 0.13890317 0.12378587 0.2519073 -0.118176594 -0.13128853 -0.2439472 -0.2477194
-0.13291125 -0.23603204 0.0045343186 -0.24319841 -0.2219415 -0.14174241 -0.08104555 -0.14408237
-0.114244275 0.10829202 -0.06663027 -0.033411447 -0.019260626 -0.23865846 -0.010949016 0.01448175
-0.12336879 0.17890193 0.05452505 0.13694483 0.20538671 -0.22137856 -0.039806962 0.11747093
-0.09706108 -0.15708077 -0.089099005 0.2255326 -0.24326646 -0.1376712 0.20922834 -0.07353541
0.1993104 0.15680525 0.10286464 0.22257058 0.13809612 0.0126058 0.015169194 0.2330538
-0.081239745 0.07990962 -0.12404614 -0.017988328 0.19522445 -0.16022637 0.24233909 0.009068318
0.0048744557 -0.18498307 0.043013833 0.051437084 0.024720319 0.12673263 -0.01173497 0.19621944
-0.2081024 -0.17604908 0.2147651 -0.12340779 -0.19123322 0.11531308 0.06971932 0.25429693
-0.17900394 0.04879955 0.07142065 0.21626885 0.08456516 -0.046475902 -0.2078445 -0.12295582
0.067190714 -0.07234032 -0.008229794 -0.10476451 0.10555047 -0.054347016 0.058657933 -0.07221762
0.071966276 0.004285364 -0.016491735 0.2516422 0.1385528 -0.21369804 0.26602077 0.075568944
-0.09477121 0.2259991 0.017782353 -0.2363465 0.24833894 0.22893472 -0.25278124 0.11894971
-0.08602254 0.054032303 -0.008235625 0.09314348 -0.033130538 0.097224936 -0.03432239 -0.2175198
0.13897358 -0.17599358 -0.06795408 -0.04240859 -0.0850163 -0.25748885 0.13169803 0.10397241
-0.08545622 0.10381626 -0.035894744 -0.19080694 -0.14958526 -0.045925904 0.16906518 0.1578575
-0.10891307 -0.056289043 0.030333482 0.018058293 -0.15626127 -0.12342159 0.09581895 0.18208018
0.060355753 -0.26245773 -0.008774983 -0.19333279 -0.116237246 0.17229944 -0.118995905 0.08591635
-0.2024888 0.25191006 0.2458914 0.13264427 0.068499014 0.2052365 -0.025484227 0.06807165
0.078663 -0.11713917 -0.16494042 0.069697686 -0.13341767 0.15754858 0.096397534 -0.11370249
0.014479297 0.0993311 -0.19393976 0.03526882 0.15691762 0.046199135 -0.055995647 -0.1526257
0.15544091 0.015422226 -0.06992087 0.0032578148 -0.15774933 0.112519406 -0.24736609 -0.021795345
00000000: 1bbd 133e 63b6 293c b3dd 1d3e 9d52 49be
00000010: f722 a53d 62fe 873e ce93 f93d 426c 363e
00000020: 24a9 69bd 81fb 04bd f429 73be 8710 43be
00000030: 5c27 713e 9c7a dfbd 3b0b 4fbe 2742 9fbd
00000040: acaf fa3d 2e30 8ebb adb5 23be bc1f 463e
00000050: b3cd 073e bde0 6ebe 1a2b a63d 942a 4dbd
00000060: 87f0 d53d 2336 00be 8d52 2fbd 898f 403c
00000070: 7806 13bd 66d0 bc3d 5d5d 403e fcc8 423e
00000080: 353a 8abd 9265 f4bd 60a2 853e bbb4 593e
00000090: 3e42 743e db95 f73d e5c0 ba3d b566 3f3e
000000a0: 1b0d 2abe 1580 e3bd 124a f13d 9866 bb3c
000000b0: 74ae b53d d88f 473e 09f9 c0bd a7be d0bd
000000c0: 3f78 b43c 3566 49be a33c 3cbd 30b8 6e3d
000000d0: 7eec a4bd 4d2c 19bd 1c65 bc3d 3876 263e
000000e0: 83d7 e9bd 5e24 a5bd 0afe c9bc 006c 333e
000000f0: cbc5 08bd bdd9 5a3d b64a 903d d60a 7f3e
00000100: 5658 f7bd 38e1 4a3e 2a58 61be e271 3f3e
00000110: c073 7f3d 25a0 5dbe 2a44 34bd 3478 6abe
00000120: 5b17 773d 52b3 223e 5c02 653d aed1 1d3e
00000130: 7467 57be 8e8d 72be 626a c03c 7deb 77be
00000140: 5c79 5abe a23c 0e3e 7283 fd3d fef9 803e
00000150: 9206 f2bd 8070 06be 4bcd 79be 28aa 7dbe
00000160: e319 08be 62b2 71be 9f94 943b 0109 79be
00000170: a244 63be ec24 11be 36fb a5bd 548a 13be
00000180: e7f8 e9bd 35c8 dd3d 7375 88bd 71da 08bd
00000190: 76c8 9dbc e262 74be 8063 33bc dd44 6d3c
000001a0: c7a8 fcbd 1132 373e a955 5f3d 443b 0c3e
000001b0: e550 523e 10b1 62be a00c 23bd 9994 f03d
000001c0: f6c7 c6bd c8d9 20be 8a79 b6bd 05f2 663e
000001d0: d81a 79be aef9 0cbe f43f 563e bc99 96bd
000001e0: 0718 4c3e 8e91 203e b2aa d23d 8be9 633e
000001f0: 1269 0d3e 8f88 4e3c 3688 783c a8a5 6e3e
00000200: 0661 a6bd a8a7 a33d e70b febd 425c 93bc
00000210: ebe8 473e 6212 24be bd27 783e 4893 143c
00000220: e6b9 9f3b 346c 3dbe 462f 303d b1af 523d
00000230: 4482 ca3c 33c6 013e 0844 40bc c0ed 483e
00000240: cc18 55be 3646 34be 62eb 5b3e 39bd fcbd
00000250: a4d2 43be 4429 ec3d 01c9 8e3d 3533 823e
00000260: cf4c 37be 09e2 473d fd44 923d 9575 5d3e
00000270: 8030 ad3d 845d 3ebd 30d5 54be 43d0 fbbd
00000280: 499b 893d 2927 94bd 42d6 06bc c78e d6bd
00000290: d82a d83d fa9a 5ebd 4d43 703d d5e6 93bd
000002a0: 0e63 933d 3d6c 8c3b ad19 87bc 3fd7 803e
000002b0: c9e0 0d3e a9d3 5abe e033 883e e4c3 9a3d
000002c0: 6817 c2bd 4f6c 673e 4cac 913c d104 72be
000002d0: 904c 7e3e dd6d 6a3e 8b6c 81be e89b f33d
000002e0: 962c b0bd fa50 5d3d b7ee 06bc 02c2 be3d
000002f0: e3b3 07bd de1d c73d a295 0cbd 83bd 5ebe
00000300: 174f 0e3e a937 34be 822b 8bbd a1b4 2dbd
00000310: 071d aebd 94d5 83be d9db 063e 7def d43d
00000320: ac03 afbd 9f9d d43d 5e06 13bd e562 43be
00000330: e12c 19be cd1c 3cbd 6c1f 2d3e 65a5 213e
00000340: d10d dfbd 578f 66bd ec7d f83c fcee 933c
00000350: f402 20be 75c4 fcbd ba3c c43d 3a73 3a3e
00000360: 9837 773d dc60 86be f2c4 0fbc 08f9 45be
00000370: cb0d eebd 446f 303e 20b4 f3bd e9f4 af3d
00000380: 3959 4fbe 5bfa 803e f5ca 7b3e e6d3 073e
00000390: 3649 8c3d 8429 523e 4cc4 d0bc 2669 8b3d
000003a0: 111a a13d a9e6 efbd 24e6 28be a9bd 8e3d
000003b0: a49e 08be 6a54 213e 126c c53d dadc e8bd
000003c0: 933a 6d3c 1b6e cb3d 2598 46be 0a76 103d
000003d0: 03af 203e 4e3b 3d3d b15b 65bd e949 1cbe
000003e0: e72b 1f3e 81ad 7c3c ac32 8fbd 1081 553b
000003f0: 0a89 21be 9370 e63d 894d 7dbe 278c b2bc

model.0.bias f4 [32]
0.0045047523 0.23865661 0.25419164 0.07281796 -0.12804945 -0.15885343 -0.15562344 -0.13789693
0.17007507 0.04375203 -0.038638625 -0.10428929 0.19748445 -0.22196718 0.03571486 0.1307764
0.018473333 0.18241857 -0.06225187 -0.23712981 0.1729357 0.2389129 0.23978703 -0.039429326
0.15923646 0.04352356 0.1914252 -0.21659753 0.015052012 0.07889424 -0.22576608 0.11243583
00000000: 9a9c 933b 6662 743e 6825 823e 9521 953d
00000010: 651f 03be 79aa 22be c05b 1fbe da34 0dbe
00000020: 2928 2e3e 5435 333d 8943 1ebd a095 d5bd
00000030: 5d39 4a3e 5d4b 63be bf49 123d 40ea 053e
00000040: 6355 973c efcb 3a3e d1fb 7ebd 28d2 72be
00000050: 0e16 313e 95a5 743e bb8a 753e a580 21bd
00000060: e20e 233e c345 323d f804 443e becb 5dbe
00000070: b79c 763c 4e93 a13d 392f 67be c244 e63d

model.2.weight f4 [32, 32]
0.05036681 -0.0667197 0.04480532 0.050447185 -0.014943397 0.059024744 -0.12979813 -0.10908346
-0.0051865913 -0.02391115 0.015420099 0.033679463 0.15250333 -0.00285488 -0.016802767 0.07772949
0.06739249 -0.059647124 0.16959314 0.095680386 0.07922351 0.11846988 0.08665664 0.052712895
0.17085771 -0.024247693 0.029275602 -0.08612862 -0.010956178 -0.15399595 -0.05576047 -0.13140373
-0.065585196 0.1572005 -0.111873895 -0.110868186 -0.05140689 0.15368988 -0.13898009 -0.062910326
0.012820355 0.035641186 -0.17055948 -0.14219746 0.11932978 -0.07582709 -0.06728171 0.07556226
-0.1250674 -0.026337776 0.14238214 0.11849498 0.11827798 0.004751952 0.08810255 -0.013867978
0.1571026 -0.10075225 -0.09748027 0.12256308 0.09924342 -0.0056315353 0.06641132 -0.014828294
0.14696296 0.033977736 -0.099873215 0.089391164 -0.022599455 -0.10516528 -0.05354426 0.1114727
-0.11333365 -0.09370376 -0.1434956 -0.007581733 0.16598244 -0.06692277 0.061621305 0.16865759
-0.17236255 -0.13823095 0.14534082 -0.15072572 -0.15513869 -0.0063164006 0.010375922 -0.08257056
0.0076489574 -0.04459027 -0.09161616 -0.06956144 0.164825 0.054772064 -0.16931123 -0.10384962
-0.14914478 0.08131914 -0.012990143 0.048195615 0.15727901 0.12826774 0.0062228977 -0.14699662
-0.1735304 -0.09423868 0.05829533 0.0006749396 -0.13721043 -0.03463093 -0.010488433 -0.15538618
0.04496487 0.14172687 0.10453472 0.13403757 0.14252768 0.11404198 -0.11917397 0.08262809
-0.10559374 0.16288777 0.04805162 -0.06366115 -0.14953177 -0.01204932 -0.06899987 0.14236023
0.10699717 -0.16190341 0.0010959866 0.06657459 -0.02665668 -0.058059286 0.051968012 -0.06908229
0.07003017 0.16266683 0.09351876 -0.15656173 0.03505248 0.1060829 0.096842036 0.15617734
-0.17047983 0.042627323 0.033206154 -0.1025581 -0.02671048 0.08317567 -0.09793714 -0.102883786
-0.16066751 0.16454 0.1584245 0.0841944 -0.17547144 0.09557084 0.1625248 -0.047069535
0.11832761 -0.054882318 -0.054667834 0.17563319 -0.047808032 0.12813728 -0.1688121 0.152794
0.01922185 -0.11921474 -0.14000176 0.13433918 -0.049241826 0.059055615 -0.027000789 0.031819206
0.10342735 0.1361812 0.05715865 0.078733474 0.012256746 -0.011422597 -0.15681481 -0.014823257
-0.0838659 -0.15061276 -0.09580838 0.10084739 0.09721682 -0.17006038 0.040160593 -0.050033767
-0.07878525 0.08567 -0.062202048 -0.15639205 0.059518702 -0.059397783 -0.03801304 -0.16689056
0.1345454 -0.052778136 0.011771088 0.05179051 0.04866848 0.05492982 -0.014276022 0.10238808
-0.088464566 0.017218463 -0.07944293 0.06867715 0.053112637 -0.006479572 -0.12641576 -0.1554571
0.06754625 0.030805785 0.17632212 0.12069776 -0.120346576 -0.06643175 0.1313701 0.10588677
-0.16735207 -0.104245044 -0.15663016 0.014630308 -0.04214141 0.15378356 0.14273009 -0.13667578
-0.051917225 0.10013609 0.026298305 0.121869676 0.08558082 -0.09404378 0.10948065 0.025504323
-0.07081368 -0.060405117 -0.0724816 -0.09169506 0.056948673 -0.15501226 -0.012276766 0.16692191
0.038542766 0.117810555 0.16714214 0.11819464 0.117066175 -0.14897534 -0.15718058 0.032655273
00000000: 6e4d 4e3d 57a4 88bd c985 373d b5a1 4e3d
00000010: 26d5 74bc eec3 713d cde9 04be 2667 dfbd
00000020: 48f4 a9bb 51e1 c3bc 95a4 7c3c 7af3 093d
00000030: d529 1c3e f018 3bbb f5a5 89bc a430 9f3d
00000040: 1305 8a3d 8b50 74bd d3a9 2d3e 14f4 c33d
00000050: f03f a23d 56a0 f23d 0979 b13d 7ae9 573d
00000060: 53f5 2e3e 19a3 c6bc 63d3 ef3c 3464 b0bd
00000070: 8b81 33bc 1db1 1dbe 1765 64bd b38e 06be
00000080: 8851 86bd 2bf9 203e 241e e5bd dc0e e3bd
00000090: 0890 52bd e160 1d3e cc50 0ebe 21d7 80bd
000000a0: 770c 523c 7efc 113d 25a7 2ebe 369c 11be
000000b0: 2c63 f43d 3c4b 9bbd feca 89bd 63c0 9a3d
000000c0: ab11 00be 52c2 d7bc a0cc 113e 7fad f23d
000000d0: ba3b f23d 43b6 9b3b 1c6f b43d 8436 63bc
000000e0: 81df 203e 3257 cebd bca3 c7bd 5a02 fb3d
000000f0: 2240 cb3d be88 b8bb a802 883d 5ff2 72bc
00000100: 757d 163e 3d2c 0b3d 548a ccbd b712 b73d
00000110: 7e22 b9bc e560 d7bd 3a51 5bbd cd4b e43d
00000120: 791b e8bd c2e7 bfbd 83f0 12be 3070 f8bb
00000130: 4df7 293e ce0e 89bd 9f66 7c3d 93b4 2c3e
00000140: cf7f 30be 6a8c 0dbe 39d4 143e d857 1abe
00000150: addc 1ebe cff9 cebb c5ff 293c c11a a9bd
00000160: 1ba4 fa3b 49a4 36bd 41a1 bbbd 3a76 8ebd
00000170: e3c7 283e ac58 603d ec5f 2dbe 1caf d4bd
00000180: 69b9 18be a68a a63d 9cd4 54bc c468 453d
00000190: c00d 213e 9e58 033e 73e9 cb3b 4886 16be
000001a0: f4b1 31be 3600 c1bd 15c7 6e3d 6eee 303a
000001b0: e480 0cbe 29d9 0dbd add7 2bbc 8e1d 1fbe
000001c0: 152d 383d d920 113e 4d16 d63d 2541 093e
000001d0: c7f2 113e d78e e93d 7b11 f4bd eb38 a93d
000001e0: 8841 d8bd 0dcc 263e c7d1 443d c760 82bd
000001f0: db1e 19be 836a 45bc ce4f 8dbd e1c6 113e
00000200: 5521 db3d 02ca 25be 35a7 8f3a 4258 883d
00000210: 1c5f dabc 93cf 6dbd 69dc 543d 047b 8dbd
00000220: fa6b 8f3d 2292 263e c386 bf3d b851 20be
00000230: 3093 0f3d fe41 d93d 1e55 c63d f4ec 1f3e
00000240: 4492 2ebe fd99 2e3d 2d03 083d fb09 d2bd
00000250: f0cf dabc 0158 aa3d 4493 c8bd bcb4 d2bd
00000260: 0686 24be 2c7d 283e 083a 223e 1d6e ac3d
00000270: c9ae 33be a5ba c33d e76c 263e fccb 40bd
00000280: bf55 f23d 48cc 60bd 61eb 5fbd 30d9 333e
00000290: 5bd2 43bd 6b36 033e 14dd 2cbe 0876 1c3e
000002a0: 2477 9d3c dc26 f4bd 9f5c 0fbe 3690 093e
000002b0: ccb1 49bd 4de4 713d c230 ddbc db54 023d
000002c0: b8d1 d33d 1673 0b3e 301f 6a3d 043f a13d
000002d0: 85d0 483c d825 3bbc 1094 20be 3fdd 72bc
000002e0: e3c1 abbd 3b3a 1abe 2f37 c4bd 1489 ce3d
000002f0: 9d19 c73d 4f24 2ebe 6f7f 243d 35f0 4cbd
00000300: 295a a1bd c173 af3d 93c7 7ebd 3d25 20be
00000310: e2c9 733d 174b 73bd 90b3 1bbd 5ce5 2abe
00000320: 45c6 093e e32d 58bd 85db 403c 4922 543d
00000330: 9a58 473d 17fe 603d fae5 69bc d7b0 d13d
00000340: e92c b5bd bc0d 8d3c fab2 a2bd 9ba6 8c3d
00000350: a38c 593d 9752 d4bb 2273 01be 2530 1fbe
00000360: b055 8a3d 6a5c fc3c c98d 343e 6330 f73d
00000370: 4478 f6bd 5f0d 88bd e285 063e 2adb d83d
00000380: 575e 2bbe 6d7e d5bd a863 20be f6b3 6f3c
00000390: 799c 2cbd 7079 1d3e d627 123e bcf4 0bbe
000003a0: 28a7 54bd 2614 cd3d 8b6f d73c cf96 f93d
000003b0: ff44 af3d 069a c0bd 6437 e03d 71ee d03c
000003c0: c306 91bd 5b6b 77bd 3c71 94bd 9fca bbbd
000003d0: 0343 693d 89bb 1ebe 7d24 49bc 94ed 2a3e
000003e0: 05df 1d3d a946 f13d 4f27 2b3e 0810 f23d
000003f0: 64c0 ef3d fe8c 18be f2f3 20be 89c1 053d

model.2.bias f4 [32]
0.06923956 -0.017558103 -0.17542401 -0.1756789 -0.14430897 0.16519295 -0.014017473 -0.01495838
0.052573282 -0.13117477 0.010990802 0.13883686 -0.17515804 -0.105063476 -0.049659293 0.12766379
-0.0603436 0.07693937 -0.1022292 0.010749174 0.14861894 -0.039257724 -0.15645255 -0.06669846
0.055684626 0.14561082 0.15734099 -0.16391397 0.060146417 -0.1307441 0.017077165 -0.025056534
00000000: 78cd 8d3d 03d6 8fbc 5aa2 33be 2be5 33be
00000010: bbc5 13be 5728 293e 8ba9 65bc fe13 75bc
00000020: 1557 573d ae52 06be c412 343c 402b 0e3e
00000030: a15c 33be 852b d7bd 8b67 4bbd 4cba 023e
00000040: da2a 77bd 6392 9d3d 8b5d d1bd 4e1d 303c
00000050: 902f 183e b5cc 20bd 1935 20be 3499 88bd
00000060: 9015 643d 011b 153e ff1d 213e 10d9 27be
00000070: 175c 763d c8e1 05be 69e5 8b3c 5c43 cdbc

model.4.weight f4 [1, 32]
-0.009119061 -0.14986806 0.027532365 -0.036607213 0.12087577 0.09609719 -0.14748552 -0.10246554
-0.04111922 -0.13672686 0.013313873 0.16710448 0.02220138 -0.10042717 0.1431127 0.022593113
-0.075112656 -0.00935778 -0.07661842 -0.1595118 0.034238603 -0.10359118 0.090176426 0.035751842
0.09816142 0.17015128 -0.10109121 -0.011949137 -0.14054777 -0.09661444 0.12856984 0.09598049
00000000: 1d68 15bc 0377 19be 8e8b e13c 72f1 15bd
00000010: b78d f73d 9bce c43d 7206 17be 74d9 d1bd
00000020: a16c 28bd 2002 0cbe 6e22 5a3c 701d 2b3e
00000030: abdf b53c c3ac cdbd 238c 123e 3115 b93c
00000040: aad4 99bd 6051 19bc 1eea 9cbd 1057 23be
00000050: c73d 0c3d 9d27 d4bd 6bae b83d 8670 123d
00000060: db08 c93d 233c 2e3e e908 cfbd 50c6 43bc
00000070: c1eb 0fbe cbdd c5bd d0a7 033e 6b91 c43d
