logs/game_data/raise_model_player0.pt (torch, 9957 bytes, 5 tensors)

model.0.weight f4 [32, 14]
0	0xbe4cb00a	-0.19989029
1	0x3d6ce6d2	0.057837315
2	0xbe04561c	-0.12923473
3	0x3de48d99	0.1115982
4	0x3d726461	0.05917776
5	0xbdfe6ad4	-0.124227196
6	0xbd676929	-0.056496773
7	0xbd70dfe2	-0.05880726
8	0xbe59b830	-0.21261668
9	0x3daca6f6	0.08430283
10	0x3deab6c2	0.114606395
11	0x3d95170b	0.07279786
12	0x3e649d6d	0.22325678
13	0x3e5f41e0	0.21802473
14	0x3e1a945e	0.1509566
15	0xbe639c87	-0.22227679
16	0x3da8c21c	0.082401484
17	0xbe81ed75	-0.25376478
18	0x3e225254	0.15851718
19	0x3e637100	0.22211075
20	0xba4a6232	-0.0007720321
21	0x3df949ac	0.12172255
22	0x3e873f7e	0.26415628
23	0x3e0d7a04	0.13816077
24	0xbcd48bb7	-0.025945527
25	0x3dbc5b57	0.09197109
26	0x3e553e6c	0.20824593
27	0xbe4847f9	-0.19558705
28	0x3df33822	0.11875941
29	0x3dfcb910	0.12339985
30	0xbd860f9a	-0.065459445
31	0x3dacc3cf	0.08435785
32	0xbe0f5001	-0.13995363
33	0xbe4fa1d5	-0.20276578
34	0x3e50a8a3	0.2037683
35	0x3e63ca1b	0.22245066
36	0xbde14e7c	-0.11001298
37	0x3b43b196	0.0029860488
38	0xbe587d47	-0.2114154
39	0xbd1e0b13	-0.03858478
40	0x3d20e61a	0.039281942
41	0xbe324d10	-0.1741221
42	0xbe772c83	-0.24138074
43	0x3e0c5a44	0.13706309
44	0x3dbd2568	0.0923565
45	0xbe1443f1	-0.14479043
46	0x3e2429a5	0.16031511
47	0xbe865520	-0.2623682
48	0x3dc0ac59	0.09407873
49	0xbd848b12	-0.06471838
50	0x3d2187ee	0.039436273
51	0xbe126075	-0.14294608
52	0x3e7570f5	0.23968871
53	0xbddbfe46	-0.10741858
54	0xbd52c45e	-0.0514568
55	0xbe813a3a	-0.25239736
56	0x3b856eed	0.0040720613
57	0xbca43652	-0.020045433
58	0x3d9f1f24	0.077696115
59	0x3e88607a	0.26636106
60	0x3ccd455f	0.025057493
61	0x3d36ac92	0.04459817
62	0xbd3f1621	-0.046651963
63	0x3dbdd60c	0.09269342
64	0x3e836ee0	0.25670528
65	0xbe1a166e	-0.15047619
66	0x3dfa1100	0.12210274
67	0x3e70f901	0.23532487
68	0x3d4ab1bd	0.04948591
69	0xbd63cc00	-0.05561447
70	0xbcea079e	-0.028568085
71	0xbd810c2e	-0.06301151
72	0x3d7b3983	0.061334144
73	0xbc698b24	-0.014254365
74	0x3de877e5	0.11350993
75	0xbddd3f4a	-0.10803087
76	0x3ca5f1a4	0.020256825
77	0xbdf949b9	-0.121722646
78	0xbe316b67	-0.17326127
79	0xbdb1f459	-0.08689184
80	0x3e0494dc	0.1294741
81	0xbe4c284e	-0.1993725
82	0x3e07a084	0.13244826
83	0xbe72fe97	-0.23729931
84	0x3e50c6e3	0.2038837
85	0x3e5a64fd	0.21327586
86	0xbe4c72e5	-0.19965704
87	0xbe1cc245	-0.15308483
88	0x3e69fb68	0.2284981
89	0x3e27fcdb	0.1640505
90	0x3e805951	0.25068143
91	0xbdaccf22	-0.08437945
92	0x3e657d40	0.2241106
93	0xbe208aac	-0.15677899
94	0xbe69d8a1	-0.22836544
95	0xbdb55a2f	-0.08855092
96	0xbe49342c	-0.19648808
97	0x3e738485	0.23781021
98	0xbcbb6c13	-0.022878682
99	0xbe152595	-0.14565118
100	0xbc5bbff4	-0.013412464
101	0x3e4e9ea2	0.20177701
102	0x3e6b6717	0.22988544
103	0x3e11290a	0.14175811
104	0x3e03e42e	0.12880012
105	0x3e87238c	0.26394308
106	0xbdacbe3b	-0.08434721
107	0xbdc073c1	-0.09397078
108	0xbe403eb8	-0.18773925
109	0x3d99779a	0.07493515
110	0xbe76986f	-0.24081586
111	0xbe27907b	-0.16363709
112	0xbde7ac7e	-0.11312197
113	0xbe077fb6	-0.13232312
114	0x3e4d6c0f	0.20060752
115	0x3e6b6373	0.22987156
116	0x3d45dbfc	0.048305497
117	0x3e36a18e	0.17835066
118	0x3c7c3782	0.0153940935
119	0x3e716ead	0.23577376
120	0x3e31d087	0.17364703
121	0xbd5c468d	-0.05377822
122	0x3e86cebe	0.26329607
123	0x3e07efbc	0.13275045
124	0xbe2e80af	-0.17041276
125	0x3e3d33a3	0.18476729
126	0x3e6c712d	0.23090048
127	0xbc2777c7	-0.010221428
128	0x3ce42e5a	0.027854133
129	0xbe1f3ef8	-0.15551364
130	0x3e508128	0.20361769
131	0xbe33225d	-0.17493577
132	0xbe659866	-0.22421417
133	0x3dd4040c	0.103523344
134	0xbe0dd47e	-0.1385059
135	0xbe3262cd	-0.17420502
136	0xbe7bd454	-0.24592716
137	0xbe4af66d	-0.19820566
138	0x3e428c86	0.18998918
139	0xbe889a84	-0.26680386
140	0xbdf8aad6	-0.12141959
141	0xba7ec892	-0.00097192184
142	0xbe815a5c	-0.2526425
143	0xbdf66ca0	-0.12032437
144	0xbe0c736c	-0.13715905
145	0x3db66ebb	0.08907839
146	0x3e701b23	0.23447852
147	0xbd55327c	-0.0520501
148	0x3e50a1d2	0.2037423
149	0x3c58fcc7	0.013243861
150	0xbe0cc1f7	-0.13745867
151	0x3e415888	0.18881428
152	0x3db1c0d5	0.08679358
153	0xbde4093d	-0.111345746
154	0xbcbb8040	-0.022888303
155	0x3e6b2456	0.2296308
156	0x3d467428	0.04845062
157	0x3d5348aa	0.05158297
158	0xbe628f32	-0.22124937
159	0xbdb16163	-0.08661153
160	0xbe0528e1	-0.13003875
161	0xbcb6f01f	-0.022331296
162	0x3da23716	0.07920663
163	0xbdee74ac	-0.11643347
164	0x3e4dc4c8	0.20094597
165	0xbe88c8a0	-0.26715565
166	0x3d801398	0.06253737
167	0xbc820d00	-0.01587534
168	0x3b57c616	0.0032924465
169	0x3e198647	0.14992629
170	0xbda15ff0	-0.07879627
171	0xbd35d2c9	-0.044390474
172	0x3d593219	0.053026292
173	0xbc52f268	-0.012875177
174	0xbe38fc81	-0.18065073
175	0xbdfdfd7c	-0.12401864
176	0x3e2d7803	0.16940312
177	0x3e65a2a8	0.2242533
178	0x3e2163ea	0.1576077
179	0xbe2d2b59	-0.16911067
180	0x3dd09cb1	0.101861365
181	0xbd2ba061	-0.041900996
182	0xbe8223a4	-0.25417817
183	0xbd52570f	-0.051352557
184	0xbe719183	-0.23590665
185	0xbc9a9dec	-0.018874131
186	0x3cdea7ac	0.027179562
187	0xbe1a71f6	-0.15082535
188	0x3d45a619	0.048254106
189	0x3dd85463	0.105629705
190	0xbd5dfc39	-0.054195616
191	0xbe6c4edb	-0.23076956
192	0xbe759237	-0.23981558
193	0xbe3d43b9	-0.18482865
194	0x3e141084	0.14459425
195	0xbd4b8895	-0.0496908
196	0xbce81fef	-0.02833554
197	0xbda2c082	-0.07946874
198	0x3e5d94bf	0.21638773
199	0xbce7c0db	-0.028290203
200	0xbe10d82d	-0.14144965
201	0xbded054a	-0.115732744
202	0xbb23d995	-0.0025001515
203	0xbe4e3c43	-0.20140176
204	0x3d4784ee	0.048710756
205	0xbe3d292e	-0.1847274
206	0x3dc4397d	0.095812775
207	0x3e3c666e	0.18398449
208	0xbd8aec67	-0.067833714
209	0xbdce2757	-0.10066097
210	0xbcc79bbf	-0.024366258
211	0x3e0d3c0d	0.13792439
212	0xbe47b9aa	-0.19504419
213	0xbb3747d9	-0.0027966409
214	0x3d884d42	0.06655361
215	0x3e17fd47	0.14842711
216	0xbdd8a779	-0.10578818
217	0xbda7eb08	-0.081991255
218	0xbe8060c8	-0.25073838
219	0xbd937239	-0.071995206
220	0x3e205c7d	0.15660281
221	0x3e545e7f	0.20739172
222	0x3da7d8c6	0.08195643
223	0xbde7e49e	-0.11322902
224	0xbd3034eb	-0.043019217
225	0x3e86d2a3	0.26332578
226	0xbdd3c642	-0.10340549
227	0xbcc47cb4	-0.023985244
228	0x3ddb38f8	0.10704225
229	0xbe241a83	-0.16025738
230	0x3e1ae003	0.15124516
231	0x3e075ace	0.13218233
232	0x3dc62c6a	0.0967644
233	0x3e611056	0.21978888
234	0xbe8700f4	-0.26367915
235	0x3e727520	0.23677492
236	0xbcdec49b	-0.027193358
237	0xbe7a10e6	-0.24420509
238	0x3e8684dd	0.26273242
239	0xbe4bc5d2	-0.19899681
240	0x3d8d7d4c	0.06908664
241	0x3dc7a990	0.09749138
242	0x3ca7c179	0.020477997
243	0xbd3c425a	-0.045961715
244	0xbe805d78	-0.2507131
245	0x3e432007	0.19055186
246	0x3e414acd	0.1887619
247	0xbe8302bc	-0.25588024
248	0x3e603bbf	0.21897791
249	0xbd37b227	-0.044847634
250	0xbd818d99	-0.06325836
251	0x3e6afc32	0.22947767
252	0x3db7e407	0.0897904
253	0x3e5046a4	0.20339447
254	0x3dcf8ba7	0.101340584
255	0xbe7b3eec	-0.24535722

model.0.bias f4 [32]
0	0x3cb04f9d	0.021522338
1	0xbe6ff88b	-0.23434655
2	0x3d5d2201	0.053987507
3	0xbe7bbc94	-0.24583656
4	0xbdcf2251	-0.10113967
5	0x3c4555fc	0.012044426
6	0x3e54b470	0.20771956
7	0x3e5596c2	0.20858291
8	0x3e64c367	0.22340165
9	0x3e607358	0.21919
10	0xbe58c127	-0.21167432
11	0x3e66f230	0.22553325
12	0xbc84687a	-0.0161631
13	0x3df4d9aa	0.119555786
14	0xbe425d65	-0.1898094
15	0xbc89f8fa	-0.016842354
16	0x3e143eba	0.14477053
17	0xbd065222	-0.03279317
18	0xbe5e4952	-0.21707657
19	0x3e019240	0.12653446
20	0xbd867323	-0.06564929
21	0x3e5abc0e	0.213608
22	0x3ca074a6	0.019586872
23	0xbe869b2a	-0.26290256
24	0xbcda462d	-0.02664479
25	0xbdf6adc5	-0.12044863
26	0xbe7a55c9	-0.24446787
27	0x3e21bf9a	0.15795746
28	0x3df2e6b8	0.11860412
29	0x3e829c75	0.25509992
30	0x3dd6be0d	0.10485468
31	0x3e35de9f	0.17760704

model.2.weight f4 [32, 32]
0	0xbd89cc66	-0.06728439
1	0xbdaaa20d	-0.0833169
2	0x3e2516b9	0.1612195
3	0xbd4df18d	-0.05027919
4	0xbd55b3d6	-0.052173458
5	0xbe076ea3	-0.13225798
6	0xbd381e25	-0.044950623
7	0x3dda7f40	0.10668802
8	0xbc8fa9ba	-0.017536987
9	0x3e344b0d	0.17606755
10	0x3c2f1971	0.010687218
11	0xbe26a545	-0.16273983
12	0xbd511226	-0.0510427
13	0xbd961c4e	-0.073296174
14	0x3dfe3f93	0.124144696
15	0xbdebdceb	-0.11516746
16	0xbd3d3848	-0.046196252
17	0x3dbe7454	0.092995316
18	0xbdde1e03	-0.10845568
19	0xbe0d5ba3	-0.13804488
20	0xbd218291	-0.03943116
21	0x3d2ec086	0.042664073
22	0x3d0483bc	0.032352194
23	0xbe159f21	-0.14611484
24	0x3dbdb341	0.092627056
25	0xbe1849da	-0.14871922
26	0x3e0f8d0f	0.14018653
27	0xbde8b9c4	-0.11363557
28	0x3e335259	0.17511882
29	0x3df9761e	0.12180732
30	0x3e125478	0.14290035
31	0xbca9a3a0	-0.020707905
32	0xbe031136	-0.12799534
33	0xbd6521d8	-0.05594048
34	0xbc3244f0	-0.010880694
35	0x3da1c9d4	0.07899824
36	0xbdbd91b9	-0.0925631
37	0xbdf6a2ca	-0.12042768
38	0xbe2f0b96	-0.17094263
39	0x3dc7d3a9	0.09757168
40	0xbb9389c1	-0.0045025055
41	0x3d58a0b4	0.052887633
42	0xba506022	-0.0007948895
43	0x3e05a0d8	0.13049638
44	0x3d3135b2	0.0432641
45	0xbe10e363	-0.14149241
46	0x3dcdb156	0.1004359
47	0x3d0755f5	0.03304096
48	0xbd2abc1a	-0.041683294
49	0x3d0f497f	0.0349822
50	0xbdc07f30	-0.09399259
51	0x3e04330f	0.12910102
52	0x3c482f4c	0.012218308
53	0xbe04d103	-0.12970357
54	0xbe274a11	-0.16336848
55	0x3cb464bf	0.022020696
56	0xbcb3f402	-0.021966938
57	0x3e3400c2	0.17578414
58	0x3e2671da	0.16254368
59	0x3e23fbff	0.16014098
60	0xbd6f792a	-0.05846516
61	0x3d82ffee	0.06396471
62	0xbbc3bb2d	-0.005973241
63	0x3dcc6c82	0.09981634
64	0x3e11ad26	0.14226207
65	0x3da24554	0.079233795
66	0xbd87330e	-0.06601535
67	0xbd6be263	-0.057588946
68	0x3d96dc04	0.073661834
69	0x3e275050	0.1633923
70	0xbde8d7f9	-0.113693185
71	0xbc48d643	-0.012258115
72	0x3d76faf2	0.060297914
73	0xbd2b9710	-0.04189211
74	0xb9cbec47	-0.00038895218
75	0x3dea65e9	0.11445219
76	0xbdd2125a	-0.102574065
77	0xbe2a0f21	-0.16607334
78	0xbe221d9c	-0.15831608
79	0xbd6a7273	-0.057238054
80	0x3e2547f7	0.16140734
81	0x3e018a43	0.12650399
82	0x3dcaffe5	0.09912089
83	0x3d311816	0.04323586
84	0x3de6465a	0.11243887
85	0xbe2f83be	-0.171401
86	0x3cb01ef1	0.021499129
87	0xbd48c206	-0.04901316
88	0x3e0cad60	0.13738012
89	0xbe26ddb9	-0.16295518
90	0xbdc5dc34	-0.09661141
91	0xbe0dcc19	-0.13847388
92	0x3d706249	0.058687482
93	0x3dfcd3c8	0.123450816
94	0xbb8f492a	-0.0043727355
95	0xbe1dd16f	-0.15411924
96	0xbd5effa5	-0.05444302
97	0xbe123b03	-0.14280324
98	0x3e00ab4a	0.12565342
99	0xbda45cc4	-0.08025506
100	0x3d68d7e3	0.05684651
101	0x3dc4baff	0.09605979
102	0x3d7a09d3	0.061044525
103	0xbd561e0e	-0.052274756
104	0x3d96dd88	0.073664725
105	0xbdaa51a7	-0.08316355
106	0xbdaf2cf7	-0.08553498
107	0x3d9ea0ca	0.07745512
108	0xbe314ebc	-0.17315191
109	0x3de94821	0.113907106
110	0x3e19e893	0.15030126
111	0x3d9d3b8e	0.07677375
112	0x3e112877	0.14175592
113	0xbe178394	-0.14796287
114	0xbd8bddc4	-0.06829408
115	0xbdf5392f	-0.119737975
116	0x3e115fac	0.14196652
117	0x3d0a6d7f	0.03379583
118	0xbe290a22	-0.16507772
119	0xbe2a81a7	-0.16651021
120	0x3da0917f	0.07840251
121	0xbd97db57	-0.07414883
122	0xbcc5b7b8	-0.024135455
123	0x3e17142f	0.14753793
124	0xbe21b534	-0.1579178
125	0x3d2c438e	0.042056613
126	0xbe2ffd22	-0.17186406
127	0xbdc095fb	-0.094036065
128	0xbb0146b8	-0.001972599
129	0xbdf3c1e5	-0.11902217
130	0xbd0ebaae	-0.034846
131	0x3da9d626	0.08292799
132	0xbce888c1	-0.028385522
133	0xbe1dd47d	-0.15413089
134	0x3cdd50e3	0.027016109
135	0x3d01b86e	0.031670026
136	0x3c25b62a	0.010114232
137	0x3d276b5b	0.040873867
138	0xbdc0d821	-0.09416223
139	0x3d99f2c0	0.07517004
140	0x3be6f26f	0.0070479433
141	0x3d1cbe52	0.03826744
142	0x3e1c0a4c	0.15238303
143	0x3dbce5da	0.09223528
144	0xbdafe900	-0.08589363
145	0xbca9112a	-0.020638067
146	0x3d62bc4c	0.055355355
147	0x3afdc624	0.0019361419
148	0x3d9130c5	0.0708938
149	0x3d422842	0.047401674
150	0xbcd83594	-0.026392736
151	0x3d9af993	0.07567134
152	0x3c3378f8	0.010954134
153	0xbcaeb448	-0.0213262
154	0xbc955686	-0.018229734
155	0xbd25a25d	-0.040438045
156	0xbd5a06e6	-0.053229235
157	0x3de73405	0.11289219
158	0xbde63c6f	-0.112419955
159	0xbe061db6	-0.13097271
160	0x3e015798	0.1263107
161	0x3e0c02b2	0.13672903
162	0xbcdb8c8f	-0.026800422
163	0x3c70a89f	0.01468864
164	0xbe0dc0d9	-0.13843097
165	0x3e1e3fdd	0.1545405
166	0x3d8caf78	0.068694055
167	0x3dacb270	0.08432472
168	0x3d96f61a	0.07371159
169	0x3ce277d1	0.027645024
170	0x3e14266f	0.14467786
171	0xbd3970a1	-0.045273427
172	0x3ded03c8	0.11572987
173	0xbe27603d	-0.16345306
174	0x3d56597f	0.052331444
175	0xbe1ac7c3	-0.15115266
176	0x3d36334e	0.04448252
177	0xbe2f7442	-0.17134193
178	0xbde3f31d	-0.111303546
179	0x3dc450c3	0.095857166
180	0xbdba1316	-0.090856716
181	0x3d8bbee0	0.06823516
182	0xbdf556a6	-0.119794175
183	0x3d4d15ba	0.05006955
184	0x3db525f6	0.08845131
185	0xbdedb0f5	-0.116060175
186	0x3e222ae7	0.15836678
187	0xbd8d2626	-0.06892042
188	0xbdfaad28	-0.12240058
189	0x3e34bc1f	0.17649888
190	0xbd5f10e2	-0.05445946
191	0xbe17bfa4	-0.14819199
192	0xbdc6198e	-0.09672843
193	0xbdc9aee2	-0.098478094
194	0xbdbd47dd	-0.092422225
195	0xbd96d3a4	-0.07364586
196	0xbda165c6	-0.0788074
197	0x3dcd65a7	0.10029154
198	0x3b26d2c6	0.002545522
199	0xbd658630	-0.056036174
200	0x3c432803	0.011911395
201	0xbd95f279	-0.073216386
202	0xbdbda287	-0.09259515
203	0xbe2c8203	-0.1684647
204	0xbdbe158b	-0.09281453
205	0x3dca843b	0.09888502
206	0x3de0c541	0.10975123
207	0xbd8b30a5	-0.067963876
208	0x3e19da13	0.15024595
209	0x3dfb90a2	0.12283446
210	0x3d1ca7fb	0.038246136
211	0xbe0cb27c	-0.13739961
212	0x3e13771e	0.14400908
213	0x3cd73f32	0.026275251
214	0xbd17411f	-0.03692734
215	0x3dcf1620	0.10111642
216	0xbc5f221e	-0.013618974
217	0xbdc3d855	-0.095627464
218	0xbe022afe	-0.12711713
219	0x3d9039f5	0.070423044
220	0xbdd2810c	-0.1027852
221	0x3dcd0ff6	0.1001281
222	0xbc728de0	-0.014804333
223	0xbc7f5630	-0.015584514
224	0xbda0a795	-0.07844464
225	0xbe0e7ac5	-0.1391402
226	0xbe1df7d4	-0.1542657
227	0x3defd1f8	0.1170997
228	0xbdb86303	-0.0900326
229	0x3e28d087	0.16485797
230	0x3e249318	0.16071737
231	0x3d655bfb	0.055995923
232	0x3e1e2b63	0.15446238
233	0xbd4771f8	-0.048692673
234	0x3e04247f	0.12904547
235	0x3c4ccaaa	0.012499491
236	0xbe21c723	-0.15798621
237	0x3e0448c6	0.12918386
238	0x3dc1a3f1	0.094550975
239	0xbdfe4b7d	-0.12416742
240	0xbe29168a	-0.16512504
241	0xbd251dc8	-0.040311605
242	0x3ce921e3	0.028458541
243	0x3e0f76a2	0.14010099
244	0x3dbe141b	0.092811786
245	0xbd925791	-0.07145608
246	0x3e153101	0.14569475
247	0x3debe7c2	0.11518814
248	0xbde199e2	-0.11015679
249	0xbe132340	-0.14368916
250	0x3dc79b2c	0.097463936
251	0xbca58877	-0.020206673
252	0xbd8b45e2	-0.068004385
253	0x3d7ae145	0.06124999
254	0xbc888d5f	-0.016668973
255	0x3e1108fc	0.14163584

model.2.bias f4 [32]
0	0xbe319a23	-0.17343955
1	0xbe09c30b	-0.13453309
2	0x3e04c0c3	0.12964158
3	0x3c692600	0.014230251
4	0x3e2799ae	0.16367218
5	0xbde45457	-0.11148899
6	0x3dff6e81	0.12472249
7	0x3e0c0dc1	0.13677122
8	0xbaef402d	-0.0018253379
9	0x3d36a372	0.044589467
10	0xbc7b14cd	-0.0153247835
11	0xbbaaa295	-0.0052073696
12	0xbdeee6f5	-0.11665145
13	0x3db987e3	0.090591215
14	0xbe207395	-0.15669091
15	0xbe32319e	-0.1740174
16	0x3cd9a184	0.026566274
17	0x3d3b1e16	0.04568299
18	0xbda8f10f	-0.08249103
19	0xbe090619	-0.13381232
20	0xbc40cde9	-0.011767843
21	0xbddb11fa	-0.10696788
22	0xbe183ed0	-0.14867711
23	0xbc797daf	-0.015227719
24	0xbe27a8ef	-0.16373037
25	0xbdfea208	-0.12433249
26	0x3d07ce8a	0.033155955
27	0x3da5bbd8	0.08092469
28	0x3e169f09	0.14709105
29	0x3dfb01e6	0.122562215
30	0xbe262f81	-0.16229059
31	0x3ddc2518	0.107492626

model.4.weight f4 [1, 32]
0	0x3e1d1044	0.15338236
1	0xbe0fd3f3	-0.14045696
2	0xbce6e7eb	-0.028186759
3	0x3d54bc1b	0.051937204
4	0x3e242557	0.16029869
5	0x3cf734bb	0.030176511
6	0x3dab95a3	0.0837815
7	0x3df6b7d4	0.12046781
8	0x3d1758a8	0.036949784
9	0xbcbc7fed	-0.023010219
10	0x3e1ff263	0.15619807
11	0x3bb84180	0.0056230426
12	0x3e24e6ff	0.16103743
13	0x3d77831c	0.06042777
14	0xbdf6b95d	-0.12047074
15	0xbe29380a	-0.16525283
16	0x3db649b9	0.0890078
17	0x3dd7ef3b	0.105436765
18	0xbe2abd83	-0.16673855
19	0x3ddee064	0.10882643
20	0x3e2a9a20	0.16660357
21	0xbdabb7c2	-0.083846584
22	0x3c77e97c	0.015131351
23	0x3e2052a9	0.15656532
24	0xbda11973	-0.07866182
25	0x3c5adb6e	0.01335798
26	0xbdbe4a7a	-0.09291549
27	0x3dcb9230	0.099399924
28	0x3df14262	0.1178024
29	0x3c81fbc8	0.015867129
30	0xbd440e3d	-0.04786514
31	0xbe09b257	-0.13446938
