models/frl-models/final_frl_global.pt (torch, 216578 bytes, 11 tensors)

embedding.0.weight f4 [128, 20]
000000 37 41 19 be b8 19 d8 bc 92 40 67 3d 36 b6 11 be
       -0.14966284 -0.026379451 0.056458063 -0.14229664
000010 44 5f 2a 3e 9e 8f ba bc 00 5b b2 bd 01 19 5b 3e
       0.16637903 -0.02277356 -0.08708763 0.21396257
000020 8e 9b cc bd da e5 13 be c8 34 13 3e 9d 36 97 bd
       -0.09990607 -0.1444315 0.14375603 -0.073834635
000030 ae 05 b3 3d 8f 6c 9e bd b2 5a 44 3c 95 69 2b 3e
       0.08741318 -0.0773555 0.011984514 0.16739495
000040 75 fc 00 be 7c d2 0d be 2e 97 a4 bd bd ab a5 3d
       -0.12596305 -0.13849825 -0.08036648 0.08089397
000050 44 59 94 3d df 9e 52 be 3e dd 6b bd 85 7a 27 3e
       0.072435886 -0.20568417 -0.05758404 0.16355331
000060 56 43 1a 3e 33 61 83 bd 78 1d 13 be c0 a7 4d be
       0.15064749 -0.06415024 -0.1436671 -0.20083523
000070 0f 67 e7 bd 59 3e 5f be 7e fb 3e 3e ba 37 61 3d
       -0.11298954 -0.21801127 0.18650624 0.054984786
000080 4c c7 a5 3d 97 88 ea bd ce 38 2d bb f6 7a 8c bc
       0.080946535 -0.11451834 -0.0026431563 -0.017148476
000090 3c de 42 3e 36 d8 dc bd aa f1 06 3e f5 93 9f 3c
       0.19030088 -0.107834265 0.13178125 0.019479731
0000a0 cc 5f 1e 3d 86 02 f9 bd 7d ce 43 be 1c e2 e5 3d
       0.038665578 -0.121586844 -0.19121738 0.112247676
0000b0 74 9b 05 be 25 4b 6d 3c ee 98 f3 bd 1c f0 10 be
       -0.13047582 0.014483248 -0.118944034 -0.14154094
0000c0 d3 76 ba 3d dd 93 f6 bd cc 59 54 be 76 91 4c 3e
       0.09104695 -0.120399214 -0.2073738 0.19977364
0000d0 f2 1b 25 3b b0 82 9a bd d1 ca e7 3c 9d e6 64 3e
       0.0025193659 -0.07544458 0.028294953 0.22353597
0000e0 72 16 1a be d2 75 2c be a6 18 f2 3a 15 30 d1 3d
       -0.15047625 -0.1684182 0.001847048 0.10214249
0000f0 b3 be e0 bc b5 39 35 be f5 c9 6c 3d cc 77 27 3c
       -0.027434682 -0.17697795 0.05780979 0.010221433
000100 4f e7 5f 3e 98 fd 9f bd 91 37 c7 bd 69 ce 8e 3d
       0.21865581 -0.07812041 -0.09727395 0.06972963
000110 d6 76 c0 3d d4 06 4a 3e fa 40 bb bd 89 b7 80 bd
       0.09397666 0.19729167 -0.09143253 -0.062850066
000120 23 2e 07 3e d2 28 11 3d c2 57 24 3e 4c 61 89 3d
       0.13201194 0.03543932 0.16049102 0.06708011
000130 ce 8d 96 bd 29 b7 88 bc f3 98 2a 3d 60 b1 bf bd
       -0.07351266 -0.0166889 0.04164977 -0.093600035
000140 1e f0 bb bd 21 b3 95 bd 8c 41 48 be 01 6f 0b be
       -0.09176658 -0.07309557 -0.19556254 -0.13616563
000150 78 df 2c be 03 5c 42 be 4b 03 a5 bd 4b d0 ee 3d
       -0.16882122 -0.18980412 -0.08057269 0.116608225
000160 5a 1f 41 be 81 ce 48 be 5d 30 22 be 6c 27 23 be
       -0.18859616 -0.19610025 -0.15838762 -0.15933007
000170 c6 af 41 3e c4 7b 33 3e 1c 0c 3a be 05 5f 99 bd
       0.18914708 0.17527682 -0.18168682 -0.07488827
000180 37 b5 e3 3d 79 06 5a 3e ce bc e4 3d 23 45 98 bd
       0.11118548 0.21291532 0.11168824 -0.07435062
000190 6c 73 c5 3d d9 75 f8 bd b8 95 7c bd 14 ee 25 be
       0.096411556 -0.12131853 -0.06166622 -0.16204101
0001a0 cb 8e 30 3e 0f 29 a0 3d f6 c1 26 3e 22 d7 ad 3d
       0.17241971 0.07820331 0.16284928 0.08488299
0001b0 e0 e1 f7 bc b0 57 10 be 58 58 33 bd a7 e8 41 be
       -0.030259073 -0.1409595 -0.043785423 -0.18936406
0001c0 2a 86 53 be a8 a2 fb bd 8e b7 1e be 43 79 2e be
       -0.20656648 -0.122868836 -0.15499708 -0.17038445
0001d0 49 b6 c0 bd fd 5e 20 bc 93 43 b8 bd 50 69 ea bd
       -0.09409768 -0.009788272 -0.08997264 -0.11445868
0001e0 6f 64 3b 3e 99 57 64 be 40 fa 95 bd 0d 26 5b ba
       0.18300031 -0.22299041 -0.07323122 -0.0008359857
0001f0 78 3f ba bd a7 46 52 bc 9c b5 b7 bd c7 7d 52 be
       -0.09094137 -0.012834228 -0.08970186 -0.20555793
000200 e6 47 c4 3d 06 e7 0b 3e c4 3d 72 3d 34 98 3d be
       0.09584026 0.13662347 0.059140936 -0.18515092
000210 d2 8f fb 3c a4 8f b8 bd 4f 4e 5f 3d d4 f5 02 3e
       0.030708227 -0.09011772 0.05451804 0.12789088
000220 39 d9 12 3e bf 90 36 3e 1f 29 37 be 1a 77 10 be
       0.14340676 0.17828654 -0.1788678 -0.14107934
000230 ff 40 1e be 06 02 3e 3d 95 47 5e be 5c 1f fc bd
       -0.15454482 0.04638865 -0.21706994 -0.12310669
000240 7e f1 51 be 3f a6 16 bd 1d ab 09 3c 50 57 d3 bd
       -0.20502278 -0.03677964 0.008402613 -0.10319388
000250 55 b5 20 3e 8f 1c 3b be 42 39 89 bd 64 12 09 3c
       0.15694173 -0.18272613 -0.06700374 0.008366201
000260 83 cd 29 3e 82 8c 08 3e 70 b0 00 be cf 3e 41 be
       0.16582303 0.1333485 -0.12567306 -0.18871616
000270 b0 72 45 3e c6 02 02 3e 18 1f be bd 3f 99 a3 bd
       0.19282031 0.1269637 -0.092832744 -0.07988214
000280 b8 30 0a bc 04 aa d8 bd 2b 5d 79 3c d4 fe 3f 3e
       -0.008434467 -0.10579303 0.015219967 0.18749553
000290 74 2f 05 3e ac fc 58 be 83 09 3b 3d 9a ee fc 3d
       0.13006383 -0.21190137 0.045663368 0.12350197
0002a0 f0 02 4f 3e f6 d3 3d 3e fa 86 a2 bd 52 f4 d7 bc
       0.20215964 0.18537888 -0.07935901 -0.026361618
0002b0 55 0f 91 bc 3d 86 31 bd be 99 3f 3d 03 d8 78 3c
       -0.017707506 -0.04334091 0.04677748 0.01518822
0002c0 2d 16 13 3e 81 3b 08 bc f1 40 7a 3d ec cf b4 bd
       0.14363928 -0.008314968 0.06109709 -0.088287205
0002d0 1e ce 02 be 8b a7 ef 3d 11 00 be bb c6 2b 40 3e
       -0.1277394 0.11701878 -0.0057983478 0.18766698
0002e0 68 1b 6d bb 57 cd a7 3d 16 88 37 be 97 ae da 3d
       -0.0036179665 0.08193462 -0.17923006 0.106778316
0002f0 d9 77 d2 bb c9 14 18 3e 0b 38 e6 bc 93 a1 01 3e
       -0.0064229784 0.14851679 -0.028102895 0.12659292
000300 03 f6 f5 3d ee cf 1b 3e 5b 2d 32 bd af 28 2d 3e
       0.12009814 0.15216038 -0.043500286 0.16910051
000310 12 18 f6 3d d7 74 d9 bd 4a 1c 25 3e 11 f1 42 3e
       0.1201631 -0.106179886 0.16124073 0.19037272
000320 86 7f 2f 3c 92 0d a1 3c 9b 2d c1 3c b9 7e 44 3d
       0.010711556 0.019659791 0.023581317 0.047972415
000330 e3 b9 82 b9 52 61 07 3e 92 51 00 be 79 4d 2b 3e
       -0.0002493403 0.13220719 -0.12531117 0.16728772
000340 ae 77 e2 bd 1a 17 e6 bd 10 e3 03 be d9 7b a0 bd
       -0.11057983 -0.11234875 -0.12879586 -0.07836122
000350 3c 02 dc bd ba 0d 3c 3e 48 5a 56 bd 78 13 31 bc
       -0.10742614 0.18364611 -0.052332193 -0.010807864
000360 f1 c4 27 bd 72 5a 45 3d 8e e1 e1 bc ee ec 09 be
       -0.040959302 0.04818196 -0.027573373 -0.13469288
000370 27 5e de 3d 7a 1c 25 3e ad 16 b3 bd 37 57 9e bd
       0.10857802 0.16124144 -0.087445594 -0.07731479
000380 25 a9 a1 bb a6 5b 27 bd d5 b6 1f 3e 34 7e 13 be
       -0.0049334937 -0.040858887 0.15597089 -0.14403611
000390 e3 2f 1c 3e 83 47 3b be ca b7 49 be 39 88 51 bd
       0.15252642 -0.18288998 -0.19699016 -0.051155303
0003a0 2e 1b 42 3e 75 1d 0b 3e 50 96 4b 3e a1 90 bd 3d
       0.1895568 0.13585456 0.19881558 0.092561014
0003b0 8e f2 41 3e d8 f9 d9 bd 26 23 5d bd 77 27 37 bd
       0.18940184 -0.10643357 -0.0539886 -0.04471537
0003c0 fc 9a 2d 3e bb 2c 34 3e 7c 78 6d bd 2a 0c 2a be
       0.16953653 0.17595188 -0.05797623 -0.16606203
0003d0 56 37 33 be d8 51 4c be 8e ff 98 bd fc e7 d2 bc
       -0.17501578 -0.19953096 -0.07470618 -0.025745384
0003e0 b0 af 5f 3d b2 a1 5d be 00 0c 1e be d2 34 62 3d
       0.054610908 -0.21643713 -0.15434265 0.055226155
0003f0 f8 44 bf bd ae 23 ce 3d 7d b1 25 be 49 1a 55 3e
       -0.093393266 0.10065399 -0.16180988 0.20810808

embedding.0.bias f4 [128]
000000 b2 cd c9 bd 89 83 3a 3e 4c b5 8d bd e3 2f 9c bd
       -0.098536864 0.18214239 -0.06919345 -0.07626321
000010 c3 fd 72 bd 45 38 3d 3e 79 84 42 3e b1 bb 99 3a
       -0.059324037 0.18478496 0.18995847 0.001172891
000020 dc 41 3c 3e f1 a4 1a 3e 6a 7d 61 3e f7 84 38 be
       0.18384498 0.15101983 0.22020498 -0.18019472
000030 2e 5f 4b be dd c7 06 be 70 e9 60 3e 45 7d 0a 3e
       -0.19860527 -0.1316218 0.2196405 0.13524349
000040 d1 36 a2 bd 06 b0 9a 3d 51 e6 c0 bd d9 f9 40 3e
       -0.07920612 0.07553105 -0.09418929 0.1884531
000050 c2 e8 bd bd 3e 3c ad bd e2 6b 42 3e 25 33 62 3e
       -0.09272911 -0.08458756 0.18986467 0.22089823
000060 ff bf 83 bd 97 69 bb 3d 3f 6f 0b bc 6c d7 59 3e
       -0.06433105 0.09150999 -0.00851041 0.21273583
000070 ac d2 8e bd 37 5c 4a be a9 b9 98 bd 2a d0 16 be
       -0.06973776 -0.1976174 -0.07457287 -0.14727846
000080 93 b7 29 be 4a 15 7f bd d9 ac 4d be 68 4a 48 3d
       -0.16573934 -0.062276162 -0.20085467 0.048899084
000090 c1 ba ec 3d 3a 0b 9b 3d 99 75 0a 3e c7 09 2c 3e
       0.11559058 0.07570501 0.13521422 0.16800605
0000a0 3e e6 90 3d 81 98 5d be cb ee 48 3e ea d0 21 3e
       0.07075165 -0.21640207 0.19622342 0.1580235
0000b0 80 36 a5 3c 7d bc 54 be 0f 66 13 3e 98 d3 86 bd
       0.02016759 -0.20775028 0.14394401 -0.06583327
0000c0 12 eb a2 3d be ea e4 3d e8 6d 29 be fb 3a 1f 3e
       0.07954992 0.11177586 -0.16545832 0.15549843
0000d0 2a 2f ad 3d 31 43 41 3e c4 ac fc 3d 2a 3e 38 bd
       0.084562615 0.18873288 0.1233764 -0.04498116
0000e0 66 6f 20 3d a3 f2 31 be 03 5d 14 be 7c 33 3a be
       0.039168738 -0.17377715 -0.14488606 -0.18183702
0000f0 f2 d3 11 be 08 8a fa bc 2b 00 0e 3e 9c e6 53 be
       -0.14241007 -0.030583397 0.13867252 -0.20693439
000100 87 00 ea bd 1b cb af 3b 88 d3 c7 3d f1 f4 0d bd
       -0.11425882 0.005364788 0.09757143 -0.034657422
000110 f4 d5 5f 3e eb 20 2f be 3b 25 e5 bd f4 3b 45 3e
       0.2185896 -0.17102401 -0.11188742 0.19261152
000120 7c 4e a0 bd cd 2a 25 3e fd 4f d2 bc 70 88 2e bc
       -0.0782747 0.16129608 -0.025672907 -0.010652646
000130 41 28 d0 bd 5e e7 a3 38 ca ae 27 be 83 0d 04 be
       -0.10163928 7.815541e-05 -0.1637527 -0.1289578
000140 9c 51 52 bc 01 9b 21 bd 1f e4 0a be 1b 5a a3 bd
       -0.01283684 -0.039454464 -0.13563584 -0.07976171
000150 b3 0b 0a be c9 05 21 be 08 e6 48 be 05 79 3a 3e
       -0.13481025 -0.15724863 -0.19619 0.18210228
000160 d4 c5 2b 3e 60 a7 1c 3d d9 63 ad bd 6c bc 9c 3d
       0.16774684 0.03824556 -0.0846631 0.07653126
000170 8d 58 44 3e fb 8e 5d bd bd 08 d7 3d 80 71 5a be
       0.19174404 -0.054091435 0.104997136 -0.2133236
000180 a0 97 e1 3d 32 cc 62 be d5 87 4e be 38 a8 d5 3d
       0.11015248 -0.22148207 -0.20169003 0.10432476
000190 ca 5b f3 3d 5d 36 90 bd c6 5d 59 be 3a 12 e6 3d
       0.11882742 -0.07041619 -0.21227178 0.11233945
0001a0 10 af 1f 3e 6a a7 04 bd 67 07 f9 3d 58 8a 09 3e
       0.15594125 -0.03238622 0.12159615 0.1343168
0001b0 3c 92 53 be 65 a4 d7 bd 16 a2 65 bd e2 80 5a 3e
       -0.20661253 -0.10529403 -0.05606278 0.21338227
0001c0 39 51 2a be 01 9a 43 bd 82 d5 41 be ac c9 3b 3c
       -0.16632546 -0.04775429 -0.18929103 0.011461657
0001d0 c0 f9 0e bc 43 85 0d 3e a3 c2 7d 3d 30 50 1e be
       -0.008726537 0.13820367 0.0619532 -0.15460277
0001e0 92 ad 39 be 6a 97 5c be 4c 24 49 be 0b 9d 91 3b
       -0.18132618 -0.21542135 -0.19642752 0.00444377
0001f0 31 6b b7 3d e6 93 01 be 78 08 43 3e 38 4e bf bd
       0.08955992 -0.12654075 0.190462 -0.09341091

embedding.2.weight f4 [128, 128]
000000 fc 4a 51 3c 06 a8 2f bd a4 4f bd 3c 9c c3 9f 3c
       0.012774225 -0.04288485 0.023109265 0.019502454
000010 ed 6b 98 3d 96 a4 77 bd 7f 2a 2a 3d 83 df f4 bc
       0.0744246 -0.060459696 0.041544434 -0.029891735
000020 78 94 87 bd c2 c4 5a 3c 17 ec 73 3d f3 63 86 bd
       -0.06620115 0.013352575 0.059551325 -0.065620326
000030 38 dd b3 3d b7 9d 88 3d 50 d3 35 3d ef 78 a8 bd
       0.087824285 0.06670707 0.044390976 -0.08226191
000040 da e5 93 bd fa e0 aa 3d 36 5d 08 bd 47 7b ab bd
       -0.07221575 0.08343692 -0.033292018 -0.08373123
000050 ff f9 61 3b 09 e2 83 3d 62 c9 0d bd 34 ae 0d bd
       0.0034481285 0.06439597 -0.03461588 -0.03458996
000060 be 03 1a bc 71 ee 54 3d fa 27 28 3d 26 b0 00 3c
       -0.009400306 0.051985208 0.04105375 0.007854497
000070 f7 1f 6b bd 7e 58 f5 bc 5b 0d ad 3d 40 c9 41 bd
       -0.05740353 -0.029949423 0.08449813 -0.047311068
000080 c1 dc 45 bd 54 7a 03 bd 1b d5 b5 3b 42 c6 c5 b9
       -0.04830623 -0.032099083 0.005549086 -0.00037722482
000090 a0 3d 98 bc 24 6c b2 bd 37 14 cb bc e7 3d d1 bc
       -0.018584073 -0.087120324 -0.024789913 -0.025542213
0000a0 c9 bb 88 3d 43 1d 9f 3d 21 7e 35 3d 83 4f 96 3b
       0.06676442 0.07769253 0.04430974 0.0045871153
0000b0 00 ea 87 3d 4b 41 e0 3b bd af 96 bd e1 ac 6d bd
       0.06636429 0.006843721 -0.07357738 -0.0580262
0000c0 ba c5 aa 3d 2d 71 1d bc 91 db 42 bd 84 e4 a4 bd
       0.083384946 -0.009609503 -0.047572676 -0.080513984
0000d0 80 70 2c 3c b2 c5 8c bb 3c 56 a6 3c 10 c1 aa bd
       0.010524869 -0.004296028 0.020304792 -0.08337605
0000e0 55 37 fc ba 5f 6d 37 bc 94 f9 9a 3d 85 7d a7 3d
       -0.0019242564 -0.01119551 0.075671345 0.08178238
0000f0 8e ad 85 3d 90 83 2b 3d 8f 9e 4e 3d 32 22 67 bd
       0.065272436 0.041873515 0.050444182 -0.056429096
000100 53 82 18 3d b5 40 01 bb 9b d1 5c bd 83 b1 93 bd
       0.03723366 -0.0019722406 -0.053910833 -0.07211592
000110 7a a7 9f 3b 04 5a 84 bc 66 c8 0f 3c f9 c2 1c 3d
       0.0048722597 -0.016156204 0.008775806 0.038271878
000120 e7 99 90 bd 4e 91 79 3d 08 d0 96 3c c6 99 0f 3c
       -0.070606045 0.06092959 0.018409744 0.00876469
000130 90 ab 8b 3b 4a 55 6d 3d dc d1 1b bd d4 5a 5d bd
       0.004262395 0.057942666 -0.038041934 -0.0540417
000140 55 99 5b 3c 90 c4 55 bd ac 59 a3 3d b5 a7 82 bd
       0.013403256 -0.05218941 0.07976088 -0.06379644
000150 51 f6 8b 3c 5a 90 85 3d f3 9e 8a bd f3 0b a7 3d
       0.017085226 0.065216735 -0.067685984 0.08156576
000160 47 55 e2 3c d4 a0 0c 3d a5 b5 81 3b bf fd f3 bc
       0.027628554 0.034333065 0.0039584213 -0.029784082
000170 d2 a3 99 bc 38 9e 96 3d c5 fa 69 3d d9 a5 8c bd
       -0.018754873 0.073543966 0.057123918 -0.068675704
000180 62 68 25 b9 ab e0 a7 bd ac 3e 3a 3d f4 e4 23 3d
       -0.00015774512 -0.08197149 0.045469925 0.04001327
000190 f6 e3 88 bd ca d9 bd 3c 89 c5 6c 3d 98 35 64 3d
       -0.06684105 0.023175139 0.05780557 0.055715173
0001a0 b8 6d d1 bc d3 36 2c bc f0 67 dc 3a 7a 55 3a bd
       -0.025565013 -0.010511118 0.0016815644 -0.045491673
0001b0 c0 62 59 3d 6e 0b 1f 3d 7d 0e a1 3d d9 01 af 3d
       0.05307269 0.03882926 0.078640915 0.08545274
0001c0 a7 55 6d bd 15 0e 0a 3b fb 4f 65 3d 71 58 96 bb
       -0.057943013 0.0021065522 0.05598448 -0.0045881798
0001d0 0f 49 73 3d e5 2e 30 bd a8 8c 2d bd 9a 5d 74 3d
       0.059395846 -0.043013472 -0.04237047 0.059659578
0001e0 65 ca 59 3c 61 69 20 3d 4a 47 89 bd f1 64 b0 3d
       0.0132928835 0.039162997 -0.067030504 0.08613003
0001f0 e8 12 1d bc ad 44 a2 bd 86 f4 92 3d 9e 3e 79 3c
       -0.009587027 -0.07923255 0.071755454 0.015212683
000200 2f a2 88 bb d3 b7 b1 3c 93 0c aa 3d 4d 62 11 3d
       -0.0041697244 0.0216941 0.083031796 0.035494138
000210 46 60 75 3d 8f 72 81 bc 5c 11 d4 bc e4 68 a9 3c
       0.059906267 -0.015801696 -0.025887184 0.020679899
000220 61 2f 50 3d fe d1 49 3c 26 0e 03 bd 76 1e 8b bd
       0.050826434 0.012318132 -0.031995915 -0.06792919
000230 46 51 a0 3b 2f 9f 79 3d 1b d2 a7 bd cf 42 8a bd
       0.004892501 0.060942825 -0.08194371 -0.06751024
000240 77 09 bc 3c 93 64 92 bd 46 34 26 bd c0 37 18 bd
       0.022953732 -0.07148089 -0.040577196 -0.037162542
000250 a1 2b 48 bd 6d 81 2a 3d 3c f1 91 bd 49 b2 8c 3d
       -0.048869733 0.041627336 -0.0712609 0.06869943
000260 b3 24 75 3c cf c3 12 bd b6 a6 86 3d 1c c0 57 3a
       0.014962363 -0.03583127 0.06574766 0.00082302256
000270 c5 22 d9 bc 1d fe 2d bc 87 2e 7e 3c 6b 21 18 3d
       -0.026505837 -0.010619667 0.015514023 0.037141245
000280 bd e1 5a bd f0 c4 b2 bd c5 00 91 3d e1 62 25 bd
       -0.053437937 -0.08728969 0.07080225 -0.0403775
000290 2e cd ab 3d 58 4c a3 3d 36 1b 89 bc 05 68 e6 b9
       0.08388744 0.07973546 -0.016736608 -0.0004394652
0002a0 55 7a b1 bd 4b d1 a7 3d 61 43 a0 bd a5 e9 15 3d
       -0.08665911 0.08194216 -0.078253515 0.036599774
0002b0 09 91 80 bd 7e 9e a3 3d 1d 49 9f 3d 21 de d5 bc
       -0.06277663 0.07989214 0.07777617 -0.026106896
0002c0 88 31 02 3d 25 0e c5 3c 1a b3 8a 3d 6b de b1 3d
       0.031785518 0.024054596 0.06772442 0.08685001
0002d0 6c 15 37 3d 1d 35 7e bd fa a3 f5 bb 29 78 a3 3d
       0.044698164 -0.06206237 -0.007496354 0.07981903
0002e0 f0 02 37 3d 0e 1e 86 3c b1 30 80 3d 16 52 d3 3c
       0.044680536 0.016371753 0.06259287 0.025795978
0002f0 38 66 af 3d 01 bf 6a 3d 09 c5 ab bd 71 59 9e 3d
       0.085644186 0.05731106 -0.08387191 0.07731903
000300 18 59 20 bc 85 de e3 bc 01 ab 23 bd 48 d2 c5 3b
       -0.009786867 -0.027816067 -0.039958004 0.0060370304
000310 de ca 93 bd fa bc a8 3b e5 d4 24 bd 48 19 e7 3c
       -0.07216428 0.005149481 -0.040242095 0.028210297
000320 c7 08 5e bd bd 1c 61 bd bc e0 55 bd 39 7c 47 3c
       -0.05420759 -0.054959048 -0.052216277 0.012175613
000330 d9 e2 20 bc 76 bb 5d bd ee fe 21 3c 2e 33 13 bc
       -0.00981971 -0.054133855 0.00988744 -0.00898437
000340 c8 7a f2 3b 38 c7 2a 3c 88 ae b0 bd 66 bf 10 3b
       0.0073998906 0.010423474 -0.08627039 0.0022086739
000350 8d 50 0e 3d 76 10 5b bd 3e 8c 7a bc d0 31 e6 3c
       0.034744788 -0.053482495 -0.015292225 0.028099924
000360 fd 89 bb bb 43 3b 3e bd a8 9f a6 bd 79 14 2f bd
       -0.0057232366 -0.046443235 -0.08135921 -0.042744134
000370 11 5a 18 bc 1c 30 9b 3d e2 d7 47 bc e0 df ff bc
       -0.009298817 0.075775355 -0.012197467 -0.031234682
000380 49 b1 b5 3c bb a3 d4 bb 72 fc 88 3d 0d 51 98 bc
       0.022179263 -0.0064892448 0.06688775 -0.018593336
000390 10 4e a1 bd 60 cf 21 bd 4c 48 10 3d 67 79 28 bd
       -0.07876217 -0.03950441 0.035225198 -0.041131403
0003a0 e1 34 e3 3c bf 4f 83 3d d5 1d 13 3d 75 58 67 bd
       0.027735176 0.06411695 0.035917122 -0.056480844
0003b0 92 6c 94 bd 70 f8 80 3d 2e c9 f7 3c 64 d3 ad bd
       -0.07247271 0.06297386 0.030247297 -0.08487585
0003c0 fa 64 8b bd 77 df 07 3c 5d 5b 5c 3d e9 87 ae bd
       -0.06806369 0.008293024 0.05379807 -0.085220166
0003d0 a5 c6 41 3d 79 bc 27 bd a9 d4 57 3c 02 4f 24 bd
       0.047308583 -0.040951226 0.013173261 -0.04011441
0003e0 30 26 34 bd f8 e1 6b 3d f3 b6 66 bc b9 e8 2d bd
       -0.04398173 0.057588547 -0.014081704 -0.04245827
0003f0 65 d6 93 bd 3f c3 c2 3c 72 84 7d bd 9e b9 df 3c
       -0.07218627 0.023774741 -0.061893888 0.027310189

embedding.2.bias f4 [128]
000000 09 92 4b 3c 8b b9 60 3d 2e 5a e3 bc 65 88 33 bc
       0.012424954 0.054864448 -0.027752962 -0.010957812
000010 43 e2 c8 bc 7c ee 58 3d 38 72 59 bd 1c ac 0c bd
       -0.024521952 0.05296181 -0.053087443 -0.034343824
000020 e5 32 a1 bd 8e a5 b1 3d 12 82 7b bd a6 11 19 bc
       -0.078710355 0.08674155 -0.06140334 -0.009342587
000030 d0 c0 0c 3d 4d 1e 9c 3d 3d c6 36 bd 89 29 8a 3d
       0.034363568 0.07622967 -0.04462265 0.067462035
000040 aa ee 84 bd f3 b9 4e bc f6 af 9c bd 67 45 64 3d
       -0.06490834 -0.012617576 -0.076507494 0.05573025
000050 dd ea 84 3c 84 76 40 3d aa 83 2b bc 68 b7 a5 bd
       0.016225273 0.046988025 -0.010468403 -0.080916226
000060 26 02 89 bd 49 32 69 3c c0 45 f2 b8 7b 51 af b8
       -0.06689863 0.01423318 -0.00011552451 -8.359827e-05
000070 dc 59 2e 3d 85 3a 03 bd 8a 42 1b bd 34 5f 57 3d
       0.042566165 -0.03203823 -0.037905253 0.052581027
000080 1a 33 83 3d 6d 17 28 bd 48 ae 06 3d 59 f8 b0 bd
       0.06406231 -0.041037966 0.03288105 -0.086411186
000090 53 44 8d 3d f2 45 6e bd b9 bf ad bd 98 ee a3 bd
       0.068977974 -0.058172174 -0.08483834 -0.080044925
0000a0 d1 27 20 3d 8d 56 31 3b ca 6c 8e bd da f8 9d 3b
       0.039100472 0.0027059645 -0.069543436 0.004820925
0000b0 6e 83 af 3d cd 25 bf bc bb 72 13 bd 5b 02 7a bc
       0.0856999 -0.023333455 -0.035998087 -0.015259351
0000c0 b8 cf b4 3c 68 ab 1a 3d 53 b9 66 bd e6 84 6a ba
       0.022071704 0.037761122 -0.056329083 -0.0008946195
0000d0 72 18 8b bd 50 b2 9c 3d 18 4f 16 3d 0a d8 3e bd
       -0.06791772 0.07651198 0.036696523 -0.04659275
0000e0 ec 0a 92 3c 32 87 b0 bb c3 d8 89 3c d3 a1 05 bc
       0.017827474 -0.0053872103 0.016826993 -0.008156258
0000f0 1b be da bc ab 4e ae 3d cc 6b d5 3c ca 56 a8 bd
       -0.026701977 0.085110985 0.026052378 -0.08219679
000100 7f 71 4d bd c1 a1 b3 bd 69 4c ad bc f3 c6 03 bd
       -0.050157066 -0.087710865 -0.0211546 -0.032172155
000110 33 f8 8e bc 48 cd 9c bc 93 3f 4e 3d cc 8b a6 bd
       -0.017452335 -0.019140854 0.050353598 -0.08132133
000120 eb 71 23 bd af ea a6 3c 07 e5 a6 bc c4 ae 8b 3c
       -0.039903563 0.020375578 -0.02037288 0.017051108
000130 bf 7e 86 3d 60 1e a7 bd 31 6c 86 bd d8 c7 42 3c
       0.06567144 -0.081600904 -0.065636046 0.011888467
000140 f1 40 a0 bc 9b 0f eb bc f4 5a 74 3c ae a9 e4 3c
       -0.019562216 -0.028693965 0.014914263 0.02791294
000150 b0 6b 89 3c 52 e8 54 3d d9 d2 92 bd 47 0a 9b bd
       0.016774982 0.05197937 -0.07169122 -0.075703196
000160 10 77 9b 3d 89 bc bd 3c 09 57 32 bd 44 bf 34 bd
       0.07591069 0.02316119 -0.043540034 -0.044127718
000170 af 41 09 3d 4e 53 7f bd 45 c0 0a 3b 73 fb 49 bd
       0.033509906 -0.062335305 0.002117173 -0.049312066
000180 ab af 57 bb 98 13 1f bd d7 04 a4 3d fc d5 94 3d
       -0.0032911103 -0.038837045 0.080087356 0.07267377
000190 1e 88 8a 3d 3c 16 9a 3d a9 2d 96 bc df ab b3 bd
       0.067642435 0.07523772 -0.01833232 -0.08773016
0001a0 5f 4a 5e 3d a8 c2 0a bd bb 9a 77 bc 7c c8 be 3c
       0.054270145 -0.033877045 -0.015112574 0.023288958
0001b0 18 cd 46 3d 40 0f 94 bd 60 de 91 bd ad 4c ad 3b
       0.048535436 -0.07229471 -0.07122493 0.0052886815
0001c0 aa 89 42 bc 4d b5 25 3d 83 a8 a7 bd 54 7a 61 3d
       -0.011873642 0.040456105 -0.08186438 0.0550483
0001d0 25 1e ab bd 82 af 74 bd 4c b6 be 3c 22 64 59 ba
       -0.08355359 -0.05973769 0.023280285 -0.0008292814
0001e0 9a 7a ab 3d 16 db ac bd 46 d9 a0 bd 41 4d 7c ba
       0.08372994 -0.08440225 -0.078539416 -0.0009624549
0001f0 ce 3a b3 3d a0 5b 89 bc 84 d9 8a 3d 20 5a 8f 3d
       0.087514505 -0.016767323 0.06779769 0.06999612

actor.0.weight f4 [128, 128]
000000 9d 67 a8 3d fd d6 de 3b 7e 7f 47 3d 07 ab 0e bd
       0.08222888 0.006800531 0.04870557 -0.034831073
000010 7b 5e cb 3c 4f 18 a4 3c c5 e0 c2 3b cc 62 4a bd
       0.024825325 0.020031122 0.005947205 -0.049410626
000020 f6 c7 cd 3c 40 ac 82 bc 9b a0 47 3d c2 a7 53 bd
       0.025119763 -0.015951276 0.04873715 -0.05167366
000030 df 4d ac 3d 5a 2a d0 bc 50 27 56 3d 59 3e 50 bd
       0.0841329 -0.02541082 0.052283585 -0.05084071
000040 35 d1 7e 3d 99 ac 70 bc 46 07 08 bd ac 11 8b bd
       0.062211234 -0.014689588 -0.03321006 -0.0679048
000050 7c a3 89 bc 5a b4 cf bc 37 69 a0 3d 1a 00 26 bd
       -0.016801588 -0.025354553 0.07832568 -0.04052744
000060 70 af ab bd bf 00 8b bd 41 fe e2 bc 16 19 73 bd
       -0.083830714 -0.06787252 -0.027709128 -0.059350096
000070 af bb 2a bd 08 5d da bb 54 2c 85 3d 93 4c d9 bc
       -0.041682895 -0.006663922 0.065025955 -0.026525771
000080 87 95 86 bd f9 3f 15 bd 05 05 9b bd a6 bb 9d 3d
       -0.06571489 -0.036437962 -0.07569317 0.07701807
000090 19 a9 a6 bd a3 6b 8e bd f5 58 9f bd 72 52 39 bc
       -0.081377216 -0.06954124 -0.07780639 -0.01131116
0000a0 d3 e4 9f bd fb 60 10 bd 7a 84 9a 3d ab 0f 8d 3d
       -0.07807317 -0.035248738 0.07544799 0.06887754
0000b0 95 41 d7 bc 16 08 96 bd 64 86 10 bd 5d c9 83 3d
       -0.02627639 -0.07325761 -0.035284415 0.064348914
0000c0 d9 55 24 3d 14 52 70 bd 9d 29 ac bb 3c ec 75 bd
       0.040120933 -0.058672026 -0.005253984 -0.060039744
0000d0 d0 f0 1a 3d 08 ae f9 bc a4 ac b6 bc ce d4 af 3c
       0.037827313 -0.030478492 -0.022299118 0.021463778
0000e0 1e 0c 40 bc 21 4f 78 3c 7a b8 dd bc 77 6d 23 3d
       -0.011721639 0.015155585 -0.027065504 0.039899316
0000f0 f3 c5 d6 3c 7d 42 33 bd dc 4a 80 3d ea 8a 11 3d
       0.026217436 -0.04376458 0.06264278 0.03553287
000100 10 56 66 bd 35 0c 8b bd 51 57 76 bd 97 aa a0 3d
       -0.05623442 -0.06789438 -0.060141865 0.078450374
000110 a7 8d 9d 3d ba 9f 70 3d e1 e1 02 3d 33 39 a9 3d
       0.07693034 0.058746077 0.031953696 0.08262863
000120 00 1d 2d 3d e7 c8 8c 3c 38 d9 b4 bd d5 1d a0 3d
       0.042263985 0.017185641 -0.08830494 0.0781819
000130 1c 12 11 3d 04 2a ee 3b f3 10 33 bd 31 a8 a5 bd
       0.03541766 0.0072681922 -0.043717336 -0.080887206
000140 34 f6 92 3d 58 75 96 bd 95 f6 5b 3d 66 ed af 3c
       0.07175866 -0.073466 0.053701956 0.021475505
000150 ec fb a0 bd bd 4d 94 3d a0 10 c0 bc f3 f0 85 bd
       -0.0786055 0.0724139 -0.023445427 -0.06540098
000160 4d 4b a5 bc 14 78 9b 3d d5 22 6a 3d 69 a6 af bd
       -0.020177508 0.075912625 0.057162125 -0.08576662
000170 0a 8b 0c 3d 23 3d 4b 3d 6a 98 89 3d 41 57 41 3d
       0.034312285 0.04961885 0.06718524 0.047202352
000180 1b 81 9c bd 50 7f b3 bd 91 c9 2d 3b ff 9a 25 bd
       -0.076418124 -0.08764517 0.0026517848 -0.04043102
000190 cd d9 8d bd 09 de a2 3d c7 10 38 bd b8 11 2f 3d
       -0.06926308 0.07952506 -0.044937875 0.042741507
0001a0 6c 45 b6 bc 31 67 9d bd 44 84 f1 3b b7 ca a3 3d
       -0.0222499 -0.07685698 0.0073705036 0.07997649
0001b0 34 8a b2 bd 0e e0 bf bb c3 e4 7c bd 64 73 90 3d
       -0.087177664 -0.005855567 -0.0617416 0.07053259
0001c0 47 ee a5 bd f7 da 85 3d 0f 9d 30 bd ab c6 b1 bd
       -0.081020884 0.06535905 -0.043118533 -0.08680471
0001d0 70 18 5d bd 15 2e af 3c 75 93 2c bc 33 f4 c1 bc
       -0.053978384 0.021384278 -0.010533203 -0.023676014
0001e0 7c 3c c1 bc 6f db ea 3c a6 2d 51 3d de ea 53 bd
       -0.023588412 0.028669087 0.051068924 -0.05173766
0001f0 22 60 39 bd a0 f3 cd 3c af ac 64 bd da 69 66 3d
       -0.045257695 0.025140584 -0.055828746 0.05625329
000200 26 21 2c bd 3a 07 c1 3c 37 67 63 bc 5a e0 4e 3c
       -0.0420238 0.023563016 -0.013879589 0.012626732
000210 89 90 ae bd 05 a8 83 bd 72 3e 42 3c 8f 76 51 bd
       -0.08523662 -0.064285316 0.011855708 -0.051138457
000220 c2 3c b7 3a fb fe 45 bd 03 57 e9 bc 26 3b 0e 3d
       0.0013979899 -0.04833887 -0.028483873 0.034724377
000230 0a 18 18 bc 4a 9e 87 3d 1d 9d b2 bd 91 1e 0c 3d
       -0.009283075 0.06621988 -0.08721373 0.034208838
000240 6f ef 3d bd ea f3 a6 3d 9f e4 4d 3c 75 e1 8f 3d
       -0.04637092 0.08151992 0.012566715 0.070254244
000250 83 a9 64 bd 1d 6f 1c bd 2c 41 55 3d ab 54 5c bc
       -0.05582572 -0.038191903 0.052064106 -0.013447921
000260 d2 a5 c5 3b e5 98 1f 3d 58 d2 e3 3c 67 4d a4 3d
       0.00603173 0.03896417 0.02781026 0.08022576
000270 9f 58 52 bd 0a 41 1c bd 38 d5 eb 3b a2 cf fb bc
       -0.051354047 -0.038147964 0.0071970485 -0.030738655
000280 df 22 7c bc f1 8b 24 3c 25 c7 a3 bd f4 50 f6 bc
       -0.015389173 0.01004313 -0.07996968 -0.030067898
000290 df 46 da 3c ed 14 e3 bb b3 b1 90 3d 22 0d f3 bc
       0.026645122 -0.006929985 0.070651434 -0.029669348
0002a0 29 bd a9 3d b7 09 c7 bc 39 65 3c 3d 98 b4 a1 bc
       0.082880326 -0.024296625 0.04599497 -0.019739434
0002b0 fa 68 04 3c 4c dd b2 3d 88 32 29 b9 5d 3f a4 3d
       0.008081669 0.08733615 -0.0001613592 0.08019898
0002c0 f9 a6 cd bc e6 0d 31 bb ca ad 68 bb a4 bf 2a 3d
       -0.025104033 -0.002701634 -0.0035503977 0.04168667
0002d0 21 e0 72 bd f6 31 63 3c 31 c2 b0 3d 92 f7 4d 3d
       -0.059295777 0.013866892 0.08630789 0.05028493
0002e0 b6 52 ab bd 40 33 1a bd f2 36 c8 bc af fc 32 3d
       -0.08365385 -0.037646532 -0.024440262 0.04369801
0002f0 72 60 58 bc 99 36 64 bd 44 a6 25 bd 8a 55 6b bc
       -0.013206588 -0.05571613 -0.040441766 -0.014363656
000300 f8 3b 33 bd ab 37 a0 3d 4d 18 9f 3d ae 34 b4 3d
       -0.043758363 0.07823118 0.07768307 0.0879911
000310 2d b3 58 3b 66 5e df 3b 88 54 d9 bc b8 eb b2 3d
       0.0033065781 0.006816673 -0.026529565 0.08736366
000320 13 2d 0e 3d 65 f0 4e 3c af 30 45 bd a1 e7 77 bc
       0.034710955 0.012630557 -0.04814213 -0.015130908
000330 1d 0b 0f 3d 3b 18 d4 3c a3 9a 91 bd 3d f0 22 bd
       0.034922708 0.02589046 -0.07109573 -0.03977989
000340 0c f1 0f 3d b1 2f 8c bd 18 37 fb 3b 6b 8d ae bd
       0.03514199 -0.06845034 0.00766648 -0.08523067
000350 ea 7e 07 bd 0f 28 42 bd bb 81 a4 3d 44 c7 27 bd
       -0.03308002 -0.047401484 0.080325566 -0.04096152
000360 8c 4a aa bb e4 f1 77 bd 23 fb 88 bd cb 8f 38 bd
       -0.005196875 -0.06053342 -0.066885255 -0.045059007
000370 6f 3d 32 bd 96 0a 7a 3d 26 18 a6 3d bd b7 69 bd
       -0.04351562 0.06104525 0.08110075 -0.057059992
000380 8e 04 7c bd c3 65 b4 3c 44 c2 4a bd 8c 8f 23 3d
       -0.06152778 0.02202118 -0.049501672 0.03993182
000390 7e fc 31 bd 1d a3 cb 3c a0 e3 97 3c 65 99 81 bd
       -0.043453686 0.024858052 0.018541157 -0.06328086
0003a0 a9 77 c1 bc 6c ab 2a 3d 76 71 67 bd ef c3 c6 3b
       -0.023616629 0.041667387 -0.05650469 0.0060658376
0003b0 f6 ba 86 3d ef ee 83 bd d8 5c a8 3d d4 a7 98 3d
       0.06578629 -0.06442057 0.082208335 0.07453886
0003c0 ab 3d 5e bd 3e 99 4e 3c df 39 35 3d 62 97 10 3d
       -0.05425803 0.012609778 0.044244643 0.03530062
0003d0 73 c0 23 3d 92 9d 94 3c f9 b5 2c 3c da da 86 3c
       0.039978456 0.018141542 0.010541433 0.016461778
0003e0 65 93 af bc 12 4e 2a 3d 35 cc ab 3d b2 b9 15 bc
       -0.021432588 0.04157836 0.08388559 -0.0091385115
0003f0 45 93 87 bd 21 b3 33 bd a0 85 82 b9 6f f1 ce bc
       -0.06619886 -0.043872003 -0.0002489509 -0.025261609

actor.0.bias f4 [128]
000000 64 e2 e6 3c 03 48 9e 3d a3 65 91 3c e3 4f 3a 3d
       0.028184123 0.07728579 0.01774866 0.045486342
000010 31 53 77 3d f3 07 8e bd f3 26 7c bd 27 d6 31 3d
       0.060382072 -0.0693511 -0.061560582 0.043417122
000020 9c f9 97 3c e6 24 2d bd 12 06 0c ba 1b 31 77 3a
       0.01855164 -0.042271517 -0.0005341481 0.00094296195
000030 b2 03 b4 3d 3c 9e 64 bd 25 a4 77 bc 5f ef 88 bd
       0.08789767 -0.055814967 -0.015114819 -0.066862814
000040 60 73 81 3c e6 70 77 3d 6b 46 47 bd 38 84 52 bd
       0.015802085 0.060410403 -0.04865114 -0.051395625
000050 4a 20 a1 3d bd 9a 81 3d ab 6b 50 bc 75 c9 e8 3c
       0.07867487 0.06328342 -0.012720983 0.028416375
000060 f1 a6 84 3d 00 4e 2d ba 82 b1 ac bd 5c a4 74 3d
       0.06477154 -0.0006611049 -0.084322944 0.059727058
000070 53 07 8a bd 56 a6 15 3a ef df 92 bd 40 d3 97 bc
       -0.06739678 0.0005708685 -0.07171618 -0.018533349
000080 37 e0 0c bb 36 d5 62 3d 96 0f fb bc 89 59 a8 bd
       -0.0021495947 0.055379115 -0.03064708 -0.082202025
000090 c5 2d 27 bd 38 2b 9c bd 90 b7 30 3d 7b d9 7e 3d
       -0.040815134 -0.07625431 0.04314381 0.062219124
0000a0 49 04 a0 3d e8 33 78 3a 81 74 3c 3d 8e 3b c1 3c
       0.07813317 0.0009468184 0.046009544 0.023587968
0000b0 bf a5 ad bc ef ab 87 bd 54 80 4e bd f3 72 a5 3d
       -0.021197198 -0.066245906 -0.050415352 0.080785654
0000c0 a6 1e 22 3d 11 0a 37 bc ac fc 94 3d ac 11 47 bd
       0.03958001 -0.011171834 0.07274756 -0.048600838
0000d0 eb 41 89 3d d9 8f ad bc 6c c9 73 3c 3c 2c ad bb
       0.06702026 -0.021186756 0.014879566 -0.005284814
0000e0 57 4b 88 bd 54 7d e9 bb 6c 84 9a 3d 54 24 e3 3c
       -0.06654995 -0.007125536 0.07544789 0.027727284
0000f0 bf e0 fd bb 92 af d5 bc 19 83 4b bb 2c ab a6 bd
       -0.007747739 -0.026084695 -0.0031053482 -0.08138117
000100 89 fa 18 bd 7b 2c 70 3c a0 40 bf 3c 48 41 a7 3d
       -0.037348304 0.0146590425 0.023346245 0.08166748
000110 43 37 05 bd 92 b7 70 3d 86 07 91 3d ed e5 38 bd
       -0.032523405 0.058768816 0.07081513 -0.04514115
000120 f4 d2 b4 bd b5 f8 6b 3c 9b c4 14 3d cc 75 87 3c
       -0.088292986 0.014402558 0.03632031 0.016535662
000130 e1 07 85 bd 10 3a 08 3c 96 88 82 bd ea f6 8e 3d
       -0.064956434 0.008314624 -0.06373708 0.06980689
000140 10 90 f6 3b 3b 8f 18 3c 8d ce 20 3d c4 d8 9f bd
       0.007524498 0.009311493 0.039259482 -0.07805017
000150 c0 cc d7 3b a5 9d fc bc 65 92 7e bd 43 43 b5 3b
       0.0065856874 -0.03083689 -0.06215133 0.0055317
000160 74 7f a9 3c 2e c5 07 3d dc 8d 25 3c 6f ed 82 3d
       0.020690657 0.03314703 0.010104623 0.06392943
000170 b1 d9 bb 3c 1d b0 db 3c 30 a0 21 bd 62 db 45 3c
       0.022930952 0.026817376 -0.039459407 0.012076231
000180 19 fb 89 bc e9 97 ed 39 e5 87 80 3d fe a8 5c bb
       -0.016843366 0.00045317344 0.0627592 -0.0033670063
000190 d4 d1 8f bd 05 cb 80 3d 73 3a 8a b9 82 8d 6a bd
       -0.070224434 0.06288723 -0.0002636496 -0.05726386
0001a0 94 70 ad 3d a8 5f 59 3d fb 33 55 bb 08 49 0b bd
       0.08468738 0.05306974 -0.0032532203 -0.034005195
0001b0 7b 68 5c 3d 3a 9b 0c 3c 7c e1 1d 3d a6 df 41 3b
       0.053810578 0.008581931 0.038545117 0.0029582768
0001c0 2b d5 c6 bc 8d 2a aa bc ec 7c 92 3d c1 e2 41 3d
       -0.024271568 -0.020772243 0.07152733 0.04733539
0001d0 91 50 b9 bc db 76 8d bd cf 76 2e 3d 51 10 09 bd
       -0.022621425 -0.069074355 0.042593773 -0.033462826
0001e0 df 7b 34 3d d3 6b 61 bd 0a 5e 8b 3d a2 07 88 3d
       0.044063445 -0.05503447 0.06805046 0.06642081
0001f0 1f b0 ac 3d be c5 ad bc 3d 27 1f bd 1b c2 ae 3d
       0.0843203 -0.021212455 -0.03885578 0.085331164

actor.2.weight f4 [5, 128]
000000 1f f4 7c bd 5e 0b 95 3d 84 fa 24 3d af 3c 9d bd
       -0.06175625 0.07277559 0.040277973 -0.0767759
000010 75 9b 0a 3d 6f e3 a7 3d 8b f7 4c bd 62 20 9a 3d
       0.03383966 0.081976764 -0.050040763 0.07525708
000020 6c 72 b2 bd 26 00 25 bd 14 87 22 bd c9 53 c3 bc
       -0.087132305 -0.040283345 -0.0396796 -0.023843663
000030 39 d7 68 3d 14 91 b1 bd ee 5d 29 bd 80 31 81 3d
       0.056845877 -0.086702496 -0.041349344 0.063082695
000040 25 98 1f 3d 95 3c 9c 3d 91 8b a0 3c e9 a9 81 bd
       0.038963456 0.076287426 0.0195978 -0.06331236
000050 9d 5c 83 3d ba bd a0 3d 68 e5 79 3c fd 80 c0 bc
       0.06414149 0.078486875 0.015252449 -0.023499006
000060 14 ea ae bd d6 ce ff bb 49 89 93 3d bd d4 05 bd
       -0.085407406 -0.007806639 0.072039194 -0.032673586
000070 2e bf 12 bd df 65 bd bb cf 90 12 bc 2d ea cc bc
       -0.035826854 -0.0057799662 -0.008945658 -0.025014007
000080 9e 72 1c 3c 9d a1 e0 3c 33 f8 12 3d ab 22 14 bd
       0.009548811 0.027420813 0.035881232 -0.036165874
000090 4b 27 98 bd 15 57 82 3d 75 58 83 bd f2 02 73 3c
       -0.074293695 0.06364266 -0.06413356 0.014832245
0000a0 62 b8 e2 bc a2 3b 73 3d 41 ca a4 bd fb a5 86 3d
       -0.027675811 0.059383042 -0.08046389 0.06574627
0000b0 5f a0 81 bd 56 24 51 3d 0b 2a b0 bd 34 bf 68 3d
       -0.063294165 0.051060043 -0.08601769 0.05682297
0000c0 a2 4e 8e 3d d5 87 6b 3d 18 ee f0 39 e3 d5 57 3d
       0.06948592 0.057502586 0.0004595376 0.052694213
0000d0 89 9a 44 3c d0 50 8a bc e9 a7 21 bd 87 21 cd 3c
       0.011999735 -0.016884238 -0.039466772 0.025040401
0000e0 b6 1f ac 3d a4 ae 53 3d 21 fe ae bb 19 f6 4e 38
       0.08404486 0.051680222 -0.005340353 4.9343424e-05
0000f0 37 71 15 3c 84 f9 38 3d d1 dc db 3c 73 a6 d8 bb
       0.009121231 0.04515983 0.026838692 -0.006611639
000100 b9 66 5a 3d c8 a4 85 bd cd 1c 2f bb df 3f 90 3d
       0.05332062 -0.0652557 -0.0026720047 0.070434324
000110 d4 60 72 3d 57 7d 9b bc 69 f1 87 3b 6a 8f 45 3d
       0.059174374 -0.018980665 0.0041486514 0.048232473
000120 80 ce 41 3c ee 23 46 bd a0 bc a2 3d 34 6a 9a 3d
       0.011829019 -0.04837411 0.079461336 0.07539788
000130 b0 80 4f 3b dc a5 99 3d 6c 42 6c bc 17 4a 99 bd
       0.0031662397 0.07502338 -0.014420133 -0.07484835
000140 a4 29 59 bd ea df 9f 3c 7f 76 80 3c 96 c2 9c 3c
       -0.053018227 0.01951595 0.015681503 0.019135755
000150 0a fd 88 3d e2 c0 b2 bd 22 ed af 3c 08 8b 29 bd
       0.06688888 -0.08728196 0.021475378 -0.041392356
000160 f1 65 96 3d 5c 6e ad 3d af 93 8b 3d bd 78 5b bd
       0.073436625 0.08468315 0.06815278 -0.053581942
000170 4a 90 ba bc 4d c4 5f bd 61 08 ae bd 07 a0 88 3d
       -0.02277388 -0.054630566 -0.08497692 0.06671148
000180 dc 63 1d bd 1f 11 a1 3d 87 a7 98 bd 9a 0c ac bd
       -0.03842531 0.07864594 -0.07453828 -0.08400841
000190 7f 98 56 bd 5f da 01 bd 54 6e 6a bd 88 4a 29 bd
       -0.052391525 -0.031702396 -0.057234123 -0.041330844
0001a0 e4 af 68 bd d2 19 46 bd d1 c7 88 3d 21 f8 a3 3d
       -0.056808367 -0.048364468 0.06678737 0.08006311
0001b0 78 86 44 bc 64 c3 09 3d d9 b8 d1 ba 13 3c 6f 3d
       -0.0119949505 0.033633605 -0.0016000523 0.0584069
0001c0 32 e2 b3 bd 0a 51 8d bc 71 9f 48 bd 3f 51 9f bd
       -0.08783378 -0.017250556 -0.04898018 -0.07779168
0001d0 3a 43 6a bd d0 09 ca 3c 38 0c 26 3d 4a 79 1e 3d
       -0.05719302 0.024662882 0.040538996 0.03868989
0001e0 a1 af a9 bd 2b be 9e 3d 92 0b 3f bd df c0 85 3c
       -0.08285452 0.077511154 -0.046641894 0.01632732
0001f0 a5 19 c8 3b 93 5b 7c bd b7 1e b1 bd ee 6f 6e bd
       0.0061065727 -0.06161077 -0.086484365 -0.058212213
000200 6b ad 90 3d 8a 92 9d 3d 4b 0c 01 bd 22 d2 8d bb
       0.07064327 0.07693966 -0.031505864 -0.0043280283
000210 46 0d b4 bd 6e a3 9d 3d 70 db 88 3d 03 d5 4b bd
       -0.08791594 0.07697187 0.066824794 -0.04976369
000220 aa 59 51 bd 7e 31 62 3d df 6b 0e bd 45 d9 0f 3d
       -0.0511109 0.05522298 -0.034770843 0.035119314
000230 28 fd 39 3d 15 95 b4 3d c0 8f 88 3d a2 e9 f4 bc
       0.045407444 0.08817498 0.06668043 -0.029896561
000240 e5 83 db bb 88 4c 33 3d 5b 41 49 3d f7 07 6a 3d
       -0.0066990727 0.043774158 0.049134593 0.057136502
000250 39 01 59 3d 3a 3b ab 3d 5a f2 22 3b 2b 77 5b bc
       0.05297968 0.08360906 0.002486369 -0.013395111
000260 13 d3 b4 3c cd 88 8d bd fe aa 88 3d 71 7f 85 3c
       0.022073304 -0.06910858 0.06673239 0.01629612
000270 f7 cf b3 3c 25 1c a1 3d b3 e3 24 3d 2c 3f 87 3d
       0.021949751 0.07866696 0.040256213 0.06603846
000280 74 61 71 bd fa b2 83 bd ee ae b2 3d e5 a0 b2 3d
       -0.05893083 -0.064306214 0.087247714 0.087220944
000290 7a 25 52 bd 77 36 3e bc 0f 2b 19 bd 90 62 9c 3d
       -0.05130527 -0.011609665 -0.03739458 0.07635987
0002a0 c3 64 b4 bd 7d aa 6c bd 2d e5 27 bd d9 a9 ab 3d
       -0.08808281 -0.057779778 -0.040990043 0.08382005
0002b0 6c e1 84 bd c3 56 48 3d a7 c3 92 bc 63 75 ff 3b
       -0.06488308 0.048910867 -0.01791556 0.007795976
0002c0 a8 9d 10 bd 76 9d a7 bd db f8 a1 bd 91 01 83 3d
       -0.035306603 -0.0818433 -0.079087935 0.06396783
0002d0 f6 48 af bd 99 93 5f 3d 78 bb 05 bd c4 37 f1 3c
       -0.08558838 0.05458412 -0.032649487 0.029445536
0002e0 07 7e 1c bd 3a 82 a8 3d 17 00 41 bd 27 46 14 bc
       -0.038206127 0.08227964 -0.047119226 -0.009049929
0002f0 9d fe 13 bd 29 08 7b bb f6 fb b4 bd bb d4 6d 3d
       -0.03613149 -0.0038304424 -0.0883712 0.058064204
000300 af 31 6e bd 24 c5 93 3d a5 32 5f bd 07 da 18 3d
       -0.05815285 0.07215336 -0.054491658 0.037317302
000310 7b f9 a5 bd 79 31 1c 3d c6 59 99 3c 18 3c a3 bd
       -0.08104225 0.03813312 0.018719565 -0.07970446
000320 46 a0 8a 3b 96 0d 7d 3d f6 c2 0b bd c9 32 01 bd
       0.004230532 0.061780535 -0.034121476 -0.031542573
000330 3e 46 98 bd b4 f1 77 3d b3 4e b7 bc 9b 04 48 3d
       -0.07435273 0.06053324 -0.022376394 0.048832517
000340 4d d2 63 3c 28 64 6b 3d d2 31 d8 bc 7c 36 6b 3d
       0.01390512 0.057468563 -0.026390944 0.057425007
000350 30 c4 16 3b 4c 74 a8 bc bc 36 46 3c 77 a5 95 3d
       0.002300512 -0.020563267 0.012098011 0.073069505
000360 ae 28 07 bd 59 7a ad 3d 4c 82 99 3d 3b 23 64 3d
       -0.03299778 0.084706016 0.07495555 0.05569766
000370 5f 4e aa 3c 85 c7 4d 3d c0 83 91 3d 11 fb 35 bd
       0.020789323 0.050239105 0.071052074 -0.04442889
000380 36 25 70 3d 44 fb 5d bd c5 76 29 bb ab f5 54 3c
       0.058629237 -0.054194704 -0.0025858146 0.012998025
000390 c2 f8 e1 3a 26 96 0f bc b9 08 90 3c 3c 86 32 3d
       0.0017240273 -0.0087638255 0.017582284 0.043585047
0003a0 93 61 9a 3d c9 5b a2 3d d7 10 9a bd da 22 86 bd
       0.07538142 0.07927663 -0.07522743 -0.06549616
0003b0 ca eb 43 3a c2 28 0f bd 97 5a 9e 3d a2 04 47 bd
       0.0007473795 -0.03495098 0.077321224 -0.048588403
0003c0 bf b4 19 3d 44 9e 96 3b 75 fe 35 3d 36 9f 93 bd
       0.03752589 0.0045965035 0.044432122 -0.072081015
0003d0 42 cb 72 3c 6c 29 78 3d 79 c7 ac 3b 64 b2 8f bd
       0.014818968 0.060586378 0.0052728024 -0.07016447
0003e0 d1 87 81 bd 78 48 a2 3b 1b 5a 8f 3d 8c 9e 63 bb
       -0.06324733 0.0049524866 0.06999608 -0.0034731952
0003f0 0c 3a b1 bd 55 6e c1 3a ee 70 19 bc 7d 02 e5 bb
       -0.0865365 0.0014757613 -0.009365303 -0.006988822

actor.2.bias f4 [5]
000000 9e 00 6c bd f6 6f 68 bc c1 96 40 bd 42 2b 88 3d
       -0.057617776 -0.01418685 -0.04701877 0.06648876
000010 72 82 0a 3d
       0.03381581

critic.0.weight f4 [128, 128]
000000 a7 75 51 bd a7 35 df bc f3 2b 2d 3d cd 4f 79 bd
       -0.051137593 -0.027247263 0.04227824 -0.06086712
000010 fc 0b 82 3d f3 78 ab bd c2 43 79 bd 62 82 6e bd
       0.06349942 -0.083726786 -0.060855635 -0.05822981
000020 29 1e 55 3d 7c 91 7f 3d 68 33 5b 3d 4a 47 54 3d
       0.052030716 0.062394604 0.05351582 0.0518258
000030 bb 84 a5 3d 5d 10 f2 3c 5a 61 9d bd e5 1c 58 3d
       0.08081957 0.029548818 -0.07684584 0.05276193
000040 d8 31 06 bd 04 4a 98 3d 65 ba 9d 3d 9b 8f 25 3d
       -0.03276238 0.07435992 0.077015676 0.040420156
000050 c7 b3 95 bd 5f 8f 51 bd 6f b6 52 bd 6c 4c 4c bd
       -0.073096804 -0.05116212 -0.051443513 -0.04987757
000060 8a d6 85 bd dc b6 95 bd 02 51 5f 3c 75 82 80 3d
       -0.06535061 -0.07310268 0.013630154 0.06274883
000070 e3 a4 ad 3b 57 3b 97 3d 14 79 6c 3d 7f 75 16 3d
       0.005299197 0.07384365 0.057732657 0.036733147
000080 b3 ea 77 3d 08 c3 65 bd 7c 71 43 3d e4 78 86 3d
       0.06052656 -0.0560942 0.04771565 0.06566027
000090 57 5a 6c 3d b2 29 33 3d 5a f5 3c bc dc 29 6a 3b
       0.057703342 0.043740936 -0.011533106 0.0035730517
0000a0 ce 73 12 3d 82 4e ad bd cd cb 31 3d b2 00 26 bd
       0.03575497 -0.0846224 0.04340725 -0.040528007
0000b0 e1 20 9f 3d 24 fc 26 ba c8 7f 9a 3d bb 07 31 bd
       0.07769943 -0.00063699693 0.075439036 -0.043220263
0000c0 b5 6f 7b bd 52 e5 68 bd 7f ad 2a 3c 7e 18 a8 bd
       -0.06138583 -0.056859322 0.010417341 -0.082077965
0000d0 03 2d db bc 54 8b 80 3d 87 0d 82 bc 0e bf 81 bd
       -0.026754862 0.06276575 -0.015875591 -0.06335269
0000e0 3e 26 95 bc 4c 1a 78 bd 09 e2 3f bd 69 c2 e3 bc
       -0.018206712 -0.060571954 -0.046846423 -0.027802663
0000f0 25 d0 50 3d 25 15 9b bd ab ac 24 bd 5b 74 94 bd
       0.050979752 -0.075723924 -0.04020373 -0.072487555
000100 82 24 9b 3c 60 59 e5 bc de bf 37 bd 0d fd 90 bc
       0.018938307 -0.027996719 -0.044860713 -0.017698789
000110 00 74 00 3c fd c5 42 3d 35 5e 81 bc 29 c5 b7 bc
       0.007840157 0.047552098 -0.015791992 -0.02243288
000120 d5 59 68 3d b1 18 95 bd 5c 8c 59 3d a8 01 57 3d
       0.056726296 -0.072801 0.053112373 0.052491814
000130 fb 7f 3a 3c 5c 94 4a bc 8c 66 b2 bd b1 d6 60 3d
       0.011383052 -0.012364473 -0.087109655 0.054892246
000140 00 5c 18 3d bf 3c a6 3d c9 f6 90 bd 6a 11 28 3c
       0.037197113 0.08117055 -0.070783205 0.010258058
000150 f2 b2 ef 3c 60 72 4a 3d 1f 97 b5 bc aa 71 a7 bd
       0.029260132 0.049425483 -0.022166787 -0.081759766
000160 29 66 b0 bd 5e ed 8f bd d8 01 55 bd fd c1 9e bd
       -0.086132355 -0.07027696 -0.05200371 -0.07751844
000170 d5 4c a1 3d 04 38 33 bd d0 09 f8 bc 90 17 10 3d
       0.07875983 -0.043754593 -0.030278116 0.03517872
000180 52 1e 0c bd 51 af 6c bd d7 bc a0 3c 35 da ec bc
       -0.034208603 -0.057784382 0.019621296 -0.028912643
000190 94 ab 8e 3d 10 a8 81 bd fd 26 aa bd c8 29 96 bd
       0.0696632 -0.063308835 -0.08308218 -0.07332188
0001a0 65 a6 7c 3c 17 1f b1 bd bf 2b 89 bd f9 17 87 bc
       0.015420531 -0.08648508 -0.06697797 -0.016490923
0001b0 21 ec 26 bd c5 df 17 3d bb 92 91 3d 0c 01 46 3d
       -0.040752534 0.037078638 0.07108065 0.048340842
0001c0 a1 98 a3 bc 90 d9 9c bd 10 7d bf 3c b5 11 ab 3c
       -0.01997024 -0.07658684 0.023375064 0.020882467
0001d0 46 76 8c 3d 14 da 08 3d c7 cd b3 3c dc c9 91 bd
       0.06858496 0.0334111 0.021948708 -0.0711858
0001e0 5e 7c 34 bd cc 89 b5 3b 3b c1 ae bc 59 d2 3c 3c
       -0.04406392 0.0055401083 -0.021332374 0.01152476
0001f0 9e 76 b2 bd 73 30 84 bb c2 63 5f bd 5e 8d ab 3d
       -0.08714031 -0.004034096 -0.054538496 0.08376573
000200 16 58 93 3d 53 24 1c bd 09 f0 30 bd 6f 9e 05 3d
       0.071945354 -0.03812058 -0.043197665 0.032621797
000210 bc 5b 5d 3d e1 0c 12 bd 20 f7 04 bd 5a e5 b4 3d
       0.054042563 -0.035656814 -0.03246224 0.08832808
000220 9c af a3 bd d6 6c 62 bd 3a 1a 14 3d e0 ab 86 bd
       -0.07992479 -0.055279575 0.036157824 -0.06575751
000230 8c bc c7 3c 04 50 b1 bd 59 75 b4 3d 41 83 42 bd
       0.024381898 -0.0865784 0.08811445 -0.047488455
000240 8a f8 99 3c b7 c7 b9 3c 55 db 94 bd 43 b3 72 bc
       0.01879527 0.02267824 -0.07268397 -0.014813247
000250 fb 2f 1c bd 50 64 02 3d d8 c8 5e 3c ed dd 9f bb
       -0.038131695 0.031833947 0.01359769 -0.0048787505
000260 03 93 09 bd 2c b5 97 3d 5e b8 88 bd f4 51 83 3c
       -0.033587467 0.07407603 -0.0667579 0.01603029
000270 88 5b bc bc 0e 59 32 3d f4 46 c6 38 d5 6f 83 bd
       -0.022992864 0.04354196 9.454592e-05 -0.06417815
000280 cf 17 6e bc 64 47 79 bd 2e ca 2a 3b 91 f1 67 bd
       -0.014532044 -0.0608591 0.002606045 -0.05662686
000290 02 f8 8d bc 81 d8 46 3d e9 dc 7b 3c 92 e3 8c 3b
       -0.017330173 0.048546318 0.015372493 0.0042995894
0002a0 07 a7 29 bb 99 89 44 bd 55 f7 8c 3d ba ea 50 bc
       -0.002588691 -0.047982786 0.06883112 -0.012751276
0002b0 c8 95 3c bd 46 ef 73 bd 70 17 fe bc 50 ff 99 bd
       -0.04604128 -0.05955436 -0.031017035 -0.075194
0002c0 0a aa a8 3d 1e 60 73 bd b9 75 76 bc ef 35 b1 3d
       0.082355574 -0.059417836 -0.015042716 0.08652865
0002d0 25 37 4c 3c c5 08 42 bd 3f 53 21 bd c7 8a 77 bd
       0.012464319 -0.047371645 -0.03938603 -0.060435083
0002e0 6d 98 a8 bc 2a 70 c2 bb 6b ce 55 3d 28 e8 90 bd
       -0.020580495 -0.005933781 0.05219881 -0.0707553
0002f0 2b db aa bd 79 ad 8f bd bd 48 a4 bd 2b 99 99 3d
       -0.08342584 -0.07015509 -0.08021686 0.074999176
000300 36 52 9c bd 2f 4a 9a bd 8d 6e db bc 29 25 75 3d
       -0.07632868 -0.07533681 -0.026786113 0.05984989
000310 9c c4 a4 3d ae f2 72 bc ef f2 d3 3c a8 2b 1b bd
       0.08045313 -0.014828367 0.025872676 -0.03788343
000320 8d f7 ad bc 54 79 99 bb ad 0c 97 3d 3b a5 70 bd
       -0.021236205 -0.004683653 0.073754646 -0.058751326
000330 28 ce 0d bd 94 46 52 bd 2c 51 2f 3c c5 53 8b 3d
       -0.034620434 -0.05133684 0.010700505 0.06803087
000340 40 cc de 3c f9 93 4e bd 71 5c cc bc 1f 43 41 bd
       0.027197003 -0.050434086 -0.024946423 -0.047183152
000350 6e 2a 00 bd 8c 0d 61 3d e0 bf 12 bc 83 b3 a4 bd
       -0.031290464 0.05494456 -0.008956879 -0.08042052
000360 ea c5 97 3d e7 21 8f bd bd 82 70 bd a7 a0 8e 3d
       0.07410796 -0.06988888 -0.05871843 0.06964236
000370 71 4e 82 3d a8 39 9b 3d 20 ed a6 3d 8d 6e 84 3d
       0.06362618 0.075793564 0.08150697 0.064663984
000380 a5 46 22 3d cf 42 88 bd 59 ae 13 3b ec 00 49 bd
       0.039618153 -0.06653368 0.002253434 -0.049073145
000390 36 b2 b1 bb 60 12 a7 3d 00 9a 75 bd 96 ab ce bb
       -0.0054228557 0.08157802 -0.05996132 -0.0063070757
0003a0 b9 62 af 3d 18 4c c7 3c 87 89 68 bd 70 3a 58 bd
       0.08563752 0.024328277 -0.05677178 -0.052790105
0003b0 4a 38 05 3d b7 11 bf bc 7d f2 80 3d 42 5e 84 bc
       0.032524385 -0.023323877 0.06296251 -0.016158227
0003c0 ed 8a 82 bc 84 ff cd 3c eb 46 29 bd 06 18 87 bd
       -0.015935386 0.025146253 -0.0413274 -0.06596379
0003d0 5a 2e 78 3d 54 82 3b bd bc 51 53 3c 72 93 41 3d
       0.06059108 -0.045778587 0.012897905 0.047259755
0003e0 28 bd 9d bd a8 f2 b1 bd ba 70 05 3c e6 e5 5b 3d
       -0.07702094 -0.08688861 0.008144552 0.053686045
0003f0 93 91 a0 bd 40 0b 67 3d ce 17 7d bd 4e c9 28 bc
       -0.07840266 0.056407213 -0.06179028 -0.010301901

critic.0.bias f4 [128]
000000 06 67 38 3c ce 7f 80 3d 30 a1 5d bd 21 61 24 bd
       0.011255031 0.06274377 -0.0541088 -0.04013169
000010 f2 6c ea bb 69 be a4 bb f5 e8 0b bd 0f 68 67 3d
       -0.0071541006 -0.0050275815 -0.034157712 0.056495722
000020 1b 1e a2 bc 84 ae 9b bd fe 5a 91 3d 29 78 87 3c
       -0.019789746 -0.076016456 0.070974335 0.016536789
000030 41 f1 8b 3d 83 2d ad 3d 1f ad 11 bc fa 1c 4d 3d
       0.06833125 0.08455946 -0.008891373 0.050076462
000040 83 3a 20 3d 8f 92 d9 3c a3 df 9e 3d d6 1f 90 3d
       0.0391183 0.026559142 0.07757499 0.07037322
000050 7f b6 e0 bb 39 69 6c 3d a7 b0 d1 bc 0b 9d 98 3d
       -0.0068576927 0.057717536 -0.02559693 0.074518286
000060 1e da 03 3d e5 6f 6f 3d f0 54 42 3d dd 63 f7 3c
       0.032190435 0.05845632 0.047444284 0.030198986
000070 9d 64 1f bd 70 56 9a bd b4 28 4a bd 17 fc 97 bd
       -0.03891431 -0.07536018 -0.049355224 -0.07421129
000080 27 51 0d bd 03 ee ad bd ba ff ad bd cb a5 22 3d
       -0.03450122 -0.08492663 -0.084960416 0.039708894
000090 c7 28 68 bd 27 18 11 3d f2 b2 93 3b b4 de b2 bd
       -0.056679513 0.035423424 0.004507416 -0.087338835
0000a0 ea 52 e2 bc b8 f1 18 bd 45 ea 53 bd 9b 80 9e 3d
       -0.027627427 -0.037339896 -0.05173709 0.07739373
0000b0 d1 f9 40 3d 20 18 29 3d da 49 96 3d e7 65 11 3d
       0.047113243 0.041282773 0.07338305 0.035497572
0000c0 d6 8a a4 bd 98 d6 1a bd f6 2f b0 3d 9b 3a a3 3d
       -0.08034293 -0.03780231 0.08602898 0.079701625
0000d0 74 85 bc 3a 03 ab 56 3d 49 e1 3a bd 34 79 a4 3c
       0.0014383034 0.052409183 -0.045625005 0.020077325
0000e0 d2 82 9e bd 5b 03 59 3d 99 7f 20 bd 5c 73 84 3d
       -0.07739796 0.052981716 -0.039184187 0.064673156
0000f0 ee d0 78 3d 3e 86 3f bd 7e b4 81 3d 3a 37 9f 3d
       0.060746126 -0.046758883 0.06333254 0.077742055
000100 ae 2c 4c 3d 26 a2 bd 3c 2a 42 4d 3c 05 0c 8b bb
       0.049847297 0.023148607 0.012527982 -0.004243376
000110 59 96 11 bd da 3e bc 3c 0d 55 b1 3d a3 86 78 b9
       -0.035543773 0.022979189 0.086588 -0.00023701279
000120 06 4c ae 3d a8 31 02 3d 0b 3c 5e bb 30 40 a7 3d
       0.08510594 0.031785637 -0.00339103 0.0816654
000130 21 e6 03 bd 39 bf 10 3a e8 4a 3e bd b0 5e ac 3c
       -0.03220189 0.00055216585 -0.046458155 0.021041244
000140 ee b8 91 3d c3 ee 1d bd d3 c5 94 3d 30 95 55 3d
       0.07115351 -0.03855778 0.072642945 0.05214423
000150 89 71 67 3c 23 7e a6 bd 01 47 8b bd 65 60 42 bd
       0.01412619 -0.081295274 -0.06800652 -0.04745521
000160 f0 0f 0a bc d5 3f 7e bd aa 37 85 3d 22 5f 4b bd
       -0.008426651 -0.062072594 0.06504758 -0.049651273
000170 c9 3d 82 bd 5d 03 a4 bd 96 5a a1 3d a9 c4 2d bc
       -0.06359441 -0.08008454 0.07878606 -0.0106059695
000180 d3 81 6d 3d 7b b1 3a bc b3 8d 19 3c aa f8 75 3d
       0.05798514 -0.011394854 0.009372163 0.060051598
000190 29 79 4e 3d e6 8c 29 3d f6 68 f8 bc fc 4f af bd
       0.050408516 0.041394137 -0.030323487 -0.08560178
0001a0 84 fe 00 bd 44 53 6f 3a 60 69 a5 bc 20 dd a1 bd
       -0.031492725 0.0009129534 -0.020191848 -0.07903504
0001b0 4d 11 1c bc 33 15 96 3d 41 fc 25 bd 7b 06 9f bd
       -0.009525609 0.07328262 -0.04052377 -0.07764908
0001c0 ac d9 b1 3d ef 55 c2 bc 60 0e 95 bd 8b fd fc 3c
       0.08684096 -0.023722617 -0.072781324 0.030882617
0001d0 9d 2a d5 3a c9 21 6e bd f8 40 7c bc 30 b6 d7 bc
       0.001626331 -0.05813769 -0.015396349 -0.026331991
0001e0 00 9c 8c bd b1 e1 06 3d 6d bc 9f 3d f2 ff 82 bd
       -0.06865692 0.03293008 0.07799611 -0.06396474
0001f0 49 b9 24 bc 2e f6 83 bd cd f2 18 3c 61 e9 aa 3b
       -0.010053941 -0.064434394 0.009335232 0.005215809
