models/frl-models/final_frl_agent1.pt (torch, 318182 bytes, 17 tensors)

input_layer.weight f4 [128, 20]
0	0xbd1c67a6	-0.038184784
1	0xbe09cd1c	-0.1345715
2	0x3e1b2a38	0.15152824
3	0xbe485886	-0.19565019
4	0x3d342fca	0.043990888
5	0xbe3fdaf0	-0.18735862
6	0x3e0ea32c	0.13929433
7	0x3e189425	0.14900263
8	0x3e176c69	0.14787449
9	0x3c479abd	0.012182889
10	0xbd48dd99	-0.049039457
11	0xbca128f7	-0.019672854
12	0x3e441eac	0.19152325
13	0x3ddb03d7	0.10694092
14	0xbe0cfc3a	-0.13768092
15	0xbda8a757	-0.082350425
16	0x3e0ceff1	0.13763405
17	0xbe3f249e	-0.18666312
18	0xbe50bfbb	-0.2038564
19	0x3e5e64ee	0.21718189
20	0xbe5b2284	-0.21399885
21	0x3d9ebead	0.07751212
22	0x3e40c49f	0.18825005
23	0xbe04866a	-0.129419
24	0x3e60bfbf	0.21948145
25	0xbe5f5e78	-0.2181338
26	0xbe5e4366	-0.21705398
27	0xbd0fc5bc	-0.035100684
28	0x3d570b6f	0.05250114
29	0xbe479719	-0.19491233
30	0xbe1828e6	-0.14859352
31	0x3d128b3d	0.03577732
32	0xbd7c93b5	-0.061664302
33	0xbdb873bf	-0.09006452
34	0x3dfc1b68	0.12309915
35	0x3d61a967	0.055093195
36	0xbe474fb2	-0.19463995
37	0x3e064a5b	0.13114302
38	0x3e05141e	0.12995955
39	0xbd3804b2	-0.044926353
40	0xbdbc103f	-0.09182786
41	0xbdc1a926	-0.09456091
42	0x3e35341a	0.17695656
43	0xbe185e33	-0.14879684
44	0xbe4df039	-0.20111169
45	0x3e20d14c	0.1570484
46	0xbe5e4e7e	-0.2170963
47	0xbe149439	-0.14509667
48	0xbc09ba52	-0.008406239
49	0xbdc8c243	-0.098026775
50	0xbe527039	-0.20550622
51	0x3e4c65f4	0.19960767
52	0xbd07723b	-0.033067923
53	0x3e4e1b02	0.2012749
54	0xbdb3125b	-0.087437354
55	0xbcd7e53a	-0.02635442
56	0xbe58f762	-0.21188119
57	0x3d4a93de	0.049457423
58	0xbe056dce	-0.13030168
59	0x3de87e8d	0.11352263
60	0xbe3beb16	-0.18351397
61	0xbe4e649c	-0.20155567
62	0xbe41ade8	-0.18913996
63	0xbe1a0f89	-0.15044989
64	0x3de6b43b	0.11264845
65	0x3d94a238	0.07257503
66	0x3dbcbdba	0.09215875
67	0x3e1b03de	0.15138194
68	0xbd88b80a	-0.06675728
69	0xbc47f5db	-0.012204613
70	0x3e0b76e4	0.13619572
71	0xbe3acbf5	-0.18241866
72	0x3c7f57de	0.015584914
73	0xbd29a23a	-0.041414477
74	0xbe47686f	-0.19473432
75	0x3e3074a2	0.17231992
76	0xbe591e9b	-0.21203081
77	0x3e36d7fd	0.1785583
78	0x3e5bc527	0.21461926
79	0xbe049cb4	-0.12950402
80	0x3e19be0d	0.15013905
81	0x3e4f3667	0.20235597
82	0xbe36663e	-0.1781244
83	0x3e0b8bdb	0.1362757
84	0xbc7577c5	-0.014982169
85	0xbd93ccbe	-0.07216786
86	0xbe388845	-0.18020733
87	0x3e2c1549	0.16804995
88	0xbdcfcb8e	-0.10146247
89	0xbdd80123	-0.10547092
90	0x3e151ce1	0.14561798
91	0xbe1faaaa	-0.15592447
92	0xbc824429	-0.015901642
93	0x3d9ffdd9	0.078120895
94	0xbb38cf9f	-0.0028199924
95	0x3d573b5f	0.052546855
96	0x3c13d4e4	0.009022925
97	0x3e38a41f	0.18031357
98	0xbe18602c	-0.14880437
99	0xbdb99bdb	-0.0906293
100	0xbdddc2d1	-0.10828174
101	0x3e5f7941	0.21823598
102	0x3d5afe2a	0.053465046
103	0x3e581730	0.21102595
104	0xbe53ec21	-0.20695545
105	0xbe276680	-0.16347694
106	0x3dcd9452	0.100380555
107	0x3ddfe895	0.109330334
108	0xbd9e90cc	-0.077424616
109	0xbe22bf80	-0.15893364
110	0xbd932124	-0.071840554
111	0x3df27605	0.11838917
112	0xbe635847	-0.22201644
113	0x3e4ec4a0	0.20192194
114	0xbd7cbe80	-0.061705112
115	0x3dfea98a	0.12434681
116	0xbd91064a	-0.07081278
117	0xbd9cb267	-0.07651215
118	0x3d66476a	0.05622045
119	0xbe3da5a4	-0.18520218
120	0x3c916d22	0.017752234
121	0x3d06cd60	0.032910705
122	0x3d24dc8d	0.040249396
123	0x3e28091e	0.16409728
124	0x3d8d324e	0.068943605
125	0x3d2de848	0.04245785
126	0x3dd84491	0.10559953
127	0x3dd6a6c1	0.104810245
128	0x3d9c3b1c	0.07628462
129	0xbdbe2b39	-0.09285588
130	0xbe579619	-0.21053351
131	0x3dd4225d	0.10358117
132	0x3dac614a	0.08416994
133	0xbe49d67e	-0.19710729
134	0x3d8d44a7	0.0689786
135	0x3ce96d04	0.028494366
136	0xbe4acc76	-0.19804558
137	0x3e24076f	0.1601846
138	0xbe55fea7	-0.20897923
139	0xbe1071a5	-0.14105852
140	0x3cebc3b9	0.028779851
141	0x3db74f01	0.08950616
142	0x3dab44a4	0.083627015
143	0xbda7800a	-0.081787184
144	0xbe5d14a4	-0.21589905
145	0xbe3aeb93	-0.18253927
146	0x3bdf9751	0.0068234582
147	0xbe1e9e66	-0.15490112
148	0xbdc40975	-0.09572116
149	0xbd447515	-0.04796322
150	0xbe2650e5	-0.16241796
151	0xbe2fa5d7	-0.17153107
152	0xbe42a9cd	-0.19010086
153	0xbe1d5209	-0.15363325
154	0x3e2697af	0.162688
155	0xbe51ef37	-0.2050141
156	0xbe3d4afb	-0.18485634
157	0x3d3da50f	0.04629999
158	0xbde57eed	-0.1120585
159	0x3deac464	0.1146324
160	0x3e3ce863	0.18448023
161	0x3d79bb0e	0.060969405
162	0x3e59adf5	0.21257766
163	0xbbd9ee1e	-0.0066507002
164	0xbe61722c	-0.2201621
165	0x3e5562a5	0.20838411
166	0x3def89ed	0.11696229
167	0x3e286f7b	0.16448776
168	0x3de79c40	0.11309099
169	0x3e47087c	0.1943683
170	0xbde38d2d	-0.111109115
171	0xbdf25a31	-0.11833609
172	0x3e47d852	0.19516113
173	0xbddccb5b	-0.107809745
174	0x3dfdf7ed	0.12400804
175	0x3d76ad37	0.060223784
176	0x3cfd9953	0.0309569
177	0x3ddbaaee	0.107259616
178	0x3e599adc	0.2125048
179	0x3e24d69d	0.16097493
180	0xbe385617	-0.1800159
181	0x3e0adb3c	0.13560194
182	0x3e4b6be1	0.19865371
183	0xbe60410f	-0.21899818
184	0xbe2cd5f9	-0.16878499
185	0xbe41ab09	-0.18912901
186	0xbbd28aa1	-0.0064252173
187	0xbdf9e665	-0.122021474
188	0x3e55c07b	0.20874207
189	0x3e584a47	0.21122085
190	0x3cb40a56	0.021977585
191	0xbe6462da	-0.22303334
192	0xbc2d079d	-0.010560897
193	0x3de76e7e	0.113003716
194	0xbdcc0437	-0.099617414
195	0x3db33d83	0.08751967
196	0x3df6afd4	0.12045255
197	0xbd200d51	-0.0390752
198	0x3de80f2b	0.11331018
199	0x3e61fee2	0.22069886
200	0x3e3fe47e	0.18739507
201	0x3e0f3256	0.13984045
202	0xbe1bb962	-0.15207437
203	0x3ddaa837	0.10676616
204	0xbc82327e	-0.015893217
205	0xbd49e8e4	-0.049294367
206	0xbe4b3bdf	-0.19847058
207	0x3dd42ebf	0.103604786
208	0xbe3c2815	-0.18374665
209	0x3d896837	0.067093305
210	0xbe414afa	-0.18876258
211	0xbd1f0b06	-0.038828872
212	0x3e1bc164	0.15210491
213	0xbe1e4894	-0.15457374
214	0x3e62f9f4	0.22165662
215	0xbba59a82	-0.005053819
216	0xbda5d4b0	-0.080972075
217	0xbde70cf2	-0.11281766
218	0xbda3f827	-0.08006316
219	0x3e32afa6	0.17449817
220	0x3cb86dcb	0.02251329
221	0x3e454ed9	0.19268359
222	0xbcb43d43	-0.022001868
223	0x3df322da	0.11871882
224	0xbe0c23cc	-0.1368553
225	0xbd9f66bb	-0.07783266
226	0xbbd017a3	-0.006350474
227	0xbdc53f6b	-0.09631237
228	0xbd3ae9d7	-0.045633163
229	0x3ba0dcc5	0.0049091303
230	0x3c8ffbcb	0.017576119
231	0xbd5aedfb	-0.053449612
232	0xbde16192	-0.11004938
233	0x3d642330	0.05569762
234	0x3d86d0a6	0.06582765
235	0x3d329f57	0.04360899
236	0xba59b920	-0.0008305479
237	0x3d383aba	0.04497788
238	0xbe1d0d10	-0.15337014
239	0x3e4ced8d	0.20012493
240	0xbcf2ed86	-0.029654276
241	0xbe400576	-0.18752083
242	0x3b85066c	0.0040596034
243	0x3da10530	0.078623176
244	0x3ce69448	0.028146878
245	0x3e3fc976	0.18729195
246	0xbe29036f	-0.16505216
247	0xbe29b790	-0.1657393
248	0xbdf5f90b	-0.12010392
249	0x3e635872	0.22201708
250	0x3da9d411	0.082924016
251	0x3e0e185e	0.13876483
252	0x3e41fa83	0.18943219
253	0x3e17cc5e	0.14824054
254	0xbdc237a4	-0.09483269
255	0x3cacca02	0.021092419

input_layer.bias f4 [128]
0	0x3c756db5	0.0149797695
1	0x3d8f629b	0.070012294
2	0xbb88b158	-0.0041715316
3	0x3e546e99	0.20745315
4	0x3e49fc1d	0.1972508
5	0xbd186341	-0.03720403
6	0x3e4fb470	0.20283675
7	0xbe45e510	-0.19325662
8	0xbe25ca93	-0.16190557
9	0x3d54b36a	0.051928915
10	0x3dfcc751	0.12342704
11	0xbe162218	-0.14661443
12	0xbe623fb9	-0.22094621
13	0xbdcee658	-0.10102528
14	0x3e55900b	0.2085573
15	0x3e045d04	0.12926108
16	0x3e575388	0.21027958
17	0xbe15c11d	-0.14624448
18	0x3de152e1	0.11002136
19	0x3e3ef844	0.18649393
20	0x3dc6023c	0.09668395
21	0x3e28c0c7	0.16479789
22	0x3dd049c8	0.10170323
23	0x3e3bd4e3	0.18342929
24	0xbe400cb3	-0.18754844
25	0x3e14092b	0.14456622
26	0xbd7e7a5c	-0.06212841
27	0xbdc7dd4a	-0.097590044
28	0xbc21314b	-0.0098384125
29	0xbdd1b658	-0.102398574
30	0xbe4d3341	-0.20039083
31	0x3d1f53c8	0.03889826
32	0x3d9adf34	0.07562104
33	0x3e0c7512	0.13716534
34	0x3e194309	0.14966978
35	0xbe028f40	-0.12749958
36	0x3e23d2d7	0.15998398
37	0x3df7e9f0	0.12105167
38	0x3e426373	0.1898325
39	0xbd93abe7	-0.07210522
40	0x3e561692	0.20907047
41	0x3d405f5b	0.046965938
42	0xbe541a89	-0.20713247
43	0xbe496c34	-0.19670182
44	0xbe2ba95a	-0.16763821
45	0x3e305fef	0.17224096
46	0x3d07395a	0.03301368
47	0x3d6360ee	0.05551236
48	0x3e3c784a	0.18405262
49	0xbdf2c754	-0.11854425
50	0xbb306813	-0.0026917502
51	0xbc37cd5b	-0.011218394
52	0xbe4567f8	-0.19277942
53	0x3e3b54ba	0.1829404
54	0xbd1c2a45	-0.03812625
55	0xbd193dff	-0.03741264
56	0x3e63c167	0.22241746
57	0x3c123f28	0.00892619
58	0xbe3a411c	-0.181889
59	0x3e2260ca	0.15857235
60	0xbe195963	-0.14975505
61	0xbdec1044	-0.1152654
62	0x3e58717a	0.21137038
63	0x3c155ac0	0.009115875
64	0xbe58300b	-0.21112077
65	0x3e0e930f	0.13923286
66	0x3e2702e6	0.163097
67	0x3e1e5c0f	0.15464805
68	0xbe3cfa56	-0.1845487
69	0xbe14b043	-0.14520364
70	0xbd13ed20	-0.036114812
71	0x3c7d2681	0.015451075
72	0xbe649516	-0.22322497
73	0xbdf01ac1	-0.11723853
74	0x3e451f6c	0.19250268
75	0xbdf839e1	-0.121204145
76	0x3e113bb6	0.14182934
77	0x3dc001ee	0.09375368
78	0xbd2c52b7	-0.04207107
79	0xbdd108c1	-0.10206748
80	0xbe24f150	-0.16107678
81	0xbe04642c	-0.12928838
82	0x3d5a1869	0.053245936
83	0xbdb74978	-0.0894956
84	0x3e18633b	0.14881603
85	0x3e360b2c	0.17777699
86	0xbe24789d	-0.16061635
87	0xbe0ca540	-0.13734913
88	0xbc8c152a	-0.017099936
89	0xbdaba870	-0.08381736
90	0x3cc8bbce	0.024503615
91	0xbe5d7f76	-0.21630654
92	0xbc0390c6	-0.008030122
93	0xbd6228bf	-0.05521464
94	0xbd67851b	-0.056523424
95	0x3e3f3805	0.18673714
96	0x3da7a569	0.08185846
97	0xbe10fd2b	-0.14159076
98	0x3d9ae6c4	0.07563546
99	0xbd578cb5	-0.052624423
100	0xbe331bc6	-0.17491063
101	0xbdf117af	-0.117720954
102	0xbe382ff0	-0.17987037
103	0x3dd4119b	0.103549205
104	0xbe2b7f44	-0.16747767
105	0x3e0bb405	0.13642891
106	0xbdc12d49	-0.094324656
107	0xbe560599	-0.20900573
108	0xbe14946b	-0.14509742
109	0x3ddb19b9	0.106982656
110	0xbe159957	-0.14609276
111	0xbc2e16f5	-0.010625591
112	0x3d1e5488	0.038654834
113	0xbdb23a4c	-0.087025255
114	0x3e29d2f1	0.16584374
115	0x3d83a633	0.06428184
116	0xbc59fe55	-0.013305266
117	0x3e2d56d1	0.16927649
118	0xbe3de775	-0.18545325
119	0xbe260caa	-0.16215768
120	0xbb644009	-0.0034828207
121	0x3d53e7e0	0.051734805
122	0xbe1a732c	-0.15082997
123	0xbe1827d2	-0.1485894
124	0xbd8aa62b	-0.06769975
125	0x3da85381	0.08219052
126	0x3e497625	0.19673975
127	0x3e5a3570	0.21309447

embedding.1.weight f4 [128, 128]
0	0xbcd824e5	-0.02638478
1	0x3db4c081	0.0882578
2	0x3d3cd1d4	0.046098545
3	0x3d622ccf	0.055218514
4	0xbcaa5056	-0.02079026
5	0x3d8cd044	0.06875661
6	0x3da533de	0.080665335
7	0x3d259652	0.04042656
8	0xbdaebc4f	-0.08532011
9	0x3db22109	0.08697707
10	0x3d9ba67d	0.076001145
11	0xbd313c1d	-0.04327022
12	0x3bc29c17	0.0059390175
13	0x3da8ea74	0.082478434
14	0xbd03d7c9	-0.03218821
15	0xbd4c67f5	-0.04990383
16	0xbd784001	-0.060607914
17	0xbdae126d	-0.08499608
18	0x3d2b30d5	0.041794617
19	0xbce35d08	-0.027754322
20	0xbd233343	-0.03984381
21	0xbda5c8ee	-0.08094965
22	0x3cee3da3	0.029082125
23	0xbd858817	-0.06520098
24	0xbd25a9bf	-0.040445086
25	0x3d1adfee	0.037811212
26	0x3d97727e	0.073948845
27	0x3d6e26e6	0.058142565
28	0x3da31897	0.079636745
29	0xbc46ef4a	-0.012142012
30	0xbdae42ba	-0.08508821
31	0x3d25ab5c	0.040446624
32	0xbdaffac3	-0.08592751
33	0x3b16185c	0.0022902703
34	0xbda05c30	-0.07830083
35	0x3d847935	0.06468431
36	0xbd060a7d	-0.032724846
37	0xbd1b183e	-0.037864916
38	0x3d51695b	0.051125865
39	0x3d689c20	0.056789517
40	0x3cf732b8	0.030175552
41	0xbd08ed56	-0.033429466
42	0x3b01db90	0.0019814707
43	0xbd9a39cc	-0.07530555
44	0xbd8afb3d	-0.06786201
45	0x3d39e74d	0.0453866
46	0x3cdfbac4	0.027310736
47	0xbd902370	-0.07038009
48	0x3c2b826d	0.010468108
49	0x3d087bd3	0.033321213
50	0xbda7e3ae	-0.08197723
51	0x3b2df3a4	0.0026542926
52	0x3d546fa9	0.0518643
53	0x3da6e319	0.08148784
54	0x3c98defb	0.018661013
55	0xbd63a57f	-0.05557775
56	0xbda43864	-0.08018568
57	0xbd7d8eb3	-0.061903667
58	0x3d8eb12f	0.06967389
59	0xbb3074fc	-0.0026925197
60	0x3d9e70a6	0.0773633
61	0x3d1aaa25	0.03775992
62	0xbc3934d6	-0.011304101
63	0xbd520209	-0.051271472
64	0xbd171786	-0.036887668
65	0xbdb2503c	-0.0870671
66	0xbdaf0aeb	-0.08547004
67	0x3c007f23	0.007842812
68	0x3d4bd59e	0.049764268
69	0x3b8d434c	0.004311001
70	0xbd5f2429	-0.054477844
71	0xbd99c23a	-0.07507749
72	0x3da2a90b	0.07942399
73	0x3d191688	0.037375003
74	0x3d40750c	0.046986625
75	0x3d38a9c7	0.045083787
76	0x3d5f647d	0.054539192
77	0xbc0426d1	-0.008065895
78	0x3cad40b3	0.021149015
79	0xbc151a3e	-0.009100495
80	0xbc729fba	-0.01480859
81	0xbc7250d7	-0.0147897815
82	0x3daffca4	0.08593109
83	0xbadc88d2	-0.0016825444
84	0x3dad8e85	0.08474449
85	0x3d498b68	0.049205214
86	0x3d95471e	0.07288955
87	0xbca7a7ae	-0.020465698
88	0xbd9719a0	-0.073779345
89	0xbd310f55	-0.043227512
90	0x3d8417ad	0.06449828
91	0x3d84ffd1	0.064941056
92	0x3db45654	0.08805528
93	0xbda542b5	-0.08069364
94	0x3ce4eec1	0.027945878
95	0xbc809d47	-0.015699996
96	0x3d30805e	0.04309117
97	0x3d458274	0.048220113
98	0xbc55a45e	-0.0130396765
99	0x3bdf48a8	0.006814081
100	0x3d7a02ee	0.06103795
101	0x3d3d0b40	0.046153307
102	0xbc89b5ab	-0.016810259
103	0x3d2da718	0.04239568
104	0xbd573e17	-0.052549448
105	0xbd6daa2a	-0.05802361
106	0xbd8409fe	-0.06447218
107	0x3d4513ae	0.04811447
108	0xbbc2b36d	-0.0059417994
109	0x3d5d41dc	0.054017887
110	0x3d63c874	0.05561109
111	0x3cd8979a	0.026439477
112	0xbd8171d6	-0.063205406
113	0x3be4db28	0.0069841333
114	0xbda49228	-0.080356896
115	0xbd3efa6c	-0.04662554
116	0x3d6fe36b	0.058566492
117	0xbd178047	-0.03698757
118	0x3da52d00	0.08065224
119	0xbd1254f0	-0.035725534
120	0x3cdcdd2f	0.026960937
121	0xbd6e64c0	-0.05820155
122	0xbd8597d6	-0.06523101
123	0xbccccdcd	-0.025000477
124	0xbd7d877c	-0.061896786
125	0xbcabdcd3	-0.02097932
126	0xbda4fe47	-0.08056312
127	0x3d893bd4	0.067008644
128	0x3ceb3af5	0.028714636
129	0xbd0ea71d	-0.03482734
130	0x3d88e966	0.06685142
131	0xbcfca577	-0.030840619
132	0x3d34bfb0	0.04412812
133	0x3d37c606	0.044866584
134	0xbdafb460	-0.08579326
135	0x3d89ffd1	0.06738246
136	0xbbc1a851	-0.0059099575
137	0xbd06e6be	-0.032934897
138	0xbda01d92	-0.0781814
139	0xbdb32044	-0.087463886
140	0x3cedb284	0.029015787
141	0x3cd84314	0.026399173
142	0xbda71171	-0.081576236
143	0xbd421514	-0.047383383
144	0x3d804ed7	0.062650375
145	0xbd788cdf	-0.06068122
146	0x3d5e0a0c	0.0542088
147	0xbd9398dd	-0.07206891
148	0x3da8972b	0.08231958
149	0x3d56000f	0.05224615
150	0x3d50f378	0.05101344
151	0xbd844906	-0.064592406
152	0x3d8bd93e	0.06828545
153	0xbc2cee19	-0.010554814
154	0xbce26fcc	-0.0276412
155	0x3db0396e	0.08604704
156	0xbd55b7db	-0.05217729
157	0x3d7787b7	0.060432162
158	0xbd209fe5	-0.039214987
159	0x3b8cac3e	0.004292994
160	0x3d113117	0.035447206
161	0x3c3983cf	0.0113229295
162	0xbd94338c	-0.07236394
163	0x3bd4b80f	0.006491668
164	0xbd230e94	-0.039808825
165	0x3be0e5f5	0.0068633505
166	0x3d29b2f9	0.041430447
167	0x3d6f9748	0.058493882
168	0xbcaebfd1	-0.0213317
169	0x3d83db85	0.064383544
170	0xbcd2f318	-0.025750682
171	0x3cd58f8d	0.026069427
172	0x3c033c1a	0.008009935
173	0xbcb094f0	-0.021555394
174	0xbd010bf1	-0.03150553
175	0x3d56b17d	0.05241536
176	0xbd2ecda1	-0.04267657
177	0xbd691be1	-0.056911353
178	0xbda684b4	-0.0813078
179	0x3daf2900	0.08552742
180	0x3d90f6e6	0.07078342
181	0x3d314792	0.043281145
182	0xbcf149bb	-0.029454103
183	0x3d129ac1	0.035792116
184	0xbd6ad980	-0.05733633
185	0x3cc34fad	0.023841703
186	0x3c3e0465	0.011597727
187	0x3d630310	0.055422843
188	0xbca05d8f	-0.019575862
189	0x3ba2db75	0.004970009
190	0x3c790339	0.015198522
191	0x3d2745b6	0.040837966
192	0xbda68ff0	-0.08132923
193	0x3c58980b	0.013219844
194	0x3da1be30	0.078976035
195	0x3d6c4c5e	0.057690017
196	0xbd792df8	-0.060834855
197	0xbd9c2158	-0.07623547
198	0x3d679ea6	0.056547783
199	0xbd7d5a0e	-0.06185346
200	0x3ccbf84d	0.024898672
201	0x3d8bfef7	0.0683574
202	0x3ca2d5fa	0.019877423
203	0xbcceb71f	-0.025233803
204	0xbda2813d	-0.079348065
205	0x3cb238f0	0.021755666
206	0xbd93f67c	-0.072247475
207	0x3d8a6b01	0.067586906
208	0xbcbb94d6	-0.022898119
209	0xbd32118a	-0.043473758
210	0xbd22f95e	-0.039788596
211	0x3cfe7bd9	0.031064915
212	0xbd617ea9	-0.055052433
213	0xbd296ed3	-0.041365456
214	0xba0357a2	-0.0005010312
215	0xbd97e9f0	-0.07417667
216	0xbd8e0337	-0.06934207
217	0xbd47ea6f	-0.048807558
218	0xbc7dbce8	-0.015486933
219	0xbc068145	-0.008209531
220	0xbd9c20d7	-0.07623451
221	0x3c9be9a3	0.019032305
222	0x3d8e19f5	0.06938545
223	0xbb9d3bca	-0.004798387
224	0xbcce2350	-0.025163323
225	0xbd3d450b	-0.046208423
226	0x3dab80a8	0.083741486
227	0x3c6944ef	0.014237626
228	0xbd47ee1d	-0.048811067
229	0xbdb4f73a	-0.08836217
230	0xbd0083cd	-0.031375695
231	0xbcf0dc87	-0.02940203
232	0x3d6071fb	0.0547962
233	0x3ced0102	0.028931145
234	0x3d145f75	0.036223847
235	0xbd881365	-0.06644324
236	0xbd28f202	-0.04124642
237	0xbd8a4179	-0.06750769
238	0xbd8912d0	-0.06693041
239	0xbdad0a51	-0.08449233
240	0x3d9688fa	0.07350345
241	0x3d7fcb91	0.062449995
242	0x3d9de52e	0.07709728
243	0xbd0689d8	-0.0328463
244	0x3d9254ed	0.071451046
245	0x3cc3310c	0.023827098
246	0xbc6ca5d0	-0.01444383
247	0x3d916a06	0.071003005
248	0x3c85540b	0.016275426
249	0x3b8ff4fe	0.004393219
250	0xbd7133db	-0.058887344
251	0xbdae36b6	-0.08506529
252	0xbac1ddb4	-0.0014790804
253	0xbd94804f	-0.072510354
254	0x3d932502	0.07184793
255	0xbd4b6336	-0.04965516

embedding.1.bias f4 [128]
0	0xbd7b9502	-0.0614214
1	0xbda82162	-0.08209492
2	0xbbda9c3b	-0.006671456
3	0x3d3f79b7	0.046746936
4	0x3c672235	0.014107277
5	0x3d77deef	0.06051534
6	0x3b8f0794	0.004364917
7	0x3d6d5bb8	0.057948798
8	0x3d34412b	0.04400746
9	0x3c4c92cd	0.012486172
10	0xbdaa050f	-0.08301746
11	0x3d741838	0.05959341
12	0xbd8620fa	-0.065492585
13	0x3c63031e	0.013855724
14	0x3d9bbf75	0.07604877
15	0xbdad352d	-0.08457408
16	0x3da40156	0.08008067
17	0x3dae4dae	0.0851091
18	0x39c320da	0.00037217775
19	0xbceb3312	-0.028710876
20	0x3db042d0	0.086064935
21	0xbb91bfa3	-0.0044478937
22	0xbd89d143	-0.06729367
23	0x3d37fbd2	0.04491789
24	0xbc26e863	-0.010187241
25	0x3da55427	0.080726914
26	0x3db1172f	0.08647
27	0x3d0109f1	0.03150362
28	0xbd20f87b	-0.03929947
29	0x3d8c67a5	0.06855706
30	0xbcac6875	-0.021045903
31	0xbd7e9936	-0.062157832
32	0x3d2ee41a	0.042698003
33	0x3d84eced	0.064905025
34	0xbd9c657c	-0.07636544
35	0xbd9fd9d4	-0.07805219
36	0x3d73dff3	0.059539746
37	0x3db1029f	0.08643078
38	0xbd68a8e5	-0.056801695
39	0x3d05eacd	0.032694627
40	0x3cdefc71	0.027219983
41	0xbd9a134e	-0.07523213
42	0x3d5cd859	0.053917263
43	0x3bff8125	0.0077973776
44	0x3bc4a606	0.006001237
45	0x3ce81b00	0.028333187
46	0xbc187582	-0.00930536
47	0xbda8baad	-0.082387306
48	0xbd35669e	-0.044287317
49	0xbd83ce8e	-0.064358816
50	0xbd081091	-0.033218924
51	0xbcd377a7	-0.02581389
52	0xbdb004e5	-0.085946836
53	0x3d101437	0.03517553
54	0x3db1ea48	0.08687264
55	0xbda8d52f	-0.082437865
56	0xbab13f0b	-0.0013522817
57	0xbd4040c3	-0.04693676
58	0xbd7453d9	-0.059650276
59	0xbd88b784	-0.06675628
60	0xbc9ef160	-0.019402206
61	0xbc0a23de	-0.008431403
62	0x3d76b108	0.060227424
63	0x3d9ecaf2	0.077535525
64	0xbd91bc5a	-0.07116003
65	0xbd953c4d	-0.07286892
66	0xbdad803a	-0.08471723
67	0xbcc41605	-0.023936281
68	0x3d7dde40	0.061979532
69	0xbd9a5b97	-0.075370006
70	0x3cfaef86	0.030631792
71	0x3d61d562	0.05513514
72	0xbcc3fbca	-0.023923773
73	0x3d02dd5c	0.031949386
74	0xbd8103c2	-0.06299545
75	0x3ce20790	0.027591497
76	0x3ca2e479	0.019884335
77	0x3dac4966	0.08412437
78	0x3c009f39	0.007850462
79	0x3ccebbac	0.025235973
80	0xbda199ce	-0.07890664
81	0x3c75af1d	0.014995364
82	0xbda024cc	-0.078195184
83	0xbc5def1a	-0.013545776
84	0x3d188a48	0.03724125
85	0xbce5a333	-0.028031921
86	0x3db19878	0.08671659
87	0xbd94d7a1	-0.072676904
88	0x3b6f150a	0.0036481046
89	0x3d9d1776	0.076704904
90	0x3b2d8a48	0.0026480127
91	0xbcea0c6d	-0.028570378
92	0xbc8742d2	-0.016511355
93	0xbd97e989	-0.0741759
94	0x3d053048	0.032516748
95	0x3b2ebe3a	0.0026663677
96	0xbd98a64d	-0.07453594
97	0xbd0dee73	-0.03465123
98	0xbd3aaa9b	-0.04557286
99	0x3d463007	0.048385646
100	0xbc9dab77	-0.0192468
101	0x3d63cd1b	0.055615526
102	0xbd83e11b	-0.0643942
103	0x3ccc7071	0.02495596
104	0xbcb68527	-0.022280289
105	0xbd9bce6f	-0.076077335
106	0x3db1e411	0.08686078
107	0x3d39e578	0.045384854
108	0xbd8dc8d6	-0.06923072
109	0xbdb4d7cf	-0.08830225
110	0xbbdbc4dd	-0.0067068175
111	0xbd8eac9b	-0.06966516
112	0xbda01139	-0.07815785
113	0x3ce36fdb	0.027763298
114	0xbc80cfd6	-0.015724104
115	0xbd3c417b	-0.045960885
116	0xb8cabda3	-9.667433e-05
117	0xbda21a88	-0.07915217
118	0x3d48d767	0.04903355
119	0xbcda2d0f	-0.026632814
120	0x3cd33f26	0.025786947
121	0xbc0a5793	-0.008443731
122	0x3ca44ffe	0.020057674
123	0x3abbc1f0	0.0014324766
124	0xbcf11b4e	-0.029431965
125	0xbda272c3	-0.07932045
126	0x3cab7629	0.020930367
127	0xbd50082b	-0.05078904

embedding.3.weight f4 [128, 128]
0	0xbd89eef9	-0.067350335
1	0xbd3abc9e	-0.045590036
2	0x3c4b7f90	0.01242055
3	0x3b0409a6	0.0020147352
4	0xbd408f82	-0.04701186
5	0xbd11ff09	-0.03564361
6	0x3ce7087d	0.02820229
7	0x3d3f6caa	0.04673449
8	0x3d2fc159	0.042909
9	0x3d32eceb	0.043682974
10	0x3cce4815	0.025180856
11	0xbd5d1bf7	-0.053981747
12	0x3d348527	0.044072296
13	0x3dad67d5	0.0846707
14	0xbd21babf	-0.039484736
15	0x3ce4fc80	0.027952433
16	0x3d942408	0.07233435
17	0xbd855cbf	-0.065118305
18	0xbd842ed5	-0.06454245
19	0x3d30427e	0.043032162
20	0x3db2f60a	0.087383345
21	0xbce71926	-0.028210234
22	0x3d905d3d	0.07049034
23	0x3db1ac9b	0.086755
24	0xbcd984f8	-0.026552662
25	0xbd0cf335	-0.034411628
26	0x3c1fc933	0.0097525595
27	0xbc008361	-0.007843823
28	0xbd3456b7	-0.04402801
29	0xbc209d3e	-0.009803114
30	0x3d0c6beb	0.034282606
31	0x3d78251a	0.060582258
32	0x3d3f7e14	0.046751097
33	0x3d4f90dd	0.05067526
34	0xbcb1b8e8	-0.021694615
35	0xbdb23089	-0.087006636
36	0x3c0bbf89	0.008529552
37	0xbdae1425	-0.08499936
38	0x3b7020ae	0.0036640572
39	0xbc95afd7	-0.018272324
40	0x3d6859be	0.05672621
41	0xbd1cf5aa	-0.03832022
42	0xbcd5eb63	-0.026113218
43	0xbce26d19	-0.027639912
44	0x3c8f85bb	0.017519822
45	0xbdb4ec2c	-0.08834109
46	0x3bd50b52	0.0065015936
47	0xbdac4fa0	-0.08413625
48	0xbdaaa77f	-0.083327286
49	0x3c854f6d	0.016273225
50	0xbbd52713	-0.006504902
51	0x3d79b556	0.06096395
52	0xbc6c1448	-0.014409132
53	0x3d3b040e	0.045658164
54	0x3d285423	0.041095864
55	0xbc583156	-0.013195356
56	0x3cc0d06d	0.023536885
57	0xbd9d93ec	-0.076942295
58	0x3c8e4f3f	0.017371772
59	0xbd52a191	-0.051423613
60	0xbd88111d	-0.06643889
61	0xbdb31911	-0.087450154
62	0xbd0b6c1c	-0.034038648
63	0xbd9146d4	-0.070935875
64	0xbc85b589	-0.016321914
65	0x3d5f5f8f	0.05453449
66	0x3d4e19d2	0.050317593
67	0x3c9cf1fc	0.019158356
68	0x3d6199e8	0.055078417
69	0xbdb3958f	-0.087687604
70	0xbc960e26	-0.018317293
71	0x39a566f8	0.0003154797
72	0xb9a8ea68	-0.00032218103
73	0xbc8c6e31	-0.017142387
74	0x3c9bd664	0.019023128
75	0xbd58435b	-0.05279861
76	0x3d8d577e	0.069014534
77	0xbd6a4411	-0.05719382
78	0xbb722a2c	-0.0036951406
79	0x3c8b2cbf	0.01698911
80	0xbda4eb4a	-0.0805269
81	0xbd9e6878	-0.077347696
82	0xbc141be8	-0.0090398565
83	0x3d8599e9	0.06523497
84	0xbd7f5356	-0.062335335
85	0x3d311ce7	0.043240454
86	0x3dac5059	0.084137626
87	0xba8add16	-0.0010594453
88	0x3d953365	0.07285193
89	0xbd14fa39	-0.036371443
90	0xbd9b4351	-0.07581199
91	0xbdaba0ee	-0.08380304
92	0xbce85380	-0.028360128
93	0xbda4b676	-0.08042614
94	0x3ccde248	0.025132313
95	0x3d17f476	0.03709837
96	0xbca9f250	-0.020745426
97	0x3d9ddd86	0.07708268
98	0xbd0c9ebd	-0.034331072
99	0xbd610542	-0.054936655
100	0x3d245ad7	0.040125694
101	0x3c8e5ca9	0.017378168
102	0x3d6fd171	0.05854935
103	0xbcf341d5	-0.029694477
104	0xbd8df81e	-0.0693209
105	0xbda7950a	-0.08182724
106	0x3d9e06d9	0.0771615
107	0xbd397d12	-0.045285292
108	0x3d66722f	0.056261238
109	0x3baf896e	0.005356959
110	0xbda3f557	-0.08005779
111	0x3c715341	0.014729322
112	0xbbf12f0f	-0.007360346
113	0x3baac1c8	0.005211089
114	0x3cfae2af	0.03062567
115	0x3c8cf989	0.017208831
116	0x3d01cf3c	0.031691775
117	0xbd56da03	-0.052454006
118	0x3d5d1afe	0.05398082
119	0x3ce5e266	0.028062057
120	0xbd986551	-0.074411996
121	0xbd9d4755	-0.07679621
122	0x3d76eeed	0.06028645
123	0x3c42db28	0.011893071
124	0xbcc18aed	-0.023625815
125	0xbcf6c381	-0.03012252
126	0xbdace874	-0.084427744
127	0xbcfcf05a	-0.030876327
128	0x3cf8c75c	0.0303685
129	0x3d914334	0.07092896
130	0x3cba4b04	0.022740848
131	0x3bf3f9ae	0.0074455356
132	0x3d9b3094	0.07577625
133	0x3bb77827	0.00559904
134	0xbc619ad9	-0.013769829
135	0x3d7c1f15	0.06155308
136	0x3d745746	0.059653543
137	0xbc9c88d8	-0.019108221
138	0xbca9a71e	-0.02070957
139	0xbcf7751f	-0.030207215
140	0xbd6d22b2	-0.057894416
141	0x3c69673b	0.0142458035
142	0xbd8d9875	-0.069138445
143	0x3d8e5123	0.06949069
144	0xbd3125e5	-0.04324903
145	0xbd269ac2	-0.040674932
146	0xbd9fe213	-0.07806792
147	0xbd5d6f3a	-0.054061152
148	0xbba0b7a0	-0.0049047023
149	0x3b358249	0.0027696064
150	0x3da8c877	0.08241361
151	0x3c63508b	0.013874183
152	0xbd824cfc	-0.0636234
153	0x3d7894b1	0.06068868
154	0xbd1f0163	-0.03881968
155	0xbd1e0550	-0.038579285
156	0x3da2e85f	0.079544775
157	0xbd83c686	-0.0643435
158	0xbb1b887a	-0.002373247
159	0xbd33a29a	-0.04385624
160	0xbd99e3ef	-0.07514178
161	0x3d37d3e9	0.044879828
162	0x3d10035b	0.03515945
163	0xbc551632	-0.01300578
164	0x3d95aa60	0.07307887
165	0x3d8f4a28	0.06996566
166	0xbdacab3e	-0.08431099
167	0x3bf6a6f5	0.007527227
168	0xbcd9d030	-0.02658853
169	0xbdaa7b45	-0.08324293
170	0xbccdbf9c	-0.02511578
171	0xbd224c8b	-0.03962378
172	0x3ca26148	0.019821778
173	0x3da1582e	0.07878147
174	0xbbd8f7c4	-0.006621333
175	0xbce058d9	-0.027386116
176	0x3d84d26e	0.06485449
177	0x3d900c20	0.07033563
178	0x3d47c81b	0.04877482
179	0x3d707964	0.058709517
180	0xbcb0bb41	-0.021573665
181	0xbda33e49	-0.07970864
182	0x3d845a7e	0.064625725
183	0xbbb75718	-0.005595099
184	0xbd954d0d	-0.07290087
185	0xbd917d23	-0.07103946
186	0x3d370cd7	0.04468998
187	0x3da4a90a	0.08040054
188	0xbd5c98d4	-0.053856686
189	0xbd2d3ad5	-0.042292435
190	0x3da678f4	0.08128539
191	0x3d18db96	0.03731879
192	0x3d948c4f	0.07253324
193	0x3d17f10a	0.037095107
194	0xbd86cd62	-0.065821424
195	0xbd8a1f22	-0.06744219
196	0x3d09b75c	0.03362213
197	0xbda7ec6f	-0.08199393
198	0x3db07d4a	0.08617647
199	0xbd3edd85	-0.046597976
200	0x3d0bf8bc	0.03417276
201	0xbd0e2354	-0.03470166
202	0x3ccc5be4	0.02494616
203	0xbd972c76	-0.07381527
204	0xbc1a11cc	-0.009403657
205	0xbdad62c4	-0.08466104
206	0xbd0692a9	-0.03285471
207	0x3d85b64b	0.0652891
208	0x3d731a03	0.05935098
209	0xbdb4e14d	-0.08832035
210	0xbd6b425c	-0.057436332
211	0x3c722c1e	0.014781026
212	0x3d463ddc	0.048398837
213	0xbd705bb1	-0.058681194
214	0xbd81cc64	-0.063378125
215	0x3d2ffc07	0.04296496
216	0xbd018859	-0.031624172
217	0x3d4bb02d	0.04972856
218	0xbd9da528	-0.07697517
219	0x3d3ced7f	0.04612493
220	0xbd8491a4	-0.06473091
221	0x3d8f38c5	0.0699325
222	0x3d750045	0.05981471
223	0xbd989579	-0.07450385
224	0x3cc60bbb	0.024175515
225	0x3d93c231	0.072147734
226	0x3d64f368	0.055896193
227	0xbdafa091	-0.085755475
228	0xbd0cf2c6	-0.034411214
229	0xbd9a315d	-0.075289465
230	0x3d96720a	0.0734597
231	0xbca8b264	-0.020592876
232	0xbd9ecc1f	-0.07753777
233	0x3d2ecb08	0.042674094
234	0x3d795d50	0.060880005
235	0x3d855296	0.06509893
236	0x3d116e55	0.03550561
237	0x3d279c7a	0.040920712
238	0xbd856f13	-0.06515326
239	0xbdab7f96	-0.083739445
240	0x3c1b4b93	0.0094784675
241	0x3d23483e	0.039863817
242	0xbd3ec4ed	-0.04657452
243	0xbda05a60	-0.07829738
244	0xbdad6653	-0.084667824
245	0x3db34d7e	0.08755015
246	0xbc87d5eb	-0.016581496
247	0xbd605f96	-0.054778658
248	0xbd17c190	-0.03704983
249	0x3da0ddcf	0.07854807
250	0xbb39c96a	-0.0028348812
251	0xbcec52f3	-0.028848147
252	0xbb3c2a69	-0.0028711802
253	0x3c5da51f	0.0135281375
254	0x3c6cdc9d	0.014456895
255	0xbc37b595	-0.011212726

embedding.3.bias f4 [128]
0	0x3d07d542	0.033162363
1	0xbd4a4839	-0.049385283
2	0xbdb08a90	-0.08620179
3	0x3d1bacfe	0.038006775
4	0x3c737d02	0.014861347
5	0xbdb42c12	-0.08797468
6	0x3d40a732	0.04703445
7	0x3d8b89be	0.068133816
8	0x3daa2dda	0.08309527
9	0x3bbf0c5e	0.0058303317
10	0xbd8ed14f	-0.06973516
11	0xbd82652a	-0.06366952
12	0xbc39f13c	-0.011349019
13	0xbdaacfbe	-0.08340405
14	0xbcbeaaad	-0.023274744
15	0x3da861b7	0.082217626
16	0xbb542a49	-0.0032373837
17	0xbc05fc61	-0.008177848
18	0xbcdbeebc	-0.026847236
19	0x3d93bf9f	0.07214283
20	0x3da7a730	0.08186185
21	0xbce685b7	-0.028139932
22	0xbd894368	-0.0670231
23	0x3d921802	0.071334854
24	0x3daac995	0.0833923
25	0xbda07845	-0.078354396
26	0xbd5fb6d8	-0.054617733
27	0x3cbd665b	0.023120096
28	0xbdb21473	-0.08695307
29	0xbc1f3854	-0.0097180195
30	0x3d06d592	0.03291852
31	0x3d2ac615	0.041692812
32	0x3db0fed8	0.086423576
33	0x3d8b7c7d	0.06810854
34	0x3d8615ff	0.06547164
35	0xbd7bb214	-0.061449125
36	0xbd8e77c3	-0.069564365
37	0xbd95935a	-0.07303496
38	0x3d4387c7	0.04773691
39	0x3d27faff	0.041010853
40	0x3d7e345a	0.062061645
41	0x3d3c8313	0.04602344
42	0xbc90c1a7	-0.017670466
43	0x3d91311a	0.070894435
44	0xbd8fd8fc	-0.07023808
45	0x3ca1ba24	0.01974208
46	0x3ccb501e	0.024818476
47	0x3d9bdbf8	0.07610315
48	0x3d078689	0.033087287
49	0xbcbfa5a7	-0.023394419
50	0x3d9a838c	0.07544622
51	0x3d22b655	0.039724667
52	0x3d7243fe	0.059146874
53	0x3b55dfcf	0.003263462
54	0xbbf86c36	-0.007581259
55	0xbc5aa2a3	-0.01334444
56	0x3dac513e	0.08413933
57	0x3d297c42	0.041378267
58	0xbb944742	-0.004525096
59	0x3d5badd0	0.053632557
60	0x3ce19ad9	0.027539657
61	0xbd92c8da	-0.07167216
62	0x3d83d8dc	0.06437847
63	0xbd7c348f	-0.06157356
64	0xba44294f	-0.0007482962
65	0xbda08e3e	-0.078396305
66	0xbd87d4b7	-0.06632369
67	0x3cf4ac56	0.029867332
68	0xbcfac3ba	-0.030610908
69	0x3d98ab40	0.07454538
70	0xbd845e43	-0.064632915
71	0xbd42934f	-0.047503766
72	0xbd2e154e	-0.042500786
73	0x3d86053e	0.065439686
74	0x3d80f153	0.06296029
75	0x3ca3f214	0.020012893
76	0x3d7eec71	0.062237207
77	0xbd6d51f1	-0.057939474
78	0xbdb2606d	-0.08709798
79	0xbd15db34	-0.036586
80	0xbd8c8555	-0.068613686
81	0xbbc8d3ca	-0.006128763
82	0xbd2d7db2	-0.0423562
83	0xbcb82ce8	-0.02248235
84	0xbd14d9d1	-0.03634054
85	0x3da87fa2	0.08227469
86	0xbc66de26	-0.01409105
87	0x3d7271de	0.059190623
88	0xbd83d4a9	-0.06437046
89	0xbc7ed053	-0.015552598
90	0xbd8d09c8	-0.06886631
91	0x3d4ad89b	0.049522977
92	0xbd6de49c	-0.058079347
93	0xbbbd8556	-0.005783717
94	0x3d99b2c8	0.07504803
95	0xbce00930	-0.027348131
96	0xbd5f2810	-0.054481566
97	0xbca7bf91	-0.020477088
98	0x3d8d0811	0.06886304
99	0xbd2117ce	-0.039329343
100	0xbd3f952e	-0.04677313
101	0xbd8dccc2	-0.0692382
102	0xbd07f1b2	-0.033189483
103	0xbd90384e	-0.07041989
104	0x3d41cf90	0.047317088
105	0x3d5c7b57	0.053828564
106	0xbac67e76	-0.001514389
107	0x3d0b84a0	0.034062028
108	0xbd6971bc	-0.05699323
109	0xbd0f6eac	-0.035017654
110	0x3d3c476d	0.045966554
111	0xbd3b6b89	-0.04575685
112	0xbb99c431	-0.0046925773
113	0x3d8052d9	0.06265802
114	0xbd9bd421	-0.0760882
115	0xbd8f6c15	-0.07003037
116	0x3c71f5e4	0.014768098
117	0x3d8daa08	0.069171965
118	0x3d97a45c	0.07404396
119	0x3d9681d5	0.07348982
120	0x3d853dfc	0.06505963
121	0x3cf074f5	0.029352644
122	0x3d26cbbf	0.04072165
123	0xbd13b47b	-0.03606079
124	0xbc4b27bf	-0.012399613
125	0x3daaea2a	0.083454445
126	0x3c40c473	0.011765587
127	0xbdb05c34	-0.08611336

actor.0.weight f4 [128, 128]
0	0xbd9ebaaa	-0.07750447
1	0x3d5f2d25	0.054486413
2	0xbd83fd73	-0.06444826
3	0x3dae417a	0.085085824
4	0xbb97e3cd	-0.0046353103
5	0x3bb0ba75	0.005393321
6	0x3b6d8d4e	0.0036247554
7	0x3d2c8c4f	0.042125996
8	0x3c77fb79	0.015135639
9	0x3d9bf91f	0.076158755
10	0xbd01f48e	-0.031727366
11	0x3d773797	0.06035575
12	0xbc19ed78	-0.009394996
13	0xbcbcb4d4	-0.023035444
14	0x3d126eb4	0.035750106
15	0x3da6e337	0.081488065
16	0xbdab9c66	-0.0837944
17	0xbdafa23f	-0.08575868
18	0xbdb3d6b7	-0.08781188
19	0xbc61fd00	-0.01379323
20	0xbba1d35a	-0.004938525
21	0xbd489d6b	-0.04897825
22	0x3d708684	0.058722034
23	0x3bf59bd8	0.0074953847
24	0x3db4df7c	0.08831689
25	0xbd040650	-0.032232583
26	0x3d424899	0.047432516
27	0x3d00a93b	0.03141139
28	0x3d226c5a	0.039654113
29	0xbd17d806	-0.03707125
30	0xbd274022	-0.040832646
31	0x3d676850	0.056495965
32	0x3d356439	0.044285033
33	0x3c3ae0b9	0.011406117
34	0xbda453d8	-0.080238044
35	0xbc7fbe7c	-0.01560938
36	0xbda94d9d	-0.08266757
37	0xbda2379e	-0.079207644
38	0x3d06f6e8	0.032950312
39	0x3d91cab7	0.07118743
40	0x3d66ddc6	0.056363843
41	0x3bd2cea7	0.0064333263
42	0xbb44c53a	-0.0030024783
43	0x3c5b8330	0.013397977
44	0x3c88ecf6	0.016714554
45	0x3cc52729	0.024066525
46	0xbd633823	-0.055473458
47	0xbd2278bd	-0.039665926
48	0xbd443532	-0.047902294
49	0xbda4c17d	-0.080447175
50	0x3d3c32f6	0.045947038
51	0x3cc4e7c3	0.024036294
52	0x3d3ee686	0.046606563
53	0xbd25ae96	-0.0404497
54	0xbd2f5493	-0.042805266
55	0xbd01bc22	-0.031673558
56	0xbd5da837	-0.0541155
57	0xbd3c431b	-0.045962434
58	0xbd2e8d0a	-0.042614974
59	0x3d446a27	0.047952797
60	0xbdb050ef	-0.08609187
61	0x3d87996b	0.06621059
62	0x3aadf31c	0.0013271305
63	0x3d6172d7	0.05504116
64	0x3cc1bc2e	0.023649301
65	0x3b4a37fe	0.0030856128
66	0xbd80ea1d	-0.062946536
67	0x3c05c3fd	0.008164403
68	0x3db42aca	0.08797224
69	0x3c2157c9	0.00984759
70	0xbaa624d3	-0.0012675769
71	0x3cc7c60d	0.02438643
72	0xbd4631a1	-0.048387174
73	0x3bd88c8d	0.006608552
74	0x3c68508a	0.014179358
75	0x3d9df42a	0.07712586
76	0xbd9b0a1a	-0.07570286
77	0xbd238392	-0.039920397
78	0x3cb7d490	0.022440225
79	0x3d8f8bd6	0.070090935
80	0xbd3f1677	-0.046652284
81	0x3d85c150	0.06531012
82	0xbb1f7ac1	-0.0024334642
83	0xbbb145d9	-0.005409938
84	0xbd917552	-0.07102455
85	0x3d59c972	0.05317063
86	0xbd19084d	-0.037361432
87	0xbd542ed3	-0.051802468
88	0x3d9a5e38	0.07537502
89	0xbd731423	-0.059345376
90	0xbd4e10d7	-0.05030903
91	0x3cd79872	0.026317809
92	0xbd0b6896	-0.034035288
93	0xbd44cef0	-0.048048913
94	0x3b8e4e68	0.004342843
95	0xbd8ba430	-0.06818426
96	0xbd82e81e	-0.06391929
97	0xbb6f824a	-0.0036546164
98	0x3c9513db	0.018197944
99	0xbd978f94	-0.07400432
100	0x3d7ceed9	0.06175122
101	0xbda950a1	-0.08267332
102	0xbd734731	-0.059394065
103	0x3d58eac3	0.05295826
104	0xbd8c070f	-0.06837284
105	0x3d2e8f04	0.04261686
106	0x3b9de376	0.004818375
107	0xbb9bb39c	-0.0047516357
108	0x3d0c43d5	0.034244377
109	0x3d55ed9b	0.05222855
110	0x3c8789d7	0.01654522
111	0xbd67d71e	-0.056601636
112	0x3d2d4bc2	0.042308576
113	0x3d713c68	0.0588955
114	0x3d706679	0.058691476
115	0x3d4b81ba	0.049684264
116	0x3d237220	0.03990376
117	0xbd89b381	-0.06723691
118	0x3c9b17d3	0.018932259
119	0x3cc88711	0.024478467
120	0xbd87eb30	-0.06636655
121	0x3d38bba5	0.045100827
122	0xbd998207	-0.07495504
123	0x3d917737	0.071028166
124	0xbd574ca7	-0.052563336
125	0xbd2408f6	-0.04004761
126	0x3d094f37	0.03352281
127	0xbd8447e7	-0.06459027
128	0xbd8ae794	-0.06782451
129	0x3ba6841c	0.0050816666
130	0x3d488b28	0.048960835
131	0x3d2ee5f5	0.042699773
132	0xbd3d9b00	-0.046290398
133	0xbd8a3f75	-0.06750385
134	0x3d82e333	0.06390991
135	0xbcb13eff	-0.021636484
136	0xbc61fab4	-0.013792682
137	0x3cf55f0e	0.029952552
138	0xbda47a07	-0.08031087
139	0x3d961523	0.0732825
140	0x3da39971	0.07988251
141	0xbc167404	-0.009182934
142	0xbd6b6623	-0.057470452
143	0x3d1bf383	0.038074028
144	0xbd607cbe	-0.054806463
145	0x3d8ae3e6	0.067817494
146	0xbd4ed15f	-0.05049264
147	0x3dada435	0.08478586
148	0x3d88f5c5	0.06687502
149	0x3cdc1cad	0.026869142
150	0xbda6441d	-0.0811846
151	0xbc1d8c44	-0.009615961
152	0x3cb71dd2	0.022353087
153	0xbca31653	-0.019908106
154	0xbd360281	-0.04443598
155	0xbd830a0c	-0.06398401
156	0xbd73141d	-0.059345353
157	0x3c0d63f5	0.008629789
158	0xbd0df1b8	-0.03465435
159	0xbca394da	-0.019968439
160	0x3d381fea	0.04495231
161	0xbda59283	-0.080845855
162	0x3d9e5c51	0.07732452
163	0xbc3de9a8	-0.0115913525
164	0x3d9e585b	0.07731696
165	0xbd35a724	-0.04434885
166	0xbcb0f2fc	-0.021600239
167	0x3c92f0d8	0.017937109
168	0x3d6b4ad0	0.057444394
169	0xbd0165aa	-0.031591095
170	0xbaa94d67	-0.0012916744
171	0x3cc9634a	0.024583478
172	0x3ce77441	0.028253676
173	0xbd8871cb	-0.06662329
174	0xbd56e97b	-0.052468758
175	0x3d0d3933	0.034478378
176	0xbc30f9d5	-0.010801752
177	0xbcce1c9e	-0.02516013
178	0xbd98349f	-0.07431912
179	0xbd904490	-0.07044327
180	0xbd82cd70	-0.0638684
181	0xbc154b63	-0.009112212
182	0x3d787991	0.06066281
183	0x3ccfa6e5	0.025348136
184	0x3d40916e	0.047013693
185	0x3c750470	0.014954671
186	0xbd160b4a	-0.03663186
187	0xbd83a08f	-0.064271085
188	0x3b4bfd13	0.0031126186
189	0x3c49dc78	0.01232063
190	0xbc5093b6	-0.0127305295
191	0xbda94bd5	-0.08266417
192	0x3d839d3b	0.06426474
193	0xbd77933a	-0.06044314
194	0x3d99995b	0.07499953
195	0x3d9b5b68	0.07585794
196	0xbcbe04ed	-0.023195708
197	0x3c2dcd0f	0.010607972
198	0x3c27ee5e	0.010249702
199	0x3bf1b268	0.007376004
200	0x3d492cad	0.04911487
201	0x3cecb3ea	0.028894383
202	0x3cf5b0c0	0.029991508
203	0xbd54d817	-0.05196389
204	0xbdae62c6	-0.08514933
205	0x3d7fc101	0.062439922
206	0x3d85893e	0.065203175
207	0xbd4f3b2c	-0.05059354
208	0xbcd23848	-0.025661603
209	0x3b3d634e	0.0028898302
210	0x3ca8527d	0.020547146
211	0x3d39b456	0.045337997
212	0x3bf9e8a2	0.007626609
213	0x3d940fe9	0.07229597
214	0x3d75d6b3	0.060019206
215	0xbc4ae750	-0.012384251
216	0xbcb6855a	-0.022280384
217	0x3c5aa994	0.013346095
218	0xbaa83b66	-0.0012835085
219	0xba2881c1	-0.0006428026
220	0x3c17319c	0.009228136
221	0xbc6986df	-0.014253347
222	0xbc2d8c67	-0.010592557
223	0x3d94bec5	0.07262949
224	0x3da3d162	0.07998921
225	0xbb9c10f2	-0.004762762
226	0x3d60d68f	0.05489212
227	0xbd891b1a	-0.06694622
228	0xbcf53365	-0.029931733
229	0xbd8aca49	-0.06776864
230	0x3d7a01b7	0.06103679
231	0xbd885d63	-0.06658437
232	0x3d8548c5	0.0650802
233	0xbd623910	-0.0552302
234	0xbdaa8ce3	-0.08327653
235	0x3d1fa917	0.038979616
236	0x3d9c547d	0.07633302
237	0xbdb07b62	-0.086172834
238	0x3bd9132b	0.0066245995
239	0x3b6a92de	0.0035793106
240	0x3d19a4c8	0.037510663
241	0xbc617400	-0.013760567
242	0xbd336dab	-0.04380576
243	0xbd498cb5	-0.049206454
244	0x3d3f2537	0.04666635
245	0xbd9ebf54	-0.07751337
246	0x3ceac3b3	0.02865777
247	0xbc0f4f0b	-0.008746873
248	0x3d92079a	0.07130356
249	0xbd565886	-0.052330516
250	0xbd86cd30	-0.06582105
251	0x3da2362f	0.07920491
252	0xbd98b863	-0.07457044
253	0x3d94ac5f	0.0725944
254	0xbd4f8eee	-0.050673418
255	0x399dab12	0.0003007283

actor.0.bias f4 [128]
0	0xbc8b013d	-0.016968364
1	0x3d253115	0.04033001
2	0x3dd6d913	0.10490622
3	0x3d819dc0	0.063289165
4	0x3e2f81e7	0.17139398
5	0x3d6c418c	0.057679698
6	0x3ba34131	0.0049821367
7	0x3cf9cb91	0.030492576
8	0x3cba8b84	0.022771604
9	0x3e23e949	0.1600696
10	0xbd48e339	-0.04904482
11	0x3d3aeb6e	0.04563468
12	0xbc835f37	-0.016036613
13	0xbc811a3d	-0.015759582
14	0xbd3f2411	-0.046665255
15	0xbcb2f7bf	-0.02184665
16	0x3f09a6af	0.53769964
17	0xbc17a9a1	-0.009256751
18	0x3db2aec9	0.08724744
19	0xbd651386	-0.055926822
20	0xbd9b9897	-0.075974636
21	0xbd32d7ae	-0.04366272
22	0x3d292619	0.0412961
23	0x3b3a1e45	0.002839939
24	0x3efd9dfe	0.495346
25	0x3d27d49a	0.040974237
26	0x3e04a3f2	0.12953165
27	0xbcfa1036	-0.030525308
28	0xbb335ea8	-0.0027369652
29	0x3d78a8a7	0.060707714
30	0xbd40cdcf	-0.047071274
31	0x3d72cf53	0.05927975
32	0x3f000be8	0.5001817
33	0x3d9b0e46	0.07571082
34	0xbca386d8	-0.01996176
35	0xbbb5f70b	-0.0055531315
36	0x3cb2dadd	0.021832878
37	0x3cd577c2	0.026058082
38	0x3d7d702e	0.06187456
39	0x3e558daf	0.20854829
40	0x3d9a24a2	0.075265184
41	0x3d611480	0.05495119
42	0xbd9ee888	-0.077591956
43	0x3d2f7440	0.042835474
44	0x3d1321fa	0.035921074
45	0x3d1ac9d5	0.03779014
46	0xbb62076e	-0.0034489292
47	0xbd870bda	-0.065940574
48	0x3e3c8584	0.18410307
49	0x3e4f69c9	0.20255198
50	0x3da29804	0.07939151
51	0x3d6ea2b6	0.058260642
52	0x3d09f4e3	0.033680808
53	0x3d803019	0.06259174
54	0xbca5d087	-0.020241035
55	0xbd7f9e4a	-0.062406816
56	0x3d0bf905	0.03417303
57	0x3d866e07	0.06563955
58	0x3d1cc564	0.038274184
59	0xbda49206	-0.08035664
60	0x3d8d6c50	0.069054246
61	0xbc14cb10	-0.009081617
62	0xbc8d9ecd	-0.017287636
63	0xbcbe0f8f	-0.023200778
64	0x3ccccfd6	0.025001448
65	0x3e664e82	0.22490886
66	0x3d846fb4	0.06466618
67	0x3d982d6b	0.07430538
68	0x3cb0ab9c	0.021566205
69	0xbcd71255	-0.026253859
70	0x3a4f7a53	0.0007914651
71	0x3d52ea68	0.05149308
72	0x3dbfeff8	0.09371942
73	0x3d9dd4a3	0.07706573
74	0xbd0b1651	-0.03395683
75	0x3a933fdd	0.0011234243
76	0x3cbccdb0	0.023047298
77	0xbccbc81b	-0.024875691
78	0x3c66635c	0.014061775
79	0x3c504045	0.012710636
80	0xbd7db6fb	-0.061942082
81	0x3dd03734	0.10166779
82	0x3c9c9d84	0.019118078
83	0x3d9b6c5c	0.07589027
84	0x3e081131	0.13287808
85	0x3d2ab92e	0.041680507
86	0xbd90a857	-0.07063358
87	0x3c50610e	0.012718452
88	0xbd4f2f58	-0.05058226
89	0x3f04e848	0.51916933
90	0xbd834a60	-0.0641067
91	0x3ca5408e	0.020172384
92	0x3ce14942	0.027500752
93	0x3ee3480e	0.4439091
94	0x3da54d3f	0.08071374
95	0xbd9df073	-0.07711878
96	0x3c3a19fb	0.011358733
97	0xbd9a7164	-0.07541159
98	0xbbb1ccc7	-0.0054260227
99	0xbd8c36dc	-0.06846401
100	0x3c9b48bd	0.018955583
101	0x3d85e41a	0.065376475
102	0x3f0a7dc4	0.54098153
103	0x3d897de6	0.06713466
104	0x3f14dd59	0.5815025
105	0x3dbb743c	0.09153029
106	0x3d839607	0.064251
107	0x3d70e164	0.0588087
108	0x3e0a7e08	0.1352464
109	0x3d820328	0.06348258
110	0x3b9f6867	0.0048647407
111	0xbd360fbd	-0.044448603
112	0x3de287ff	0.110610954
113	0xbc839369	-0.016061502
114	0x3e66e63f	0.2254877
115	0x3dc9b460	0.09848857
116	0x3dc2ae8d	0.09505949
117	0x3cc65863	0.024212068
118	0x3d1bf351	0.03807384
119	0x3d77f507	0.06053641
120	0xbba6b60d	-0.00508762
121	0xbb17108e	-0.002305064
122	0x3d25cfc4	0.040481344
123	0x3d68d590	0.056844294
124	0xbd41cf64	-0.047316924
125	0xbda191d7	-0.07889145
126	0x3cba66e7	0.022754146
127	0x3d90aa2e	0.07063709

actor.2.weight f4 [5, 128]
0	0x3c557974	0.013029445
1	0x3ad7ea2f	0.001647299
2	0xbd31d024	-0.04341139
3	0xbcb56b65	-0.022145936
4	0x3c4167e1	0.011804552
5	0x3cf4947b	0.029855957
6	0xbd61d945	-0.055138845
7	0x3d9f5051	0.07778991
8	0x3dad1bb9	0.08452553
9	0xbcb02d7b	-0.021506062
10	0xbd933f41	-0.07189799
11	0x3d1a4ccc	0.037670895
12	0x3c6db404	0.014508251
13	0x3cdbf53b	0.026850333
14	0x3b9e6530	0.00483384
15	0xbd0e26b0	-0.034704864
16	0x3f17f77b	0.59362
17	0xbd9a70f0	-0.07541072
18	0x3cd158c2	0.025555018
19	0xbc35d10a	-0.011097202
20	0x3d32952c	0.043599293
21	0x3db431f5	0.08798591
22	0xbd01211a	-0.03152571
23	0x3c6bac57	0.014384351
24	0x3f1aa578	0.60408735
25	0xbc966899	-0.018360423
26	0xbcd35b95	-0.025800506
27	0x3d0ad9a9	0.033898983
28	0xbc97b22f	-0.018517582
29	0x3d415f16	0.04720982
30	0xbc33f315	-0.010983248
31	0x3a1c536a	0.00059633574
32	0x3f1a6110	0.60304356
33	0x3c915df7	0.017745001
34	0xbd4fe223	-0.05075277
35	0xbd846d39	-0.06466145
36	0x3c46dd58	0.012137733
37	0x3da3747f	0.07981204
38	0xbd8bf0c3	-0.06833031
39	0xbb845843	-0.004038842
40	0x3d39c50d	0.045353938
41	0x3e5e6819	0.21719398
42	0xbda01c02	-0.07817842
43	0x3d4e684d	0.050392438
44	0xbc9b8496	-0.01898412
45	0xbd617f3a	-0.055052973
46	0x3d5624e2	0.052281268
47	0xbce2ce18	-0.027686164
48	0x3c4abc38	0.012373976
49	0x3ce3e207	0.02781774
50	0xbce39a09	-0.02778341
51	0x3da360c8	0.07977444
52	0xbd7aecc6	-0.06126096
53	0xbcf15219	-0.029458093
54	0x3e242025	0.16027887
55	0xbbebee52	-0.007200041
56	0x3d082129	0.03323475
57	0x3d596b7a	0.053081013
58	0x3d9125bb	0.07087275
59	0x3cd758c9	0.026287453
60	0x3d9bc567	0.07606011
61	0xbc950600	-0.018191338
62	0xb862e494	-5.409548e-05
63	0x3c6add08	0.0143349245
64	0xbca45267	-0.020058824
65	0xbcf9b3b6	-0.0304812
66	0x3da60506	0.08106427
67	0x3e075c46	0.13218793
68	0xbd51bd5e	-0.051205985
69	0x3d7221b8	0.059114188
70	0xbda28117	-0.07934778
71	0x3d0fb80f	0.03508764
72	0x3a508063	0.00079537014
73	0x3ddb2f68	0.107024014
74	0x3d595a14	0.05306442
75	0x3d799387	0.06093171
76	0xbb255d1c	-0.00252325
77	0xbcf921d9	-0.030411648
78	0x3da2898a	0.0793639
79	0x3d92892a	0.07155068
80	0xbd749e89	-0.059721503
81	0x3ca05ef1	0.019576522
82	0x3da9f970	0.082995296
83	0xbc57e6e4	-0.013177607
84	0x3dfad906	0.12248425
85	0x3d976dac	0.07393965
86	0x3c787be1	0.015166254
87	0xbda017f7	-0.07817071
88	0x3d41a54e	0.047276787
89	0x3ea9d769	0.33172157
90	0x3da0be65	0.07848815
91	0xbd205060	-0.03913915
92	0xbcf8be67	-0.030364228
93	0x3f192743	0.59825534
94	0xbd5d9c5c	-0.054104194
95	0xbccaa943	-0.024738913
96	0x3d47ac43	0.048748266
97	0x3d28c192	0.041200228
98	0x3dab26bf	0.083569996
99	0x3d473bfd	0.048641194
100	0xbbdcbc3d	-0.006736307
101	0x3db73b1a	0.089468196
102	0x3eca2590	0.39481783
103	0x3d3283ec	0.04358284
104	0x3f01f3a4	0.5076239
105	0xbd399d43	-0.045315992
106	0x3d904000	0.07043457
107	0x3d9a472e	0.07533108
108	0xbd2cbac3	-0.042170297
109	0xbc2a2eb5	-0.010387112
110	0x3d892a04	0.06697467
111	0x3ca31f4c	0.019912384
112	0x3bf96e56	0.00761203
113	0xbc5f8334	-0.013642121
114	0x3ba7e3d3	0.0051235943
115	0xbc7691d8	-0.01504942
116	0x3e5457f1	0.20736672
117	0x3d4b5391	0.049640242
118	0x3d27b112	0.04094035
119	0xbd14fa03	-0.036371242
120	0xbd5c2ab9	-0.05375168
121	0x3d9526d1	0.07282794
122	0xbc9f3d7e	-0.019438501
123	0xbcf42dd1	-0.029807003
124	0x3d30c54f	0.04315692
125	0x3d9338a9	0.071885414
126	0xbb266258	-0.0025388207
127	0xbd42a27e	-0.047518246
128	0xbd80abc7	-0.06282764
129	0xbda5bc21	-0.08092523
130	0x3c3338e6	0.010938859
131	0x3e370c91	0.17875887
132	0x3dcdacee	0.10042749
133	0x3d50a2ca	0.050936498
134	0x3d9fb6eb	0.07798561
135	0x3dbacb06	0.09120755
136	0x3d9a04ea	0.075204685
137	0x3e164c38	0.14677513
138	0xbdbd607a	-0.09246917
139	0xbd9195c0	-0.07108641
140	0xbc08e20c	-0.008354675
141	0xbd1cfbbd	-0.038326014
142	0xbd166003	-0.036712658
143	0x3d684ce2	0.056713946
144	0x3f26c9fc	0.65151954
145	0xbda35524	-0.07975224
146	0x3b9c5ca5	0.0047717863
147	0xbc5113e4	-0.01276109
148	0xbdabfd91	-0.08397973
149	0x3d4be211	0.04977614
150	0xbb910106	-0.004425171
151	0xbd516c51	-0.05112869
152	0x3f3fd1b3	0.7492935
153	0x3c9dfc3b	0.019285312
154	0x3dc86a5d	0.09785912
155	0xbd83be61	-0.06432796
156	0x3cd71e78	0.026259646
157	0x3dabd461	0.083901174
158	0xbce4dd83	-0.027937656
159	0xbd50dceb	-0.050991934
160	0x3f462e99	0.7741485
161	0x3bfb5565	0.007670092
162	0x3b04a563	0.002024018
163	0xbd2850b6	-0.041092597
164	0x3d33a1d6	0.04385551
165	0x3cacac80	0.021078348
166	0x3c98756e	0.018610682
167	0x3e5bfcd4	0.21483165
168	0x3d6df0b2	0.058090873
169	0x3da69641	0.081341274
170	0xbbe2d6f7	-0.0069225985
171	0x3dad32b9	0.0845694
172	0xbd6c204a	-0.05764798
173	0x3cb43553	0.021998083
174	0x3c3491eb	0.011021118
175	0x3bd58f79	0.0065173474
176	0x3e59f142	0.21283439
177	0x3de229b0	0.110431075
178	0x3d916952	0.071001664
179	0x3c4431ed	0.011974794
180	0x3d93dbd1	0.07219661
181	0x3e55b415	0.20869477
182	0x3cede91a	0.029041816
183	0x3d498bd9	0.049205635
184	0xbcfe02a0	-0.031007111
185	0x3c89f31e	0.01683956
186	0xbda27b09	-0.07933623
187	0x3a5f66cc	0.0008522093
188	0x3da1ea27	0.07905989
189	0xbd5408ca	-0.051766194
190	0x3c7edf59	0.01555618
191	0x3d18b875	0.037285287
192	0xbd191d0f	-0.037381228
193	0x3e43f5a3	0.19136672
194	0x3db89a52	0.09013809
195	0x3cc96791	0.024585517
196	0x3ccf521c	0.025307707
197	0xbbc44bf6	-0.0059905006
198	0x3d8e6226	0.06952314
199	0xbd96c6d6	-0.07362144
200	0xba89349a	-0.0010467947
201	0x3db6299f	0.08894657
202	0x3c3e2fa9	0.011608043
203	0xb98ef505	-0.00027266904
204	0x3d564f82	0.05232192
205	0x3cdfc077	0.027313454
206	0x3deb471a	0.11488171
207	0xbc6750a8	-0.014118351
208	0xbd13dacf	-0.036097344
209	0xbcc43630	-0.02395162
210	0x3d409b26	0.04702296
211	0x3c117973	0.008879053
212	0x3e26baa1	0.16282131
213	0x3da02ba9	0.078208275
214	0xbd2d579a	-0.04231987
215	0xbd5be3c7	-0.053684022
216	0xbd6e8a14	-0.05823715
217	0x3f10b273	0.5652229
218	0xbd237f40	-0.039916277
219	0xbd8ead5a	-0.06966658
220	0xbd6b4c79	-0.057445977
221	0x3f2dfd0d	0.6796425
222	0x3d9e722f	0.077366225
223	0xbd9e4a42	-0.07729007
224	0xbc059f74	-0.008155692
225	0x3d13ed94	0.036115244
226	0x3d2da467	0.042393114
227	0xbd77d3de	-0.060504787
228	0x3b9fc4ff	0.0048757787
229	0xbd8de34c	-0.06928119
230	0x3f326512	0.6968547
231	0x3d0afd3b	0.033932906
232	0x3f3a5741	0.7278939
233	0x3d80887f	0.062760346
234	0xbd16e4ce	-0.0368393
235	0xba873221	-0.0010314622
236	0x3e07e27d	0.13269992
237	0x3e230685	0.15920456
238	0x3d65d65a	0.056112625
239	0x3db5505e	0.088532194
240	0x3c06bb5c	0.008223381
241	0x3d77fc73	0.06054349
242	0x3e15e3eb	0.14637725
243	0xbcdd6fa8	-0.02703078
244	0x3e57f179	0.21088208
245	0xbd20b6f9	-0.039236996
246	0xbd9b0bf1	-0.07570637
247	0xbd88dbff	-0.06682586
248	0xbd3d4a17	-0.046213236
249	0x3cf88ef8	0.03034161
250	0xbd238d5f	-0.039929744
251	0xbd1b87d7	-0.037971344
252	0x3dc56ca0	0.09639859
253	0x3d44eee7	0.048079398
254	0x3c5e9fbf	0.013587891
255	0xb9161afe	-0.0001431517

actor.2.bias f4 [5]
0	0x3e9d2735	0.30693975
1	0x3eee7856	0.46576184
2	0x3ecff80e	0.40618938
3	0x3ebc05ef	0.36723277
4	0x3eedab9a	0.46419984
