models/frl-model/best_frl_agent0.pt (torch, 216562 bytes, 11 tensors)

embedding.0.weight f4 [128, 20]
-0.20568943 0.08693926 -0.14340353 -0.12388705 -0.11071437 0.008993657 -0.04449839 0.21025477
-0.019251049 0.1341242 0.0206555 -0.14285523 -0.043311935 -0.029588541 -0.17299786 -0.04565934
0.13159108 -0.048174817 0.162568 -0.06217298 0.17527793 -0.16949254 0.056351066 0.17143092
-0.15473229 0.1639783 0.18205376 -0.1570924 -0.13298018 0.0054644817 0.05310927 -0.009414235
-0.149087 -0.13966908 -0.1917437 0.19237478 0.029263232 0.04163876 -0.041456357 0.09962424
0.108607344 -0.05536482 0.1886356 0.17605205 0.0434164 0.03885902 -0.14591384 -0.08972183
0.19018917 -0.05345092 0.08883058 0.08937386 -0.21673466 0.054000564 -0.18772146 0.21666378
-0.12114366 0.009231988 -0.20994695 0.11724549 -0.21921453 0.03577132 -0.15202326 -0.07016306
0.20424075 -0.10933694 0.06529946 -0.0063138753 0.08192745 -0.16361457 0.013545623 0.1617853
0.06915901 -0.06573353 0.025842465 0.031310227 0.090058655 -0.07272305 -0.08420699 -0.19409774
-0.18340753 -0.039386835 0.16630824 0.2233212 -0.056257635 -0.20600747 0.14924453 -0.09889547
-0.1642025 -0.2215904 0.038323075 0.07542064 -0.0092934305 0.15065235 0.20338461 -0.18761423
-0.053705644 0.0125072915 -0.06300425 0.027804269 0.024344852 -0.066615336 0.17981525 -0.18662798
0.074980125 0.019174626 0.1002682 -0.13589294 -0.047677573 -0.07174027 0.2044246 -0.08394984
0.15525346 0.013992645 0.11054809 0.03355458 -0.14056347 0.002713235 -0.1996465 0.08477053
0.16502918 -0.20584856 0.00094266306 -0.032233242 -0.044488423 0.09512964 0.21861711 0.18131405
0.041004058 0.0958497 0.006613435 0.21682866 -0.0020152475 -0.15618716 0.22074749 -0.21501991
-0.028757246 0.143316 0.1946388 -0.03978009 -0.17231874 0.034884315 -0.21237707 0.15449062
0.08764626 0.045958154 0.08727441 -0.056745976 0.066235274 0.0643705 -0.19054188 0.058384866
-0.14849167 0.1257056 0.05763991 -0.2023157 0.030834602 -0.021120435 -0.0524965 -0.14937115
-0.024355993 -0.07965764 0.14575982 0.13418786 -0.20368311 -0.21502538 0.08865524 -0.07845151
0.19116662 -0.057484426 0.19417854 -0.2163799 -0.11058847 0.16942564 -0.11365716 -0.18723568
0.070969485 0.11669686 -0.104780205 -0.010583474 -0.07410903 -0.15612788 -0.10942659 -0.021634415
0.21826735 -0.18839951 0.0729738 -0.16073702 -0.11853025 -0.21428622 -0.16711618 -0.03711089
-0.09209954 0.18957259 -0.06406718 0.17639242 0.0153159285 0.15351525 0.13716389 0.19293591
-0.030905748 0.12198938 0.03018145 0.16972192 0.097478755 -0.0023741706 0.13146071 0.00587653
-0.02475674 -0.037053823 0.075255424 0.047013387 0.12520137 0.12618929 0.16695327 0.13066281
-0.09153548 -0.21340333 -0.017207358 -0.2096878 0.01879747 -0.17771827 0.19718426 0.030878399
0.14387995 -0.1091689 0.08712266 -0.10033124 0.22159909 0.13693476 -0.14574938 0.005778489
-0.070082664 0.15965246 0.054812215 0.22192813 0.018425405 -0.19895037 0.08464436 -0.021444464
-0.12084728 0.10800313 -0.11786617 0.040906657 0.13247778 0.17738184 -0.17680064 0.012183741
0.029339787 -0.10066188 -0.21561834 -0.02825225 -0.12680468 -0.07975453 -0.014707719 0.20720255
00000000: 40a0 52be 360d b23d 60d8 12be 7eb8 fdbd
00000010: 37be e2bd 225a 133c f243 36bd 074d 573e
00000020: 60b4 9dbc db57 093e b935 a93c a448 12be
00000030: db67 31bd ab63 f2bc 5a26 31be 4a05 3bbd
00000040: d0bf 063e f552 45bd 3a78 263e 18a9 7ebd
00000050: 0f7c 333e 748f 2dbe 60d0 663d 968b 2f3e
00000060: 2472 1ebe ede9 273e 4d6c 3a3e d5dc 20be
00000070: f52b 08be 650f b33b 1b89 593d 2a3e 1abc
00000080: 43aa 18be 6905 0fbe 7658 44be e5fd 443e
00000090: 72b9 ef3c 688d 2a3d 24ce 29bd cb07 cc3d
000000a0: 876d de3d 39c6 62bd b129 413e fd46 343e
000000b0: 65d5 313d a32a 1f3d 706a 15be 14c0 b7bd
000000c0: f3c0 423e 5aef 5abd cfec b53d a409 b73d
000000d0: b1ef 5dbe b22f 5d3d 0e3a 40be 1cdd 5d3e
000000e0: 2b1a f8bd c441 173c 55fc 56be 671e f03d
000000f0: c679 60be f384 123d fcab 1bbe a7b1 8fbd
00000100: 7d24 513e 0cec dfbd b9bb 853d a0e4 cebb
00000110: 94c9 a73d 948a 27be 76ee 5d3c 0cab 253e
00000120: 3da3 8d3d 4d9f 86bd 94b3 d33c 273f 003d
00000130: ac70 b83d d3ef 94bd b774 acbd 8fc1 46be
00000140: 2fcf 3bbe 1754 21bd b54c 2a3e 50ae 643e
00000150: 686e 66bd 9ff3 52be 8fd3 183e b589 cabd
00000160: b324 28be 98e8 62be a8f8 1c3d 2376 9a3d
00000170: 7943 18bc 9c44 1a3e 0e44 503e f21d 40be
00000180: 73fa 5bbd 62eb 4c3c 5f08 81bd c7c5 e33c
00000190: db6e c73c 9f6d 88bd 7d21 383e 681b 3fbe
000001a0: 2e8f 993d 1b14 9d3c 6a59 cd3d 8527 0bbe
000001b0: 8f49 43bd 90ec 92bd af54 513e e5ed abbd
000001c0: c3fa 1e3e 6841 653c 0967 e23d 8770 093d
000001d0: dfef 0fbe 88d0 313b 2270 4cbe 2c9c ad3d
000001e0: 69fd 283e f7c9 52be 0c1d 773a 0107 04bd
000001f0: 7e39 36bd 54d3 c23d 2add 5f3e 64aa 393e
00000200: dff3 273d d94c c43d 84b5 d83b 5508 5e3e
00000210: 3e12 04bb 87ef 1fbe a10b 623e 2e2e 5cbe
00000220: 5194 ebbc 6ec1 123e 654f 473e 73f0 22bd
00000230: 5374 30be dbe2 0e3d 6079 59be ca32 1e3e
00000240: e27f b33d 9e3e 3c3d edbc b23d 786e 68bd
00000250: 5ca6 873d aed4 833d 691d 43be f824 6f3d
00000260: 330e 18be f8b8 003e d417 6c3d d92b 4fbe
00000270: d998 fc3c c304 adbc 9206 57bd c0f4 18be
00000280: 3886 c7bc 8b23 a3bd 1042 153e 8b68 093e
00000290: 4e92 50be 9d2f 5cbe e190 b53d 2fab a0bd
000002a0: 2fc1 433e ca74 6bbd bdd6 463e b192 5dbe
000002b0: 357c e2bd ea7d 2d3e 16c5 e8bd b6ba 3fbe
000002c0: 7358 913d c3fe ee3d 0197 d6bd 4f66 2dbc
000002d0: 7ac6 97bd fddf 1fbe 0c1b e0bd a83a b1bc
000002e0: 7a81 5f3e cdeb 40be 4a73 953d 3f98 24be
000002f0: fdbf f2bd d96d 5bbe 8120 2bbe 9701 18bd
00000300: af9e bcbd 511f 423e a735 83bd 37a0 343e
00000310: a9ef 7a3c 1a33 1d3e b174 0c3e fe90 453e
00000320: 0d2e fdbc 91d5 f93d 173f f73c 95cb 2d3e
00000330: f1a2 c73d f997 1bbb a39d 063e e88f c03b
00000340: a6ce cabc c0c5 17bd 841f 9a3d 1c91 403d
00000350: ca34 003e c437 013e ccf5 2a3e 79cc 053e
00000360: f476 bbbd 6786 5abe 72f6 8cbc 66b8 56be
00000370: 27fd 993c c7fb 35be acea 493e b2f4 fc3c
00000380: 4455 133e f293 dfbd 5d6d b23d 777a cdbd
00000390: dfea 623e a038 0c3e 533f 15be 7b59 bd3b
000003a0: 8087 8fbd ef7b 233e c682 603d 2141 633e
000003b0: e0f0 963c a5b9 4bbe 065a ad3d 4dac afbc
000003c0: c77e f7bd bf30 dd3d d263 f1bd bd8d 273d
000003d0: 41a8 073e 96a3 353e 3a0b 35be 509e 473c
000003e0: fe59 f03c d127 cebd 0ecb 5cbe 4371 e7bc
000003f0: 16d9 01be 5856 a3bd a5f8 70bc e82c 543e

embedding.0.bias f4 [128]
0.0063222717 0.09343802 0.063883945 -0.21840613 -0.10820892 0.21560699 -0.20789215 0.0022067975
0.12510619 -0.19060817 -0.028114757 -0.15820746 0.118975595 -0.11728073 -0.17320652 0.050017092
-0.074207366 0.16527173 0.17860329 0.09843309 0.055907268 -0.1255696 0.08007848 0.07330316
-0.102512605 -0.067393556 0.18773863 0.16015358 -0.120862946 0.005908384 -0.11918996 -0.20358045
0.11623371 0.102611236 -0.027328804 0.07222133 0.19488098 -0.15662982 0.09818383 0.08626598
0.09214323 -0.1920871 -0.15868933 0.07774992 -0.17224184 -0.03531153 0.022592911 -0.07656818
-0.16350867 -0.12586911 0.15660234 0.17447162 -0.22000588 0.16487794 -0.041820236 0.19799125
0.14170939 0.118821815 0.036331926 0.020680636 0.0099307755 -0.16200401 0.14325857 -0.12272801
0.190537 -0.12008603 0.1373921 -0.20127764 -0.07523042 0.2150793 0.07561595 0.12394318
-0.03254016 0.12224487 0.01571257 -0.19524963 -0.111367546 0.063070595 -0.17873135 0.031403787
0.19135076 0.21874075 -0.18104693 -0.09197762 0.1403607 -0.193722 0.11010424 0.2012674
-0.15707947 -0.10561776 0.008145356 0.15241472 -0.09315845 0.07295973 -0.007639132 -0.07403285
-0.10448918 0.16725208 0.012016182 0.021045052 0.20330384 -0.15102795 -0.047816478 0.1572595
0.20990932 -0.14928436 0.083189346 0.15406252 -0.08286598 0.17480162 0.16631855 0.04666302
0.10336357 -0.042120222 0.17796004 0.0058949227 -0.18531133 0.13686404 0.020062644 0.05471953
-0.09625628 0.20193028 0.14692482 0.1841885 0.033807706 0.04022554 -0.021047477 -0.18033426
00000000: 0f2b cf3b 6f5c bf3d 96d5 823d dba5 5fbe
00000010: a39c ddbd 14c8 5c3e aee1 54be eb9f 103b
00000020: d61b 003e ca2e 43be eb50 e6bc 2301 22be
00000030: 7aa9 f33d e130 f0bd 0d5d 31be b9de 4c3d
00000040: 08fa 97bd fe3c 293e c8e3 363e 4a97 c93d
00000050: 05ff 643d 5195 00be 3000 a43d f81f 963d
00000060: 21f2 d1bd a205 8abd 8e3e 403e 4dff 233e
00000070: fe86 f7bd 1e9b c13b de19 f4bd 6577 50be
00000080: f00b ee3d d725 d23d a8e0 dfbc c7e8 933d
00000090: e18e 473e 9163 20be 9b14 c93d 38ac b03d
000000a0: 97b5 bc3d 7bb2 44be 757f 22be 5a3b 9f3d
000000b0: 2a60 30be d3a2 10bd c514 b93c c7cf 9cbd
000000c0: d16e 27be d5e3 00be 5d5c 203e b0a8 323e
000000d0: 3949 61be c3d5 283e b24b 2bbd 38be 4a3e
000000e0: 441c 113e da58 f33d c9d0 143d 706a a93c
000000f0: b1b4 223c 61e4 25be 60b2 123e d358 fbbd
00000100: 221c 433e aaef f5bd 84b0 0c3e ba1b 4ebe
00000110: 6812 9abd bf3d 5c3e 89dc 9a3d ecd5 fd3d
00000120: d548 05bd 855b fa3d a6b7 803c 85ef 47be
00000130: ab14 e4bd 282b 813d 5a05 37be 42a1 003d
00000140: 74f1 433e 93fd 5f3e 5e64 39be c35e bcbd
00000150: b7ba 0f3e 0f5f 46be 557e e13d 0b19 4e3e
00000160: 71d9 20be 204e d8bd 1974 053c 9b12 1c3e
00000170: dcc9 bebd e96b 953d af51 fabb 899e 97bd
00000180: 6cfe d5bd 2144 2b3e 85df 443c ac66 ac3c
00000190: e22e 503e 12a7 1abe 36db 43bd a208 213e
000001a0: 78f2 563e 00de 18be 2d5f aa3d 91c2 1d3e
000001b0: a4b5 a9bd 32ff 323e 694f 2a3e b921 3f3d
000001c0: 48b0 d33d 4186 2cbd 283b 363e 322a c13b
000001d0: 41c2 3dbe 1626 0c3e 6a5a a43c 9621 603d
000001e0: 0322 c5bd d0c6 4e3e 7673 163e e99b 3c3e
000001f0: f379 0a3d 89c3 243d c26b acbc 8ba9 38be

embedding.2.weight f4 [128, 128]
0.029300088 0.04691178 -0.06868592 -0.043610416 0.019051503 -0.028687736 -0.041137137 -0.032112084
-0.038165655 0.033894885 0.015186932 -0.051752914 -0.03627026 0.016254554 -0.064015396 0.00027573522
0.049323738 -0.030624153 0.050457362 0.036682993 -0.08799251 0.030004509 0.030940717 -0.080114
-0.0020790303 0.0315021 -0.08730339 -0.07180652 -0.05556769 -0.016754352 0.036352247 0.06895985
-0.016964117 0.083044864 -0.07472045 -0.054234743 -0.012854578 0.065052144 -0.033202328 -0.06322405
-0.04587446 0.0023047898 -0.03697745 -0.059466306 0.013216398 0.07255562 -0.03228912 0.021479571
-0.027447734 0.07633614 -0.06287746 -0.0042199953 0.017156834 0.075464666 0.036165513 0.0802812
0.017309647 0.0091005685 0.035209823 0.07216592 -0.086414546 -0.03248605 -0.009757037 0.044032857
0.055618465 -0.07351408 0.004447662 0.08373751 -0.07736696 0.08220478 -0.08113107 -0.082414165
0.08281474 0.06300312 0.04177738 0.041911583 0.027951367 -0.013539348 -0.044208862 -0.07021415
-0.013643146 -0.043398652 -0.024442317 0.012382817 0.03709792 0.082394734 0.081415296 0.07198196
0.04714656 0.03694167 0.020266628 -0.06633778 0.06276094 -0.014756022 -0.08235277 0.034936786
0.004477133 -0.013043817 -0.027970335 -0.021787 -0.04300144 -0.055286128 -0.06093859 0.05603713
0.07184526 -0.07185141 0.07944427 0.03293631 0.012072511 0.063685134 0.045435894 0.003578046
0.0049800924 0.06166147 0.026371958 0.077843286 -0.074873686 -0.034748673 0.017467719 -0.0018358956
0.070615746 -0.0075637153 0.0020323421 -0.05520134 -0.043578617 0.018596929 0.049296387 -0.016723458
0.0074296356 -0.010404908 0.047328234 -0.069467604 -0.0147510385 -0.08441462 0.07130434 0.08380948
0.023622919 -0.0778571 -0.045133393 0.086680286 0.08525471 -0.012852439 -0.0068556485 0.04685543
0.047693238 -0.010165124 0.0597984 0.08332189 -0.06926306 0.08664053 0.08785998 -0.06182363
-0.0110259 -0.047175948 -0.07421957 -0.042122573 -0.06506255 0.013708642 0.06337694 -0.05377924
0.059481636 -0.06578477 0.081819445 -0.023590466 0.028402507 -0.022762554 0.06452103 0.07019577
0.08519075 -0.07926853 -0.033829127 -0.0015231555 -0.042497993 -0.012287355 -0.081403516 -0.08450853
-0.053117357 -0.08457137 -0.031160671 0.022246918 0.004322075 0.03514026 0.00017684817 0.0064205453
0.064884596 -0.073762126 0.066099524 -0.032736804 -0.039246038 -0.018271808 -0.0804837 0.07835965
-0.03930417 -0.055731956 -0.035889853 0.07281558 0.021371454 -0.03149934 0.032006696 0.025876205
0.07188659 -0.0845975 -0.057842933 -0.07252656 -0.07888901 -0.010825966 0.039763507 0.01431229
0.02354932 0.045362 -0.0423436 -0.01022925 -0.08114718 0.05385427 0.060894124 0.054293517
-0.056472816 0.04521694 -0.022627547 -0.07261361 0.04190819 0.057585817 0.073382035 -0.022700703
-0.037817568 0.011660326 -0.07670689 0.022419173 -0.07693642 -0.026244884 -0.0154871335 0.0823296
0.043820288 0.06756129 0.08496922 -0.02772427 0.06567023 -0.08681341 -0.06324739 -0.02539689
-0.08677254 0.022423124 -0.014147316 0.06149324 -0.062111262 0.07130696 -0.036837365 -0.025656736
0.005623833 -0.04211239 0.014977599 -0.04201026 0.011003583 0.050670017 -0.005279451 -0.052964438
00000000: bd06 f03c 9126 403d 34ab 8cbd d6a0 32bd
00000010: e611 9c3c 8b02 ebbc 6a7f 28bd f687 03bd
00000020: 9753 1cbd 5dd5 0a3d 9cd2 783c ddfa 53bd
00000030: 2090 14bd 4528 853c 811a 83bd 8e90 9039
00000040: b007 4a3d 81df fabc 61ac 4e3d e840 163d
00000050: 6b35 b4bd 04cc f53c 6377 fd3c cf12 a4bd
00000060: 5740 08bb 5908 013d 1fcc b2bd 4c0f 93bd
00000070: f29a 63bd 6c40 89bc 18e6 143d d23a 8d3d
00000080: 55f8 8abc 6d13 aa3d 0907 99bd 4025 5ebd
00000090: 029c 52bc 0f3a 853d 2aff 07bd 9c7b 81bd
000000a0: dce6 3bbd f50b 173b ab75 17bd f192 73bd
000000b0: 9789 583c 0a98 943d 9941 04bd edf5 af3c
000000c0: 12da e0bc 1f56 9c3d e6c5 80bd e347 8abb
000000d0: 7d8c 8c3c 388d 9a3d 4a22 143d 786a a43d
000000e0: f6cc 8d3c 8d1a 153c 2d38 103d bacb 933d
000000f0: 1cfa b0bd 1810 05bd fbdb 1fbc cc5b 343d
00000100: 30d0 633d 8d8e 96bd b1bd 913b 927e ab3d
00000110: 9272 9ebd fb5a a83d 0c28 a6bd c2c8 a8bd
00000120: c69a a93d c807 813d c21e 2b3d 7bab 2b3d
00000130: 44fa e43c 24d4 5dbc 5a14 35bd 70cc 8fbd
00000140: 8087 5fbc c9c2 31bd 413b c8bc 4de1 4a3c
00000150: fdf3 173d 92be a83d 10bd a63d 476b 933d
00000160: c01c 413d 2650 173d 3306 a63c 1adc 87bd
00000170: cf88 803d 3ec3 71bc 92a8 a8bd e019 0f3d
00000180: eab4 923b bcb5 55bc 0b22 e5bc a77a b2bc
00000190: 4722 30bd b573 62bd be9a 79bd 3187 653d
000001a0: 9c23 933d d526 93bd adb3 a23d 39e8 063d
000001b0: c8cb 453c 5a6d 823d fd1a 3a3d a77d 6a3b
000001c0: 0b30 a33b bd90 7c3d 010a d83c 4d6c 9f3d
000001d0: 6057 99bd a054 0ebd 7618 8f3c 6fa2 f0ba
000001e0: fd9e 903d 0bd9 f7bb 0b31 053b cd1a 62bd
000001f0: 7e7f 32bd 9658 983c 02eb 493d a2ff 88bc
00000200: 4d74 f33b 5979 2abc 40db 413d 0845 8ebd
00000210: 57ae 71bc 93e1 acbd 0308 923d 4ea4 ab3d
00000220: da84 c13c 8b73 9fbd cbdd 38bd 6f85 b13d
00000230: 059a ae3d 0993 52bc 59a5 e0bb 7beb 3f3d
00000240: fc59 433d 9f8b 26bc 2bef 743d aba4 aa3d
00000250: cbd9 8dbd 9770 b13d efef b33d c63a 7dbd
00000260: faa5 34bc 913b 41bd 6e00 98bd b888 2cbd
00000270: 843f 85bd 369a 603c c5cb 813d 9f47 5cbd
00000280: 04a3 733d 2aba 86bd f490 a73d cb40 c1bc
00000290: 60ac e83c 8978 babc 9a23 843d cdc2 8f3d
000002a0: 7d78 ae3d 8a57 a2bd 6990 0abd 9ea4 c7ba
000002b0: 6012 2ebd e750 49bc e3b6 a6bd cf12 adbd
000002c0: 9691 59bd c133 adbd aa44 ffbc 2b3f b63c
000002d0: 31a0 8d3b 3cef 0f3d 5270 3939 7063 d23b
000002e0: 37e2 843d 9910 97bd 305f 873d 0717 06bd
000002f0: 74c0 20bd c2ae 95bc a3d4 a4bd 067b a03d
00000300: 69fd 20bd 3147 64bd 3d01 13bd 5620 953d
00000310: 3013 af3c 7405 01bd 7419 033d 56fa d33c
00000320: 4739 933d 7441 adbd b6ec 6cbd ce88 94bd
00000330: 9090 a1bd 645f 31bc 0fdf 223d 187e 6a3c
00000340: 81ea c03c 81cd 393d 7c70 2dbd 9698 27bc
00000350: 7e30 a6bd 4c96 5c3d 1e6c 793d e162 5e3d
00000360: 0a50 67bd 6635 393d 685d b9bc 72b6 94bd
00000370: eca7 2b3d 1bdf 6b3d 5249 963d d3f6 b9bc
00000380: 98e6 1abd f40a 3f3c 8018 9dbd 6aa8 b73c
00000390: d790 9dbd 83ff d6bc bfbd 7dbc 6c9c a83d
000003a0: e77c 333d 935d 8a3d 5804 ae3d 021e e3bc
000003b0: 1d7e 863d 3bcb b1bd d987 81bd 230d d0bc
000003c0: cdb5 b1bd b3b0 b73c 25ca 67bc 56e0 7b3d
000003d0: 6168 7ebd 6209 923d c7e2 16bd 132e d2bc
000003e0: 2148 b83b 0b7e 2cbd 9a64 753c f312 2cbd
000003f0: 5f48 343c 5d8b 4f3d 3fff acbb 3df1 58bd

embedding.2.bias f4 [128]
0.038572323 -0.023969376 -0.07312649 0.074112 -0.017535007 -0.0872481 -0.07372659 -0.08649447
-0.07844764 0.030759687 0.00892999 0.044115916 0.03542372 0.03569603 0.034840703 0.0067062695
0.06987159 0.0137887625 -0.042005867 -0.08795704 -0.056739267 -0.055167317 -0.054633558 0.024985315
-0.029322859 -0.04910597 -0.011830484 -0.07626931 -0.07557229 -0.084473096 0.023127599 -0.0842627
-0.025475178 -0.052211177 0.063402906 -0.06889375 0.03266033 -0.077634186 -0.07134079 0.030980503
0.05122632 0.031707093 0.005740538 -0.07807537 0.041097656 0.028687062 -0.014959034 -0.019532546
0.06491082 0.023855137 -0.025182372 -0.06788343 0.0039248094 0.023487648 -0.03896221 0.087492555
-0.07801155 0.020233005 0.033732418 -0.084942326 -0.036143303 0.0010031055 -0.020554323 -0.0520595
-0.070128426 0.057885673 0.05512672 0.072218 -0.04772374 0.019780338 -0.03066869 -0.0103965
-0.07604042 0.008314172 0.07567235 0.046960387 0.02615881 0.052884486 -0.058425467 -0.07680383
-0.019130254 0.02514169 -0.076363966 -0.030469505 0.051149838 -0.01969715 -0.0042547453 -0.015429308
-0.06130044 0.05838011 0.061189268 0.0060475776 -0.008026161 -0.0039878082 0.006815398 0.021856671
-0.03884852 0.077280715 -0.06335985 -0.011051083 0.0771069 -0.005324622 0.08716615 -0.08782088
0.0061608152 -0.027355917 -0.039732836 -0.07296661 -0.08522311 0.002793314 -0.014464229 -0.046035167
-0.081772506 -0.012669132 -0.01366796 -0.08339476 0.014098784 0.07351326 -0.06957386 -0.08771831
-0.020824378 0.078713536 -0.06969668 -0.03754059 0.055055786 -0.07222103 -0.031530794 0.023229204
00000000: 03fe 1d3d 6d5b c4bc 57c3 95bd 08c8 973d
00000010: 93a5 8fbc 22af b2bd f7fd 96bd 0324 b1bd
00000020: 28a9 a0bd bdfb fb3c 184f 123c e4b2 343d
00000030: 7618 113d 0036 123d 20b5 0e3d 44c0 db3b
00000040: d618 8f3d 43ea 613c 580e 2cbd d222 b4bd
00000050: 6f67 68bd 20f7 61bd 70c7 5fbd 01ae cc3c
00000060: 7e36 f0bc 5723 49bd a5d4 41bc 1633 9cbd
00000070: a5c5 9abd 3b00 adbd 1776 bd3c ec91 acbd
00000080: 52b1 d0bc 63db 55bd 62d9 813d 2b18 8dbd
00000090: d7c6 053d acfe 9ebd 1f1b 92bd d3ca fd3c
000000a0: b1d2 513d 4cdf 013d 1f1b bc3b fbe5 9fbd
000000b0: 0456 283d 2101 eb3c bc16 75bc b802 a0bc
000000c0: f7ef 843d d96b c33c 434b cebc 7806 8bbd
000000d0: b09b 803b 2b69 c03c d796 1fbd 4c2f b33d
000000e0: 85c4 9fbd b0bf a53c 012b 0a3d 3ef6 adbd
000000f0: 000b 14bd a37a 833a 8a61 a8bc 583c 55bd
00000100: 7e9f 8fbd 8719 6d3d 8ecc 613d 08e7 933d
00000110: f879 43bd 600a a23c e83c fbbc 1556 2abc
00000120: 14bb 9bbd 2a38 083c 1bfa 9a3d 8959 403d
00000130: 004b d63c 679d 583d 8b4f 6fbd 544b 9dbd
00000140: 0db7 9cbc f2f5 cd3c b664 9cbd 2f9b f9bc
00000150: 7e82 513d eb5b a1bc 646b 8bbb 35cb 7cbc
00000160: 2c16 7bbd fb1f 6f3d 99a1 7a3d c22a c63b
00000170: 2980 03bc 29ac 82bb b453 df3b c30c b33c
00000180: a01f 1fbd 5a45 9e3d cfc2 81bd 9a0f 35bc
00000190: 39ea 9d3d 2b7a aebb 2b84 b23d 6fdb b3bd
000001a0: aae0 c93b 8419 e0bc e6be 22bd 856f 95bd
000001b0: 7489 aebd 0810 373b 60fb 6cbc 5f8f 3cbd
000001c0: 5878 a7bd 3192 4fbc 94ef 5fbc dfca aabd
000001d0: 96fe 663c 1f8e 963d bd7c 8ebd a8a5 b3bd
000001e0: e397 aabc 9034 a13d 22bd 8ebd 29c4 19bd
000001f0: 2d82 613d 9fe8 93bd 6f26 01bd 2c4b be3c

actor.0.weight f4 [128, 128]
0.027630156 0.05248331 -0.04763953 0.015104492 0.04903145 0.012995338 -0.06394802 -0.023428675
0.06871927 0.034231942 0.027367286 0.010560862 0.055438384 -0.018106654 0.045710016 0.0066233454
-0.06950319 0.0872299 0.015588802 0.009531447 0.075655706 -0.061509743 0.056747105 -0.04314855
0.0015979239 0.05749041 0.035987232 0.049207404 -0.0677421 -0.04954344 -0.06447432 -0.00826977
0.08829969 -0.023854379 0.044863917 0.05129091 0.028855154 -0.06180947 0.010389514 -0.041017164
-0.012948133 0.014132618 0.07093489 -0.06320266 0.032942735 0.0141213965 0.07129757 0.00757323
0.032008477 0.0267197 -0.011015848 -0.04004748 0.08376532 0.010391305 0.08438242 -0.0855653
-0.032616466 -0.015888087 -0.017334187 -0.021004492 0.0373879 -0.068343736 0.030398909 -0.07581418
0.077583745 -0.052676585 -0.03214219 -0.047873657 0.05101835 -0.036127865 -0.027258296 -0.022100573
0.0013820373 0.0014509895 0.048664596 -0.0206536 0.025164628 0.018335449 -0.009487202 -0.061673228
-0.06489736 -0.0134011805 -0.066958286 0.02175222 -0.014145462 0.018372865 0.04163765 0.020722289
0.06308822 -0.053361934 -0.039749008 -0.015737085 -0.0120839225 -0.08487371 0.066741996 0.010900587
-0.034780085 0.018107845 0.012508299 0.06421766 -0.019456618 -0.039049223 0.023296913 0.048419226
-0.079836994 -0.054109957 -0.05398437 -0.03786064 -0.019127166 0.0064281845 0.013646559 -0.067059115
-0.027084239 -0.05760371 -0.014447434 -0.06017786 -0.04455693 0.00035476056 0.07792185 0.07985076
0.08298076 -0.05255634 -0.029557342 0.048797082 -0.023964107 0.04255932 0.05595974 -0.016804243
-0.08277138 -0.043353733 -0.084531195 -0.08268327 -0.050097227 0.057373546 -0.006670181 -0.04624781
-0.017487453 -0.062461134 0.07562031 0.042210225 -0.015431699 0.0760988 0.047558293 0.0013036125
-0.03879043 -0.058348496 -0.037788928 -0.07207701 -0.03074641 -0.01930078 -0.023644382 0.031250488
-0.07866385 0.06279823 0.05630511 0.032292124 0.046713237 -0.08380489 0.06540236 -0.047736596
0.039054703 0.035717074 0.04441242 -0.00041656892 -0.006121408 0.06534244 0.018305967 -0.075861186
0.07055507 0.025375921 0.06851495 0.026845582 -0.010700926 0.041296713 -0.020608861 0.002356873
-0.021061812 0.081558004 0.020531163 -0.00091420725 0.007821148 -0.016608082 0.08587587 -0.038950916
-0.0048426203 0.06781541 0.056790434 0.04063105 -0.032627244 0.077957496 0.024440842 -0.05917194
0.045202125 -0.050638784 -0.020848285 -0.048878267 0.06485511 -0.059091695 0.0060379785 0.06666038
-0.03379899 0.0033830854 -0.07092588 -0.049546927 0.058688294 -0.054929692 -0.042936742 -0.07855987
-0.04181633 0.0056868424 -0.033643425 0.08391698 -0.037532557 0.071694925 0.07042013 -0.007158642
0.047700252 0.03178043 -0.08806023 0.01657173 0.050377842 -0.0042917607 -0.06271031 -0.009832301
0.017707987 -0.0008818912 0.053951327 -0.050154157 0.019202778 -0.072104946 -0.085832976 -0.0029055404
0.06240256 -0.053313952 0.061456814 -0.051880125 0.0029736604 -0.026443353 0.027700288 -0.08285335
-0.01618009 0.008249276 -0.04967808 0.0030890268 0.0845337 0.06891744 -0.027702417 0.009093424
-0.024019426 0.080451906 0.049798187 -0.06988832 0.005775277 0.024647467 0.01456437 -0.0063582105
00000000: a358 e23c bdf8 563d ab21 43bd d578 773c
00000010: 34d5 483d 66ea 543c 2ef7 82bd 7eed bfbc
00000020: b0bc 8c3d cb36 0c3d 5c31 e03c 7707 2d3c
00000030: 5c13 633d 6854 94bc 6d3a 3b3d a608 d93b
00000040: b057 8ebd 97a5 b23d 2d68 7f3c c929 1c3c
00000050: 61f1 9a3d a4f1 7bbd a76f 683d 89bc 30bd
00000060: 6e71 d13a 107b 6b3d 5967 133d b48d 493d
00000070: 5fbc 8abd 10ee 4abd 1d0b 84bd ee7d 07bc
00000080: 78d6 b43d 426a c3bc 3ac3 373d 6b16 523d
00000090: a561 ec3c ed2b 7dbd c838 2a3c 9d01 28bd
000000a0: 6824 54bc 7f8c 673c 5046 913d 6570 81bd
000000b0: f6ee 063d 6e5d 673c 7604 923d dc28 f83b
000000c0: 521b 033d 46e3 da3c d17b 34bc d408 24bd
000000d0: 278d ab3d 4b40 2a3c b1d0 ac3d dc3c afbd
000000e0: d898 05bd bc27 82bc 6d00 8ebc 9d11 acbc
000000f0: 0e24 193d cdf7 8bbd 2207 f93c 7744 9bbd
00000100: 3ae4 9e3d 67c3 57bd 87a7 03bd 2b17 44bd
00000110: 9ef8 503d d0fa 13bd ca4c dfbc 430c b5bc
00000120: 7a25 b53a 212f be3a 8754 473d bd31 a9bc
00000130: 0d26 ce3c 3934 963c 3670 1bbc 119d 7cbd
00000140: e8e8 84bd a090 5bbc 6d21 89bd b631 b23c
00000150: 5ec2 67bc b182 963c 3e8c 2a3d cac1 a93c
00000160: 6634 813d 0b92 5abd dbcf 22bd 0feb 80bc
00000170: a5fb 45bc 45d2 adbd 07b0 883d 6098 323c
00000180: 9075 0ebd e756 943c 9cef 4c3c 8c84 833d
00000190: 7c63 9fbc 14f2 1fbd 2bd9 be3c 3d53 463d
000001a0: 9481 a3bd 67a2 5dbd b71e 5dbd c213 1bbd
000001b0: 93b0 9cbc 85a3 d23b d195 5f3c 4a56 89bd
000001c0: c4df ddbc def1 6bbd eeb4 6cbc 0f7d 76bd
000001d0: 5481 36bd 28ff b939 7e95 9f3d cc88 a33d
000001e0: d1f1 a93d 5145 57bd 3d22 f2bc 73df 473d
000001f0: 6050 c4bc ae52 2e3d 0a36 653d 0da9 89bc
00000200: 0b84 a9bd af93 31bd b11e adbd d955 a9bd
00000210: c032 4dbd 8600 6b3d 8991 dabb 586e 3dbd
00000220: d941 8fbc 3fd7 7fbd d2de 9a3d a1e4 2c3d
00000230: 3dd5 7cbc b0d9 9b3d 7ccc 423d fadd aa3a
00000240: b7e2 1ebd d5fe 6ebd 90c8 1abd 1d9d 93bd
00000250: e5df fbbc ab1c 9ebc ddb1 c1bc 8300 003d
00000260: 831a a1bd 5c9c 803d 30a0 663d bf44 043d
00000270: 6156 3f3d e6a1 abbd acf1 853d 7387 43bd
00000280: d3f7 1f3d 114c 123d cce9 353d ef66 dab9
00000290: 1896 c8bb 42d2 853d 65f6 953c 1c5d 9bbd
000002a0: 2d7f 903d 2ae1 cf3c 9151 8c3d 44eb db3c
000002b0: f052 2fbc be26 293d ead3 a8bc c475 1a3b
000002c0: d289 acbc e207 a73d f830 a83c 69a7 6fba
000002d0: 4624 003c ac0d 88bc b0df af3d ff8a 1fbd
000002e0: d8ae 9ebb cee2 8a3d 169d 683d be6c 263d
000002f0: 25a4 05bd 2ea8 9f3d 2938 c83c 475e 72bd
00000300: dd25 393d 9d6a 4fbd 06ca aabc 9434 48bd
00000310: c2d2 843d 220a 72bd 3cda c53b 3d85 883d
00000320: cf70 0abd c1b6 5d3b 9641 91bd b8f1 4abd
00000330: 2363 703d f5fd 60bd 70de 2fbd ffe3 a0bd
00000340: 9a47 2bbd b158 ba3b b0cd 09bd aadc ab3d
00000350: bdbb 19bd cad4 923d 6e38 903d 0b93 eabb
00000360: 5761 433d 322c 023d ec58 b4bd 70c1 873c
00000370: ff58 4e3d e6a1 8cbb 436e 80bd a917 21bc
00000380: 5710 913c b72e 67ba 11fc 5c3d 726e 4dbd
00000390: 254f 9d3c c2ab 93bd 33c9 afbd e16a 3ebb
000003a0: d499 7f3d bb5f 5abd 24ba 7b3d 4180 54bd
000003b0: bee1 423b bb9f d8bc b7eb e23c 04af a9bd
000003c0: 1c8c 84bc f927 073c 3e7b 4bbd 4571 4a3b
000003d0: 0120 ad3d 9624 8d3d 2ef0 e2bc 96fc 143c
000003e0: 63c4 c4bc f8c3 a43d 2ff9 4b3d 9c21 8fbd
000003f0: 893e bd3b 7ce9 c93c 659f 6e3c 8958 d0bb

actor.0.bias f4 [128]
-0.08310642 0.02033812 -0.007346638 0.006660772 -0.05360882 0.067860216 -0.032941967 0.08743724
0.06248853 -0.0760336 0.025523942 0.004155774 -0.017921356 -0.032416046 -0.0058343564 0.08272397
-0.05223913 -0.031875007 0.06759641 0.059887785 -0.06242356 0.011041199 0.006775917 -0.005847538
0.051806673 -0.069222555 -0.034294933 -0.04369625 -0.005123908 -0.01716953 0.0085710045 -0.06769214
0.01940503 0.060517404 0.013537652 -0.020031143 -0.057833347 -0.047457844 -0.009289724 -0.020184662
-0.069836535 -0.039489765 -0.05945424 0.0038987414 0.020290852 0.084950626 -0.020773211 0.018018061
0.03138951 0.08269525 0.06616376 -0.08579689 0.08620377 -0.029545393 -0.0047363997 -0.081463665
0.08015525 -0.084358 -0.0012254617 -0.040213466 0.006426583 0.08239508 0.034219775 -0.0012306985
-0.017527146 -0.04717599 0.08321306 0.077092014 -0.06780089 0.0066472534 0.059716415 0.039818887
0.07538056 0.04002428 -0.063839935 0.026572071 0.022066657 -0.0047770394 -0.0076668593 0.070933565
-0.08615533 -0.021492606 -0.022707837 0.03753516 0.035494696 0.06399978 0.061867464 -0.0783175
0.0014874992 0.04472361 0.058986515 0.060878202 0.07936287 0.015752805 -0.013935055 0.011141214
0.06322121 0.003976903 -0.03634501 -0.01984539 0.028653197 -0.08682474 0.065740116 0.044490043
0.04418371 0.061958354 0.07274614 -0.055766474 0.049136247 -0.079382494 0.0142066805 0.03273985
0.04329826 -0.063414045 0.043241654 -0.020009259 -0.06527705 0.045216404 0.07103789 0.058513533
-0.06681111 0.024405586 -0.011916989 0.033975616 0.022352634 -0.033860028 -8.426209e-05 -0.079693444
00000000: b333 aabd 219c a63c 11bc f0bb 9b42 da3b
00000010: ec94 5bbd 4cfa 8a3d 28ee 06bd 4c12 b33d
00000020: f9f3 7f3d 81b7 9bbd 9617 d13c 292d 883b
00000030: cfcf 92bc b0c6 04bd 212e bfbb 2f6b a93d
00000040: b3f8 55bd 5e8f 02bd fd6f 8a3d e54c 753d
00000050: d9af 7fbd 25e6 343c 8308 de3b b49c bfbb
00000060: 3c33 543d 8ec4 8dbd d878 0cbd d7fa 32bd
00000070: 75e6 a7bb 1da7 8cbc 666d 0c3c 2da2 8abd
00000080: 4cf7 9e3c 19e1 773d 07cd 5d3c 5a18 a4bc
00000090: a9e2 6cbd 2863 42bd ed33 18bc 4e5a a5bc
000000a0: 7506 8fbd 05c0 21bd 4a86 73bd 0782 7f3b
000000b0: 0039 a63c 98fa ad3d 952c aabc 9d9a 933c
000000c0: 4992 003d 215c a93d de80 873d 48b6 afbd
000000d0: 9a8b b03d 2e09 f2bc cd33 9bbb 6cd6 a6bd
000000e0: 7028 a43d e3c3 acbd ac9f a0ba e0b6 24bd
000000f0: 1696 d23b c0be a83d 092a 0c3d 644f a1ba
00000100: 1795 8fbc 9c3b 41bd 9c6b aa3d 6be2 9d3d
00000110: 31db 8abd 34d1 d93b 3399 743d 2119 233d
00000120: 1f61 9a3d 80f0 233d 83be 82bd acad d93c
00000130: 22c5 b43c b688 9cbb 473a fbbb 9e45 913d
00000140: 3572 b0bd 4311 b0bc c905 babc 78be 193d
00000150: e362 113d 5112 833d bd68 7d3d ed64 a0bd
00000160: 31f8 c23a 1b30 373d d89b 713d 6c5b 793d
00000170: 0089 a23d 070c 813c db4f 64bc a389 363c
00000180: 1f7a 813d ae50 823b 81de 14bd cd92 a2bc
00000190: 1cba ea3c 2bd1 b1bd c1a2 863d 313b 363d
000001a0: faf9 343d 0bc8 7d3d eefb 943d 636b 64bd
000001b0: 1743 493d 4a93 a2bd 23c3 683c 391a 063d
000001c0: 8459 313d 39df 81bd 291e 313d 75ea a3bc
000001d0: f9af 85bd d634 393d 507c 913d e3ab 6f3d
000001e0: 43d4 88bd 39ee c73c 7a3f 43bc 042a 0b3d
000001f0: df1c b73c d0b0 0abd ddb5 b0b8 5136 a3bd

actor.2.weight f4 [5, 128]
-0.014269774 -0.015609517 0.00047286655 0.059650224 0.05906786 -0.035533585 -0.06520126 0.08043371
0.0572154 -0.0831198 -0.03844725 0.03000588 0.036313925 -0.009869675 0.0016264153 0.016665064
0.027677013 -0.054140218 0.07073886 -0.06952767 0.035599925 -0.054366536 -0.012227391 0.055752713
0.0010454631 -0.025901977 0.04333151 -0.06918647 -0.062348433 -0.014944935 -0.07656732 0.0652276
-0.068018556 0.07828833 -0.012462676 0.049638692 -0.054511543 0.07393272 0.006039285 0.0014978042
-0.081044555 0.07999694 -0.021876775 -0.045268074 -0.02939712 0.032964937 0.06562608 -0.01976625
0.07435524 0.0067098625 0.04331874 0.04592059 -0.07432957 -0.07741285 0.06742912 -0.07641443
-0.045730267 0.07457494 0.038223956 -0.06958019 0.028487528 0.023814538 0.011459138 0.038838077
-0.019947408 -0.03648876 -0.058283508 0.082961015 0.082036324 -0.07660013 -0.01731499 0.04449149
-0.024090212 0.05521553 -0.032561705 0.02932977 -0.08762646 -0.08575394 0.04046757 -0.047908437
-0.079284236 0.061487056 -0.03115887 0.028851982 -0.0862842 -0.05945639 0.0795016 -0.064626195
0.05831068 -0.014158686 0.080052055 -0.076286584 -0.086163394 -0.0733163 0.003547869 -0.058601253
0.012114701 -0.0706132 -0.0409293 -0.06373641 0.032669835 -0.031064661 -0.07932946 -0.010862402
-0.04868922 0.07303987 0.06158451 -0.071990505 -0.005657361 -0.073125705 -0.024916068 -0.07209995
-0.08224678 -0.004878013 0.048081145 -0.035522647 0.047091663 -0.06891805 0.02791017 0.0072009154
-0.06342858 -0.08683167 0.0013024851 -0.004043242 0.0794504 -0.07910709 0.060091004 0.046155423
0.081877604 0.05055919 -0.033012804 -0.07787314 0.0015949737 -0.059304018 -0.015045339 0.08026988
0.079046205 -0.03437757 -0.010117688 0.0025739924 0.05910124 -0.0647869 -0.03833062 -0.0061149807
-0.074600376 -0.052760605 0.019732691 -0.086593404 -0.0119954245 -0.083999574 0.07036778 0.07898537
-0.032211814 -0.054376736 0.058990963 0.0012900307 0.08594932 -0.023889886 0.061579272 0.0069717104
-0.021077892 0.007187713 0.048872873 -0.047037084 0.044714 -0.084351994 0.060635217 -0.017310543
-0.07572225 -0.02512834 0.017422348 -0.0027843683 0.053957522 -0.054483525 0.0030611467 0.004959641
-0.005658836 0.084630646 -0.007546077 -0.060838386 -0.06504627 -0.016267808 -0.0067363726 0.055614494
0.07956575 0.06086182 -0.022907138 0.0082707815 -0.0039514145 0.04876502 -0.019581279 -0.050902203
-0.024313852 0.024235586 0.042537414 0.026680904 0.085681856 -0.0665711 0.0046244683 0.03731235
-0.08653248 0.0037560638 -0.07855498 -0.08068386 0.0571021 -0.0741399 -0.027139831 -0.022567613
-0.07240542 0.050701205 -0.07423554 0.074523106 0.072783895 -0.08422358 -0.012737178 -0.06530065
0.08010362 0.003723558 0.021011667 0.06001668 -0.048528504 0.005798279 -0.051999126 0.04071497
0.0039198254 -0.08245888 0.07239733 -0.0007631108 0.055694405 -0.067536384 0.03596755 0.07919811
0.01862684 0.08544538 -0.028896173 0.071899906 -0.047764696 0.047471784 0.050246585 0.07799404
0.024518907 0.014349527 -0.06330001 -0.03715839 -0.054396525 0.052688893 -0.08174919 0.00020855315
-0.08561816 -0.07792117 0.021480214 0.02050048 -0.008341588 0.05197408 0.03139859 -0.013973703
00000000: c5cb 69bc 0fbf 7fbc 13eb f739 cb53 743d
00000010: 24f1 713d aa8b 11bd 3d88 85bd 6eba a43d
00000020: b25a 6a3d b73a aabd dd7a 1dbd e4ce f53c
00000030: e9bd 143d 6bb4 21bc 712d d53a 2c85 883c
00000040: e7ba e23c 22c2 5dbd 89df 903d 8664 8ebd
00000050: 3ad1 113d 72af 5ebd 6555 48bc f55c 643d
00000060: ec07 893a 6230 d4bc 627c 313d a3b1 8dbd
00000070: 1261 7fbd 9adb 74bc 54cf 9cbd 0c96 853d
00000080: 504d 8bbd a255 a03d 4030 4cbc f151 4b3d
00000090: 7f47 5fbd 0a6a 973d 32e5 c53b f851 c43a
000000a0: b0fa a5bd 70d5 a33d ec36 b3bc 046b 39bd
000000b0: 3bd2 f0bc 3e06 073d f766 863d d5ec a1bc
000000c0: 8f47 983d 68de db3b fe6e 313d 3b17 3c3d
000000d0: 1a3a 98bd a18a 9ebd 4718 8a3d 2b7f 9cbd
000000e0: a94f 3bbd bfba 983d b990 1c3d 0f80 8ebd
000000f0: ad5e e93c b516 c33c 1cbf 3b3c ad14 1f3d
00000100: bf68 a3bc 3d75 15bd b0ba 6ebd 77e7 a93d
00000110: a902 a83d 87e0 9cbd 2ad8 8dbc b53c 363d
00000120: d658 c5bc ae29 623d 6c5f 05bd fc44 f03c
00000130: 8075 b3bd c39f afbd 53c1 253d a33b 44bd
00000140: c65f a2bd dad9 7b3d e340 ffbc fe5a ec3c
00000150: c5b5 b0bd 8b88 73bd bcd1 a23d bd5a 84bd
00000160: 2ed7 6e3d d5f9 67bc 55f2 a33d 243c 9cbd
00000170: 6f76 b0bd db26 96bd 5d83 683b de07 70bd
00000180: bd7c 463c a79d 90bd 7ba5 27bd 3c88 82bd
00000190: ced0 053d 517b febc 7c77 a2bd 37f8 31bc
000001a0: 596e 47bd ed95 953d 0a40 7c3d c26f 93bd
000001b0: 6261 b9bb eec2 95bd c81c ccbc 23a9 93bd
000001c0: 0071 a8bd bdd7 9fbb bcf0 443d 3280 11bd
000001d0: 30e3 403d e824 8dbd dea3 e43c a8f5 eb3b
000001e0: d8e6 81bd cdd4 b1bd 26b8 aa3a 2c7d 84bb
000001f0: e4b6 a23d e602 a2bd fc21 763d 780d 3d3d
00000200: 72af a73d 2717 4f3d 6f38 07bd f47b 9fbd
00000210: 700e d13a c5e8 72bd ba80 76bc 8964 a43d
00000220: fae2 a13d 7fcf 0cbd a9c4 25bc 6db0 283b
00000230: 2414 723d ffae 84bd 9100 1dbd 2d60 c8bb
00000240: 15c8 98bd 811b 58bd 74a6 a13c e257 b1bd
00000250: 7588 44bc f807 acbd fc1c 903d 15c3 a13d
00000260: 89f0 03bd 24ba 5ebd 82a0 713d 3f16 a93a
00000270: 3206 b03d b9b4 c3bc 8c3a 7c3d f272 e43b
00000280: 8bab acbc e886 eb3b ec2e 483d f5a9 40bd
00000290: 0726 373d bdc0 acbd a25c 783d d7ce 8dbc
000002a0: 4414 9bbd f3d9 cdbc 50b9 8e3c f379 36bb
000002b0: 9002 5d3d 1e2a 5fbd 859d 483b 7c84 a23b
000002c0: c26d b9bb d552 ad3d 1545 f7bb ac31 79bd
000002d0: fb36 85bd 1144 85bc cabc dcbb 06cc 633d
000002e0: 5ef3 a23d 3e4a 793d c0a7 bbbc 2c82 073c
000002f0: de7a 81bb d4bd 473d eb68 a0bc d47e 50bd
00000300: d82d c7bc b589 c63c b63b 2e3d e991 da3c
00000310: f879 af3d 6e56 88bd da88 973b d6d4 183d
00000320: f137 b1bd 4b28 763b 6fe1 a0bd 943d a5bd
00000330: e4e3 693d a9d6 97bd 5a54 debc b7df b8bc
00000340: 4b49 94bd 11ac 4f3d ce08 98bd 929f 983d
00000350: b90f 953d 6a7d acbd 99af 50bc 59bc 85bd
00000360: 5e0d a43d f006 743b a920 ac3c 0dd4 753d
00000370: d3c5 46bd 7dff bd3b 09fd 54bd bec4 263d
00000380: e171 803b 34e0 a8bd 0d45 943d 800b 48ba
00000390: d11f 643d 8450 8abd b652 133d 9e32 a23d
000003a0: 5197 983c fdfd ae3d abb7 ecbc 4240 933d
000003b0: eaa4 43bd c671 423d 5dcf 4d3d 57bb 9f3d
000003c0: e0db c83c 471a 6b3c 70a3 81bd 6533 18bd
000003d0: e4ce 5ebd 4fd0 573d 1f6c a7bd 0faf 5a39
000003e0: 9358 afbd 2295 9fbd 46f7 af3c 9ff0 a73c
000003f0: 28ab 08bc c6e2 543d cf9b 003d f5f1 64bc

actor.2.bias f4 [5]
0.06141665 0.05929679 -0.043816727 0.047111418 -0.061502546
00000000: 0690 7b3d 31e1 723d 2b79 33bd e7f7 403d
00000010: 18ea 7bbd

critic.0.weight f4 [128, 128]
-0.005659858 -0.077033155 0.04502963 -0.02240383 0.05847873 -0.06473505 -0.038164813 -0.010638749
0.06171584 -0.010315946 -0.07804324 -0.07238258 0.023922456 0.012585913 -0.059160877 -0.057261646
-0.07472566 0.03516258 0.012151526 0.022426117 0.08113252 -0.04613375 0.02805998 0.074550174
0.058503427 0.021278037 -0.08133248 0.04950988 -0.013263254 -0.03433158 -0.00501185 -0.024968825
-0.043004252 -0.062132157 -0.06630184 0.066753544 -0.029371949 -0.04707683 -0.0390684 -0.040490013
-0.08009934 -0.02859497 -0.06908204 -0.067594334 -0.074044965 -0.015624775 0.01216808 0.0641419
0.0068483045 -0.037795838 0.060302846 -0.011062737 -0.08223283 0.05191247 -0.052414503 -0.05917645
0.005900116 0.017509118 0.06885268 -0.086717226 -0.012690921 -0.03292631 -0.07851984 0.009868695
-0.02061082 -0.04079392 0.071915284 -0.07147648 0.04995702 0.03917716 0.049216032 -0.08707219
0.0109085 -0.02122393 0.049281593 0.009516821 -0.07550589 -0.05773896 -0.04124615 0.02165051
-0.033473544 -0.015816985 0.07445725 0.08532504 -0.076459184 0.013613727 -0.08056219 0.08124731
0.051264863 0.060075633 -0.024564026 0.030668924 -0.032670647 -0.0732249 0.075171515 -0.045750983
0.06549704 0.063433364 -0.04244948 0.0874081 -0.013775665 0.083114386 -0.009251897 0.020280737
-0.051105466 0.013326644 0.014581134 0.069036275 0.08576959 0.006538072 0.085498534 -0.024102202
0.070122585 0.05840081 0.049754985 -0.07741536 0.0809279 -0.060009997 -0.033452984 -0.060262196
0.00892783 0.053071342 0.07199376 -0.07224438 -0.047103558 0.010879271 0.06100477 -0.0025210874
0.04859821 0.023945205 -0.054572623 -0.0028746785 0.043753643 -0.015791139 -0.052597675 0.025940258
-0.0031283076 0.08393555 -0.08119331 0.059329845 -0.052898455 0.062015083 0.07196275 -0.032384776
0.06972379 -0.0695719 0.02458294 -0.021499222 0.02519369 0.0066804965 -0.006769121 0.019920718
-0.07125737 -0.027001336 -0.0122631835 0.036142502 -0.07107227 -0.08732814 -0.029898016 0.059500687
-0.08000474 0.036253486 -0.07822899 -0.044563822 0.03433787 0.04480622 -0.0861371 0.032509234
0.078456834 -0.0067400187 0.011424198 -0.07625394 -0.07706987 0.065518096 -0.058675252 0.008829438
0.0044964366 -0.07673261 0.084732406 0.0377154 0.061620925 -0.08686845 -0.01505871 -0.039854534
-0.051375363 0.012647257 0.055646136 0.05143047 0.00011348039 -0.010828347 -0.031371668 0.06473499
0.046584394 -0.0013087544 0.057905786 -0.037731163 -0.034018375 0.0014211917 -0.08334256 -0.06348907
-0.009997654 0.06778532 -0.08540159 -0.06965033 -0.05988002 0.061518993 -0.032162745 0.08095967
0.043308888 0.044077795 -0.052358977 0.078966945 0.004046614 0.053285837 0.03433062 -0.08786737
-0.07653016 -0.05728378 -0.053238824 0.06659035 0.03330384 -0.024497002 0.07841377 0.0013295223
0.034685455 -0.07186404 0.026548047 -0.07845519 0.07736891 0.06991661 0.021361645 -0.064138494
0.054864068 0.012970714 0.006765549 0.070428334 0.029491413 0.0053690025 -0.08662627 -0.04407492
0.084245816 0.043212626 -0.0444107 -0.06344353 0.059320856 -0.06796783 0.042178627 -0.05287443
0.0798504 -0.0060823695 0.07016794 -0.04441598 -0.007254516 -0.08432383 -0.013420167 0.015859269
00000000: 5576 b9bb 8fc3 9dbd fd70 383d 3d88 b7bc
00000010: 6587 6f3d cf93 84bd b552 1cbd 264e 2ebc
00000020: c0c9 7c3d 3704 29bc 22d5 9fbd 513d 94bd
00000030: 07f9 c33c 2535 4e3c ad52 72bd 308b 6abd
00000040: c409 99bd a306 103d 3217 473c fab6 b73c
00000050: cf28 a63d bef6 3cbd 0bde e53c c3ad 983d
00000060: 4aa1 6f3d 474f ae3c a591 a6bd dfca 4a3d
00000070: 1f4e 59bc 459f 0cbd 723a a4bb 6c8b ccbc
00000080: 3a25 30bd 4a7e 7ebd 42c9 87bd 15b6 883d
00000090: 719d f0bc a2d3 40bd 3006 20bd dbd8 25bd
000000a0: 1f0b a4bd 0040 eabc e27a 8dbd e66e 8abd
000000b0: e3a4 97bd 0eff 7fbc a05c 473c d45c 833d
000000c0: be67 e03b cfcf 1abd 1e00 773d 7b40 35bc
000000d0: b069 a8bd 2ca2 543d 97b0 56bd 0163 72bd
000000e0: c355 c13b 486f 8f3c a202 8d3d cd98 b1bd
000000f0: 95ed 4fbc bddd 06bd 03cf a0bd 4fb0 213c
00000100: 06d8 a8bc 8717 27bd 5248 933d 4362 92bd
00000110: bb9f 4c3d 3b78 203d c096 493d e852 b2bd
00000120: 91b9 323c cfdd adbc 7fdb 493d 71ec 1b3c
00000130: d5a2 9abd b07f 6cbd b9f1 28bd 695c b13c
00000140: 8e1b 09bd 9f92 81bc 0b7d 983d e5be ae3d
00000150: a296 9cbd 1c0c 5f3c cafd a4bd fd64 a63d
00000160: 1bfb 513d de11 763d 7f3a c9bc 653d fb3c
00000170: a8d1 05bd f0f6 95bd 86f3 993d 6265 3bbd
00000180: 5023 863d 5ae9 813d 82df 2dbd 0503 b33d
00000190: 54b3 61bc e037 aa3d 4595 17bc ca23 a63c
000001a0: f753 51bd ff57 5a3c b5e5 6e3c e462 8d3d
000001b0: f8a7 af3d 533d d63b db19 af3d fb71 c5bc
000001c0: 6e9c 8f3d b035 6f3d e2cb 4b3d f28b 9ebd
000001d0: 87bd a53d 0bcd 75bd ff05 09bd 7ed5 76bd
000001e0: 0846 123c 5661 593d 7771 933d ddf4 93bd
000001f0: a9ef 40bd f83e 323c 23e0 793d d438 25bb
00000200: eb0e 473d bc28 c43c 8b87 5fbd 1a65 3cbb
00000210: 0537 333d 6b5c 81bc a970 57bd aa80 d43c
00000220: 4b04 4dbb 67e6 ab3d ae48 a6bd da03 733d
00000230: 0dac 58bd 8703 7e3d 3561 933d e6a5 04bd
00000240: 59cb 8e3d b67b 8ebd 2962 c93c 231f b0bc
00000250: ff62 ce3c 11e8 da3b 81cf ddbb c630 a33c
00000260: 62ef 91bd e831 ddbc 85eb 48bc 290a 143d
00000270: 578e 91bd 19d9 b2bd afec f4bc feb6 733d
00000280: 86d9 a3bd 897e 143d 8536 a0bd 8e88 36bd
00000290: dea5 0c3d ba86 373d a668 b0bd 6728 053d
000002a0: faad a03d 60db dcbb 8f2c 3b3c 072b 9cbd
000002b0: cfd6 9dbd 5a2e 863d 7655 70bd 59a9 103c
000002c0: d856 933b fd25 9dbd 2f88 ad3d 777b 1a3d
000002d0: 3966 7c3d 16e8 b1bd cfb8 76bc 823e 23bd
000002e0: f96e 52bd 7136 4f3c 34ed 633d c2a8 523d
000002f0: 52fc ed38 6169 31bc 947f 00bd c793 843d
00000300: 47cf 3e3d 838a abba 9e2e 6d3d fe8b 1abd
00000310: da56 0bbd 4847 ba3a 81af aabd 8f06 82bd
00000320: 33cd 23bc 08d3 8a3d 07e7 aebd d5a4 8ebd
00000330: c044 75bd 57fb 7b3d 15bd 03bd 2fce a53d
00000340: a964 313d eb8a 343d 5e76 56bd 6cb9 a13d
00000350: 7599 843b 4042 5a3d 449e 0c3d cff3 b3bd
00000360: d8bb 9cbd 66a2 6abd f410 5abd 8560 883d
00000370: 9b69 083d f0ad c8bc 6697 a03d 5e43 ae3a
00000380: 5612 0e3d 742d 93bd 4a7b d93c 1dad a0bd
00000390: 9773 9e3d 7130 8f3d 9efe ae3c 0b5b 83bd
000003a0: 25b9 603d 1e83 543c 8ab1 dd3b bb3c 903d
000003b0: fa97 f13c 75ee af3b 1d69 b1bd e787 34bd
000003c0: 1289 ac3d b9ff 303d ffe7 35bd aeee 81bd
000003d0: 6dfa 723d b832 8bbd 7fc3 2c3d dc92 58bd
000003e0: 9b88 a33d 9d4e c7bb 35b4 8f3d 88ed 35bd
000003f0: 4ab7 edbb f9b1 acbd 43e0 5bbc 4ceb 813c

critic.0.bias f4 [128]
0.014348894 0.079202406 -0.06974224 -0.06645596 -0.07393292 -0.055630013 0.08686784 -0.040407784
0.0027207688 0.030502917 -0.029985365 0.013004947 0.07164742 -0.053603657 -0.03444881 -0.014422504
0.020924835 -0.005035969 -0.059574634 -0.08829033 -0.08783403 -0.0730372 -0.00033068415 -0.0869446
-0.06958627 0.013878335 0.019736147 -0.06867765 0.06189134 -0.02477576 0.04269147 0.037978157
-0.009384228 -0.08579122 0.05740602 0.025347704 -0.008622307 -0.08827311 0.019173034 -0.023593964
-0.019775396 0.07256769 -0.019201629 0.009240676 0.011950233 0.07981649 -0.084615245 0.06453834
-0.045467988 0.06278353 0.07349488 -0.020346548 -0.009965296 0.025413759 -0.07798833 -0.048337787
0.0033609583 -0.044838388 0.06017497 0.030185089 0.072017975 0.08298695 0.027502967 0.07644317
0.042571075 -0.04024929 0.04119197 -0.04886216 -0.048805807 -0.07343812 -0.06347531 -0.004037963
-0.06300896 0.03975535 0.07883299 0.048174616 0.03199456 -0.043366473 -0.080593094 0.00045891595
-0.06516787 -0.0702565 0.019109791 0.04970286 -0.03405617 0.08695286 0.06228128 -0.036218166
0.040910903 0.059355807 -0.06828222 0.061959784 0.02893283 -0.025402326 0.03834299 0.049158894
-0.08720065 0.021485304 0.020490006 0.045087274 0.0024986863 0.044890564 0.07520903 -0.07985602
-0.0036637096 0.032184746 -0.02605141 0.04398388 0.0267719 -0.01236912 -0.026301624 0.0068905037
-0.011330369 -0.05690305 -0.07177161 -0.08049754 -0.07005173 -0.011619643 0.04847627 0.036411315
-0.071048595 -0.06984717 0.08522322 -0.08011608 -0.032408755 0.016016066 0.029399259 -0.0067010117
00000000: a017 6b3c df34 a23d 05d5 8ebd 101a 88bd
00000010: 256a 97bd 4cdc 63bd c4e7 b13d a282 25bd
00000020: ed4e 323b 41e1 f93c dea3 f5bc b412 553c
00000030: e2bb 923d 828f 5bbd 321a 0dbd 5e4c 6cbc
00000040: 8f6a ab3c c504 a5bb 8804 74bd 8fd1 b4bd
00000050: 54e2 b3bd 8794 95bd ad5f adb9 0310 b2bd
00000060: 3f83 8ebd f561 633c b3ad a13c dea6 8cbd
00000070: c681 7d3d 89f6 cabc 40dd 2e3d fc8e 1b3d
00000080: 4ec0 19bc 4fb3 afbd 9322 6b3d fda5 cf3c
00000090: 9444 0dbc 88c8 b4bd c410 9d3c 2148 c1bc
000000a0: 0300 a2bc 5e9e 943d bc4c 9dbc 3466 173c
000000b0: e9ca 433c d476 a33d c24a adbd ad2c 843d
000000c0: a43c 3abd a794 803d 7c84 963d cead a6bc
000000d0: 7b45 23bc 8430 d03c 58b8 9fbd d8fd 45bd
000000e0: 8643 5c3b 75a8 37bd 087a 763d b846 f73c
000000f0: 297e 933d 10f5 a93d e74d e13c 3d8e 9c3d
00000100: 025f 2e3d 71dc 24bd e9b8 283d b023 48bd
00000110: 99e8 47bd ba66 96bd 58ff 81bd e450 84bb
00000120: d70a 81bd 82d6 223d 3173 a13d bf52 453d
00000130: ba0c 033d 0ba1 31bd fe0d a5bd a89a f039
00000140: bb76 85bd a4e2 8fbd 238c 9c3c 3a95 4b3d
00000150: 7c7e 0bbd 5714 b23d a81a 7f3d 8059 14bd
00000160: 3192 273d 131f 733d 8cd7 8bbd 8bc9 7d3d
00000170: 8b04 ed3c 8a18 d0bc 8a0d 1d3d d65a 493d
00000180: 4196 b2bd f301 b03c a8da a73c 6fad 383d
00000190: 00c1 233b 2bdf 373d 3107 9a3d 8e8b a3bd
000001a0: d91a 70bb 27d4 033d c469 d5bc 7128 343d
000001b0: be50 db3c d9a7 4abc 8176 d7bc bcc9 e13b
000001c0: 03a3 39bc 2c13 69bd fefc 92bd e5db a4bd
000001d0: 4877 8fbd 5160 3ebc 0e8f 463d 0824 153d
000001e0: ed81 91bd 080c 8fbd 8389 ae3d e613 a4bd
000001f0: 0bbf 04bd 2034 833c b7d6 f03c 2994 dbbb

critic.2.weight f4 [1, 128]
-0.038861953 -0.02778335 0.05178304 -0.025162796 -0.013254394 -0.04266024 -0.08475415 -0.030414788
-0.052356258 0.079031885 0.010576025 0.07292079 0.08068304 0.00014795651 0.053323444 0.023169566
-0.043339573 0.06444365 -0.008213568 0.058908682 -0.0636416 0.08518603 0.05874357 0.08702014
0.005542479 -0.028051108 -0.028609386 0.06807178 -0.023208804 -0.082339264 -0.0024790145 -0.016990911
0.07562603 -0.05028984 0.051163144 0.079280265 0.06986097 0.0500148 -0.020442022 0.008900866
0.005365631 -0.042344093 0.014908362 -0.032788824 -0.023168817 -0.013199814 -0.05444316 0.027923256
-0.0510327 0.06486683 0.025364975 -0.069556504 -0.0063691577 -0.08745501 0.07831907 0.03259375
-0.004503022 0.08471571 0.054673303 -0.063487776 0.05948019 -0.013780702 -0.041995667 0.07158601
0.0061620693 0.0501424 0.028551929 -0.06770052 -0.03545671 -0.037303627 0.0048399544 0.08284609
-0.06457939 0.07389982 -0.019044718 -0.031041764 0.01642998 -4.780506e-05 -0.01020469 0.08020401
0.032749753 0.032150228 0.026058406 0.00025313397 0.087989144 0.032831162 0.020090759 0.07765387
0.06951141 0.041099425 -0.006144178 0.06014134 0.079078846 0.0039358623 -0.022620192 0.02160064
0.045744535 -0.016578874 -0.015198122 -0.00547889 0.08511474 -0.08255281 0.0049321717 -0.009878168
-0.023562869 0.06533299 -0.024645517 -0.061922632 -0.02288596 -0.0464137 0.030816605 0.0016659173
0.0077887373 -0.038058013 -0.016051311 0.006017021 0.047288258 -0.0071863327 0.016084418 -0.0810365
-0.05695648 0.03149303 0.08065284 -0.019738307 -0.03227124 0.011224833 0.087318935 0.024316128
00000000: b62d 1fbd e899 e3bc 741a 543d 3522 cebc
00000010: f528 59bc 81bc 2ebd 9593 adbd 6f28 f9bc
00000020: 8473 56bd 78db a13d 1047 2d3c 7f57 953d
00000030: 263d a53d c624 1b39 af69 5a3d 1ace bd3c
00000040: d684 31bd 08fb 833d 3392 06bc 3b4a 713d
00000050: 8756 82bd 0376 ae3d 199d 703d 9d37 b23d
00000060: af9d b53b 70cb e5bc 3b5e eabc 3869 8b3d
00000070: 6420 bebc 7da1 a8bd f676 22bb 8630 8bbc
00000080: d2e1 9a3d b8fc 4dbd 7290 513d b15d a23d
00000090: 4513 8f3d 52dc 4c3d 0776 a7bc f0d4 113c
000000a0: 2dd2 af3b 0071 2dbd 3442 743c 934d 06bd
000000b0: 88cc bdbc 0844 58bc caff 5ebd 50bf e43c
000000c0: aa07 51bd e7d8 843d 35ca cf3c a473 8ebd
000000d0: 5eb4 d0bb 9d1b b3bd c065 a03d 0681 053d
000000e0: 168e 93bb 6e7f ad3d 1df1 5f3d e105 82bd
000000f0: 80a1 733d 74c8 61bc a603 2cbd b09b 923d
00000100: 2feb c93b 1e62 4d3d bce5 e93c 92a6 8abd
00000110: 0e3b 11bd b0cb 18bd 7b98 9e3b 36ab a93d
00000120: 3342 84bd ca58 973d ab03 9cbc 4c4b febc
00000130: 2a98 863c 4b82 48b8 9231 27bc 0042 a43d
00000140: 9b24 063d f5af 033d 7078 d53c 11b7 8439
00000150: a733 b43d f879 063d 6095 a43c fe08 9f3d
00000160: 005c 8e3d df57 283d 1a55 c9bb c456 763d
00000170: 17f4 a13d 68f8 803b fb4d b9bc d3f3 b03c
00000180: 9f5e 3b3d 6bd0 87bc 8b01 79bc 4388 b3bb
00000190: a350 ae3d 7311 a9bd 0e9e a13b 0ad8 21bc
000001a0: eb06 c1bc 4dcd 853d 65e5 c9bc 96a2 7dbd
000001b0: 567b bbbc 4b1c 3ebd 1b73 fc3c e95a da3a
000001c0: aa38 ff3b b8e2 1bbd 0a7e 83bc 6e2a c53b
000001d0: 55b1 413d 547b ebbb 78c3 833c 77f6 a5bd
000001e0: 334b 69bd d6fe 003d 512d a53d 3bb2 a1bc
000001f0: d92e 04bd 5de8 373c 45d4 b23d 9e32 c73c
