models/frl-model/final_frl_agent2.pt (torch, 216578 bytes, 11 tensors)

embedding.0.weight f4 [128, 20]
0.024978198 -0.20283054 0.071004994 0.16884446 -0.13873887 0.114183724 -0.057846975 0.092147335
0.18520823 -0.153531 -0.13685554 -0.19703414 0.18478487 0.17377809 0.14036392 0.08291615
0.12817197 -0.20091368 0.004687299 0.18653722 0.17734373 0.18347716 0.10527513 -0.11489027
0.097901866 -0.01405366 0.067897886 -0.09083679 0.13439153 -0.14861359 0.13590741 0.13604419
0.091040604 -0.09788171 0.09183701 -0.17644021 -0.055887625 -0.16373548 0.039444335 -0.16937795
-0.17166951 0.085810296 0.21189582 0.09543789 -0.12853591 0.025618475 0.09382664 -0.112348616
-0.17367963 -0.045543175 0.11109952 -0.21520837 -0.048774734 0.20968421 -0.022276666 0.02811641
0.16780908 -0.20696156 0.19411282 -0.17694138 -0.034363512 -0.03310348 0.10260619 -0.22356871
0.007785233 -0.16549496 -0.0013063842 -0.060510654 0.05620928 0.20923567 0.19838214 0.00019466881
-0.14887369 -0.21869183 0.15456472 -0.029469281 0.08347065 0.027350983 -0.025626259 0.1834126
-0.050403763 0.12572807 -0.04425982 -0.042788196 0.14406528 0.18268996 0.2171099 -0.09114334
-0.20916715 0.034344878 -0.17421593 -0.050928835 0.061465155 -0.007626577 -0.2081466 -0.05812361
-0.10006215 -0.031071149 0.06853979 -0.08422557 -0.1278787 0.034256596 -0.19743735 0.080124035
0.07852159 -0.054396193 -0.08083154 -0.08631778 -0.16768345 -0.13940257 -0.055975243 -0.0024965217
0.08742365 0.15337563 0.06674766 0.13408224 -0.04736002 -0.050755195 0.09341062 0.083567224
0.09994907 0.13122877 -0.16216573 0.14941944 -0.18609315 0.037466377 -0.1631269 -0.10007947
0.13719112 -0.1007938 -0.010704359 -0.18302892 -0.19330728 -0.014284154 -0.112347394 -0.21198794
-0.0141111305 -0.11673052 -0.023324193 -0.109592125 -0.14029217 0.1459505 0.17383848 -0.21263719
0.21707618 0.027528005 0.19791432 0.18816712 -0.08672777 0.010233161 0.16954447 0.14650565
-0.025438175 -0.2186231 -0.08315419 0.012659124 -0.046287596 -0.15335073 0.2089543 0.099779114
-0.21883239 0.048214372 -0.15950778 0.13200931 0.14147292 0.022546638 -0.08539041 0.19800594
-0.1950179 0.22337894 0.20419939 0.12486761 0.16824728 0.14656755 -0.2019127 -0.032678317
0.21316761 -0.2182685 -0.08491732 -0.22043215 0.21764344 0.13911423 -0.015490525 -0.08535432
0.15887764 -0.1468367 0.07791935 0.18129975 -0.08737996 0.028823834 0.029111905 -0.2186334
-0.11394337 -0.06687017 0.18566664 0.008635214 -0.14885189 0.15334849 -0.15411818 0.05261003
-0.07397506 -0.123631604 0.14458576 0.022377692 -0.098362 -0.17694959 -0.19843388 -0.14156109
-0.2047614 -0.052768447 -0.12224162 -0.21964625 0.18361226 -0.051610935 0.18183115 -0.0740538
0.162016 0.051586624 -0.17015782 -0.076666966 0.20133935 -0.054365166 -0.0089402115 -0.2224897
-0.0040503535 -0.0708736 -0.11870232 -0.18765056 -0.18473057 -0.01526155 -0.19585246 0.19856012
-0.016052887 -0.21355566 0.12569936 -0.20729028 0.06570961 -0.084755816 0.21885955 0.12620188
-0.06172113 0.044543948 -0.12057901 0.1720862 0.21506584 -0.060065635 0.05204652 -0.21162182
0.017367322 -0.19254375 0.0815033 -0.01161181 0.21209303 -0.089576446 0.14531933 -0.15046509
00000000: 149f cc3c cfb2 4fbe 116b 913d 90e5 2c3e
00000010: 9011 0ebe 28d9 e93d f3f0 6cbd beb7 bc3d
00000020: 3aa7 3d3e 3b37 1dbe dc23 0cbe 51c3 49be
00000030: 3f38 3d3e e2f2 313e 8fbb 0f3e f1cf a93d
00000040: 833f 033e 51bc 4dbe ea97 993b 9d03 3f3e
00000050: 9899 353e 70e1 3b3e 7d9a d73d 974b ebbd
00000060: c680 c83d 5341 66bc 0c0e 8b3d a408 babd
00000070: ef9d 093e 292e 18be 502b 0b3e 2b4f 0b3e
00000080: 7f73 ba3d 3576 c8bd 0b15 bc3d beac 34be
00000090: 6cea 64bd 46aa 27be 6290 213d 6a71 2dbe
000000a0: 22ca 2fbe 4fbd af3d 38fb 583e f174 c33d
000000b0: eb9e 03be d6dd d13c 2e28 c03d 0817 e6bd
000000c0: 13d9 31be 7b8b 3abd 2588 e33d 955f 5cbe
000000d0: 04c8 47bd 75b7 563e 8e7d b6bc 6354 e63c
000000e0: 25d6 2b3e bbed 53be 83c5 463e 1f30 35be
000000f0: c1c0 0cbd 8497 07bd 3223 d23d 32ef 64be
00000100: 451b ff3b 8377 29be fb3a abba 05da 77bd
00000110: b43b 663d e041 563e b024 4b3e 0320 4c39
00000120: 5872 18be c0f0 5fbe 3746 1e3e 9069 f1bc
00000130: a9f2 aa3d 2b0f e03c 29ee d1bc 83d0 3b3e
00000140: 2d74 4ebd dcbe 003e c949 35bd ad42 2fbd
00000150: d985 133e 1413 3b3e 0f52 5e3e 5ca9 babd
00000160: ea2f 56be 37ad 0c3d a965 32be c19a 50bd
00000170: e3c2 7b3d 5de8 f9bb 6224 55be 0613 6ebd
00000180: 62ed ccbd ec88 febc 975e 8c3d 757e acbd
00000190: a2f2 02be a550 0c3d 042d 4abe 1218 a43d
000001a0: edcf a03d 8bce 5ebd 028b a5bd 60c7 b0bd
000001b0: 36b5 2bbe 8cbf 0ebe 4c46 65bd af9c 23bb
000001c0: 2c0b b33d 800e 1d3e ffb2 883d db4c 093e
000001d0: 95fc 41bd aee4 4fbd 114e bf3d 4b25 ab3d
000001e0: 19b2 cc3d d660 063e c60e 26be 6901 193e
000001f0: 348f 3ebe 5876 193d bd0a 27be 77f6 ccbd
00000200: d47b 0c3e fb6c cebd 5661 2fbc ef6b 3bbe
00000210: 58f2 45be 1608 6abc 6416 e6bd 5e13 59be
00000220: 5f32 67bc 6910 efbd 6112 bfbc d671 e0bd
00000230: c0a8 0fbe 0c74 153e b702 323e 90bd 59be
00000240: 3849 5e3e 6982 e13c 0daa 4a3e e2ae 403e
00000250: 549e b1bd fda8 273c 119d 2d3e 9405 163e
00000260: b863 d0bc bcde 5fbe be4c aabd 3768 4f3c
00000270: 1098 3dbd f907 1dbe 1ef8 553e fe58 cc3d
00000280: 9915 60be 6f7c 453d 0256 23be 732d 073e
00000290: 47de 103e bab3 b83c 2be1 aebd 12c2 4a3e
000002a0: c6b2 47be 73bd 643e a519 513e 97ba ff3d
000002b0: 0449 2c3e ce15 163e 34c2 4ebe b3d9 05bd
000002c0: 9c48 5a3e c781 5fbe 22e9 adbd f7b8 61be
000002d0: ecdd 5e3e f673 0e3e f9cb 7dbc 3fce aebd
000002e0: d2b0 223e 5c5c 16be 2e94 9f3d a4a6 393e
000002f0: 44f4 b2bd f61f ec3c 177c ee3c 6fe1 5fbe
00000300: 245b e9bd 3af3 88bd 651f 3e3e b67a 0d3c
00000310: a16c 18be 6307 1d3e 28d1 1dbe 9d7d 573d
00000320: 3c80 97bd 9132 fdbd 4a0e 143e 6c51 b73c
00000330: 0472 c9bd 4632 35be 4032 4bbe 64f5 10be
00000340: f9ac 51be ba23 58bd d159 fabd f2ea 60be
00000350: da04 3c3e fd65 53bd f231 3a3e 85a9 97bd
00000360: 86e7 253e 7f4c 533d da3d 2ebe 9203 9dbd
00000370: e72b 4e3e 02ae 5ebd f779 12bc 57d4 63be
00000380: d4b8 84bb 2e26 91bd 341a f3bd 7827 40be
00000390: 032a 3dbe 950b 7abc 8c8d 48be 5853 4b3e
000003a0: 5881 83bc 56ae 5abe 55b7 003e e743 54be
000003b0: c392 863d 7594 adbd b81c 603e 113b 013e
000003c0: 4ccf 7cbd b773 363d 21f2 f6bd 5d37 303e
000003d0: 383a 5c3e 6207 76bd bb2e 553d 64b3 58be
000003e0: ea45 8e3c 302a 45be 34eb a63d 763f 3ebc
000003f0: ea2e 593e db73 b7bd 97ce 143e 8513 1abe

embedding.0.bias f4 [128]
0.074479096 0.07922986 -0.15955348 0.04457508 0.06033798 0.22131048 -0.19277504 -0.0020095964
0.21764635 0.014341624 -0.11175457 0.032983076 -0.04800371 0.11416536 -0.20553315 -0.12302411
0.10624458 -0.12375294 0.029769348 0.0002826603 0.042174894 -0.21372856 -0.00885166 -0.16419034
0.07687912 0.01920568 0.1668455 -0.11070898 -0.11024895 0.20453824 -0.1955055 -0.17658365
-0.030581104 0.16813804 0.08485575 0.009047848 0.070142455 -0.054403473 0.124143556 0.1144296
-0.011989312 0.15159999 0.1785486 0.052042015 0.18035156 0.064218156 -0.12792177 -0.22247034
0.10174363 -0.012101774 -0.054003578 0.18574081 -0.048503164 0.078564286 0.01857721 -0.10479015
-0.06463138 -0.048484318 -0.020379957 0.10351724 0.09932671 -0.21526016 -0.0703069 -0.21990599
-0.00076686667 -0.06588648 0.11037616 0.1843808 0.05141965 -0.17886877 0.08072598 -0.039001975
-0.04582466 0.2165175 -0.13272695 -0.19507167 0.22252147 -0.14318776 -0.07892361 -0.17945376
0.16943888 -0.14079921 -0.17713112 0.16930947 -0.0320881 0.047931794 -0.024290286 0.19511712
-0.20886932 0.056562766 -0.075116575 0.12910669 0.13013047 0.0076660276 0.06620336 -0.1957361
-0.19511347 0.007679622 0.0148773575 0.024176972 0.094177514 -0.11580769 0.22068234 0.08038164
-0.108707674 -0.0055232844 0.06821984 -0.0759838 -0.11155731 0.12573972 0.17531574 0.13400194
0.04094696 -0.15181166 -0.09366753 0.1795531 -0.12257754 -0.0709867 -0.18220568 0.1803699
0.0014260431 0.19289902 -0.07412817 0.060869284 -0.21931459 0.16577269 -0.08961427 -0.14436156
00000000: 7f88 983d 4443 a23d fd61 23be 5c94 363d
00000010: f524 773d 379f 623e d266 45be 6fb3 03bb
00000020: afde 5e3e 22f9 6a3c 94df e4bd 4319 073d
00000030: 8a9f 44bd 87cf e93d 4877 52be 11f4 fbbd
00000040: c296 d93d 2e72 fdbd d9de f33c 0632 9439
00000050: 95bf 2c3d a9db 5abe 8e06 11bc 8321 28be
00000060: cd72 9d3d 3b55 9d3c 8cd9 2a3e 64bb e2bd
00000070: 34ca e1bd 7972 513e 9832 48be 58d2 34be
00000080: 3985 fabc 612c 2c3e dac8 ad3d 6d3d 143c
00000090: d9a6 8f3d 2dd6 5ebd fa3e fe3d 115a ea3d
000000a0: d26e 44bc 073d 1b3e 72d5 363e 022a 553d
000000b0: 14ae 383e cf84 833d edfd 02be 44cf 63be
000000c0: f75e d03d 8546 46bc db32 5dbd d732 3e3e
000000d0: 41ab 46bd 50e6 a03d 3c2f 983c 389c d6bd
000000e0: 755d 84bd 7e97 46bd def3 a6bc d900 d43d
000000f0: cd6b cb3d 296d 5cbe 10fd 8fbd 092f 61be
00000100: 8d07 49ba 7eef 86bd e50c e23d 52ce 3c3e
00000110: 699d 523d 6029 37be aa53 a53d 89c0 1fbd
00000120: a4b2 3bbd c3b6 5d3e 93e9 07be dec0 47be
00000130: abdc 633e d09f 12be b4a2 a1bd bac2 37be
00000140: 6381 2d3e ab2d 10be dc61 35be 765f 2d3e
00000150: d06e 03bd 2154 443d 6cfc c6bc c8cc 473e
00000160: d7e1 55be 5cae 673d b8d6 99bd 8b34 043e
00000170: ec40 053e 4d33 fb3b a195 873d 0b6f 48be
00000180: d3cb 47be 57a5 fb3b 29c0 733c c90e c63c
00000190: 24e0 c03d 952c edbd 8dfa 613e 219f a43d
000001a0: 21a2 debd abfc b4bb d8b6 8b3d 659d 9bbd
000001b0: 2978 e4bd eac1 003e f885 333e ce37 093e
000001c0: 00b8 273d 8474 1bbe c3d4 bfbd c5dc 373e
000001d0: ef09 fbbd 7a61 91bd 2094 3abe e3b2 383e
000001e0: 11ea ba3a 5287 453e 83d0 97bd 1252 793d
000001f0: 0194 60be 51c0 293e b087 b7bd 84d3 13be

embedding.2.weight f4 [128, 128]
0.024993807 0.0070468686 -0.06919104 -0.08664723 0.038854968 -0.0772262 -0.0011816922 -0.08714619
0.056986026 0.071375996 0.04858756 0.05902709 -0.08087055 -0.039299324 0.027713764 -0.017917741
0.07597747 0.037192255 0.017487971 0.06884908 -0.07371182 0.023072196 -0.010097489 0.023447629
0.0044028494 -0.07223336 0.06578178 0.011951086 -0.0049411277 0.028126067 0.0040926063 0.04670192
0.06431691 0.031094817 -0.057689223 -0.008704958 0.060915925 0.062836975 0.030746441 0.027127208
-0.0049261656 0.07157655 0.069555216 -0.049680438 0.06880142 -0.035395976 0.0053147175 0.05807664
0.05145777 -0.0039478107 0.08585357 -0.08577272 -0.051098384 -0.023255598 0.01112189 -0.07779152
-0.060605332 -0.02352048 -0.053062618 -0.03335629 0.07519296 0.083612844 0.032259997 -0.06243183
0.08638702 0.0138545325 -0.057521533 0.012123224 -0.017112473 -0.08300389 -0.08814796 0.014730071
-0.08525038 -0.011260879 -0.025703045 0.045220576 0.0070198313 -0.040451806 -0.0072751045 0.011992717
-0.0053327773 0.062456045 -0.008089371 -0.083100185 -0.06393188 0.049261257 0.07738833 -0.054778963
0.023418885 -0.03185817 0.031058908 0.0028315834 -0.056967493 -0.07603867 -0.026387183 -0.046080507
-0.050650638 0.019888623 0.005105111 -0.03227264 -0.08212686 0.0068163252 -0.030775396 -0.027369488
0.08004109 -0.0005996232 0.034902394 0.05909139 0.0144713735 0.05863308 -0.07513451 -0.009682217
0.055953577 0.028210677 -0.005041237 -0.07417351 -0.07351087 -0.021177938 0.016061215 -0.083572045
0.03469965 -0.010765464 0.009718832 0.031966686 -0.072508186 -0.07771013 -0.080800176 0.050369043
-0.009992153 0.03464159 0.025218472 -0.0016202301 -0.00031315107 0.08217154 -0.015881786 -0.033031255
-0.0533813 0.027000546 -0.075310804 0.073051825 -0.031147406 0.026257718 -0.05040192 0.03277107
0.04439138 -0.06807109 -0.06167869 -0.087643296 0.057355803 0.08423523 -0.05513798 -0.0032659383
-0.07122675 0.0033887436 0.04084156 0.027154729 -0.07494138 0.06602292 -0.016146373 0.07429614
0.0017443632 0.057859816 0.02441156 0.051201582 0.025256561 -0.06626814 -0.06763499 -0.02383988
0.06833002 0.038899813 0.005367875 -0.019940084 -0.011211947 -0.055402927 -0.050401803 0.06567686
-0.0073964135 -0.02722191 -0.05007232 0.013888946 -0.080465905 0.06251449 -0.071363054 0.042246938
0.026488492 0.01530312 0.08159171 0.05262487 -0.05724859 -0.05887394 -0.07219231 0.078856096
0.054946814 -0.045457978 -0.02301985 -0.025326915 -0.056162592 -0.008672009 -0.052116558 0.030512242
-0.014656988 0.034164384 0.017400242 -0.01081565 0.0017545627 -0.008831166 0.048693307 0.084110655
0.0019899001 -0.05015399 -0.05127463 0.029493427 -0.023070911 0.0043376694 -0.073243305 0.052282616
-0.07070843 -0.080520794 -0.025994679 0.05900235 0.045191083 -0.061200965 0.045756977 -0.08716985
-0.028026937 0.052513022 -0.041653898 0.065750234 0.06423439 0.049292192 0.07228246 -0.04034995
-0.047656454 0.043992836 -0.088333316 -0.08673717 -0.057856694 0.06282761 0.033846438 -0.041413892
-0.08394313 -0.06936595 0.051824532 -0.021812301 0.042156447 -0.025378145 0.04335134 0.014327642
-0.016511302 -0.07979996 -0.06836459 -0.07536687 -0.010932524 -0.012470283 -0.017917447 0.040775463
00000000: d0bf cc3c 6be9 e63b 08b4 8dbd 1a74 b1bd
00000010: 6326 1f3d c528 9ebd 03e3 9aba b479 b2bd
00000020: 2e6a 693d 942d 923d c003 473d 64c6 713d
00000030: 759f a5bd 54f8 20bd fa07 e33c 3ac8 92bc
00000040: 139a 9b3d e856 183d ef42 8f3c bf00 8d3d
00000050: 39f6 96bd e701 bd3c f06f 25bc 3e15 c03c
00000060: c745 903b 15ef 93bd 99b8 863d 7dce 433c
00000070: 2fe9 a1bb a368 e63c 451b 863b 834a 3f3d
00000080: 96b8 833d 8fba fe3c 894b 6cbd 3d9f 0ebc
00000090: fa82 793d acb0 803d f6df fb3c e139 de3c
000000a0: ac6b a1bb ba96 923d f772 8e3d b77d 4bbd
000000b0: c2e7 8c3d 5ffb 10bd 1527 ae3b c5e1 6d3d
000000c0: 62c5 523d a35c 81bb ffd3 af3d 9ca9 afbd
000000d0: 8a4c 51bd 8682 bebc 9638 363c 2951 9fbd
000000e0: 4c3d 78bd 06ae c0bc 3058 59bd 9ba0 08bd
000000f0: c4fe 993d 363d ab3d 0f23 043d 85b8 7fbd
00000100: aeeb b03d 1ffe 623c b39b 6bbd 7da0 463c
00000110: 752f 8cbc f2fd a9bd eb86 b4bd 6556 713c
00000120: c097 aebd 8d7f 38bc 318f d2bc 3639 393d
00000130: 9d06 e63b cbb0 25bd 0064 eebb 1a7d 443c
00000140: 94be aebb e9d1 7f3d 4889 04bc 6e30 aabd
00000150: b8ee 82bd 2cc6 493d c67d 9e3d e85f 60bd
00000160: f6d8 bf3c b67d 02bd 406f fe3c 1692 393b
00000170: bf56 69bd 2aba 9bbd ef29 d8bc eabe 3cbd
00000180: 0b77 4fbd 77ed a23c c648 a73b 5130 04bd
00000190: 2132 a8bd 7b5b df3b af1c fcbc fa35 e0bc
000001a0: 95ec a33d 0830 1dba d0f5 0e3d d009 723d
000001b0: 5719 6d3c 3e29 703d 1fe0 99bd 29a2 1ebc
000001c0: 942f 653d 141a e73c f630 a5bb 48e8 97bd
000001d0: de8c 96bd 5b7d adbc cf92 833c d227 abbd
000001e0: 3821 0e3d a161 30bc bc3b 1f3c 80ef 023d
000001f0: 2c7f 94bd 7d26 9fbd 907a a5bd c54f 4e3d
00000200: 21b6 23bc 57e4 0d3d f896 ce3c e75d d4ba
00000210: 6d2e a4b9 8d49 a83d 851a 82bc c84b 07bd
00000220: 5aa6 5abd 4030 dd3c 8d3c 9abd 329c 953d
00000230: d828 ffbc 6d1a d73c 3e72 4ebd f53a 063d
00000240: bcd3 353d db68 8bbd cba2 7cbd 547e b3bd
00000250: ebed 6a3d 8583 ac3d 5dd8 61bd 5a09 56bb
00000260: 55df 91bd af15 5e3b 7b49 273d 9873 de3c
00000270: de7a 99bd 0637 873d 6645 84bc 9328 983d
00000280: 1ea3 e43a 6afe 6c3d c0fa c73c c0b8 513d
00000290: d9e6 ce3c 97b7 87bd 3784 8abd da4b c3bc
000002a0: 9cf0 8b3d 6955 1f3d 00e5 af3b 6359 a3bc
000002b0: 50b2 37bc 2eee 62bd 1f72 4ebd 9781 863d
000002c0: 9d5d f2bb 7c00 dfbc a218 4dbd 768e 633c
000002d0: 4fcb a4bd 9907 803d cb26 92bd 200b 2d3d
000002e0: 65fe d83c f0b9 7a3c 8e19 a73d 2d8d 573d
000002f0: 7f7d 6abd cd25 71bd 90d9 93bd 4e7f a13d
00000300: e90f 613d 2532 3abd 2094 bcbc 647a cfbc
00000310: bf0a 66bd 0b15 0ebc 2c78 55bd cff4 f93c
00000320: dd23 70bc f4ef 0b3d f48a 8e3c 2034 31bc
00000330: 5bf9 e53a 98b0 10bc a272 473d 3542 ac3d
00000340: fc68 023b 456e 4dbd 5905 52bd 339c f13c
00000350: 35ff bcbc 0223 8e3b 9600 96bd 4c26 563d
00000360: 95cf 90bd 16e8 a4bd cbf2 d4bc 73ac 713d
00000370: 491a 393d ddad 7abd ab6b 3b3d 1b86 b2bd
00000380: bf98 e5bc e517 573d 479d 2abd 0fa8 863d
00000390: 528d 833d 9ce6 493d d408 943d fd45 25bd
000003a0: 6a33 43bd d531 343d 19e8 b4bd 42a3 b1bd
000003b0: 24fb 6cbd c3ab 803d 90a2 0a3d 9da1 29bd
000003c0: 60ea abbd bc0f 8ebd f645 543d b6af b2bc
000003d0: 3dac 2c3d d4e5 cfbc 2d91 313d 7cbe 6a3c
000003e0: b642 87bc 296e a3bd bc02 8cbd f259 9abd
000003f0: 541e 33bc 2850 4cbc 9cc7 92bc 2c04 273d

embedding.2.bias f4 [128]
0.0066893054 -0.027116038 -0.08450355 0.061341144 0.034161948 0.08556434 0.013915393 -0.060768254
0.012691554 -0.006077407 -0.086574785 0.065602556 -0.06505015 -0.0083526205 -0.054793745 -0.082962744
-0.049661558 -0.05580957 -0.0021283526 0.08514061 0.06567269 0.07413049 0.049363516 0.051616643
-0.07473521 0.07703428 -0.034869183 -0.05976539 0.033775505 0.04052782 -0.0024983282 0.06315463
0.07387275 -0.045371175 -0.026887707 -0.00084110355 -0.041617252 0.017136455 0.024327625 -0.061832417
-0.052520934 -0.06473839 -0.060911585 0.034667067 -0.018010065 0.021115275 0.0490895 0.027934056
0.017234067 0.0569011 -0.06455642 -0.060230847 0.0329364 0.04752292 -0.047549453 0.071094915
-0.014856332 -0.07475151 0.0067905844 -0.060430855 -0.010635789 -0.058239914 -0.048940055 -0.06653363
-0.06922961 -0.031421296 -0.052426316 0.05491793 0.04285105 -0.082818165 -0.08827138 -0.060051292
0.003793248 0.046028405 0.0683516 0.021621028 -0.03893549 -0.01672858 -0.0019684264 -0.063844614
-0.046121802 0.045346487 -0.039230127 -0.0014572694 0.053873334 -0.08779002 0.036026083 -0.073914304
-0.08476037 0.005706599 -0.08166224 0.0613654 -0.032829918 -0.013122252 -0.060278717 -0.074421026
-0.039120577 -0.040562272 0.054810133 0.025759468 -0.08103306 -0.006006189 -0.0024175958 0.057121284
-0.021703994 0.025896594 0.08164052 0.07356704 -0.07606501 -0.08512039 0.040578246 0.033489265
-0.019341905 0.06754766 0.042516414 -0.031621367 0.04192645 0.034543134 0.027987752 -0.035836708
0.087154195 -0.019313972 -0.0048008 0.0048493845 0.06606172 -0.0054128985 0.031921897 -0.042065147
00000000: f631 db3b 7422 debc 3210 adbd da40 7b3d
00000010: 66ed 0b3d 5b3c af3d 63fd 633c 22e8 78bd
00000020: 3cf0 4f3c fc24 c7bb 1f4e b1bd a25a 863d
00000030: 0339 85bd 6ed9 08bc 686f 60bd 5fe8 a9bd
00000040: eb69 4bbd 9398 64bd d57b 0bbb 335e ae3d
00000050: 677f 863d bad1 973d 6631 4a3d f96b 533d
00000060: c60e 99bd 26c4 9d3d fdd2 0ebd 8ecc 74bd
00000070: 2f58 0a3d 8000 263d feba 23bb 3757 813d
00000080: 994a 973d 20d7 39bd 9c43 dcbc 817d 5cba
00000090: da76 2abd c061 8c3c ba4a c73c fd43 7dbd
000000a0: 3120 57bd 9095 84bd 6d7e 79bd 0eff 0d3d
000000b0: d889 93bc f1f9 ac3c 1212 493d f6d5 e43c
000000c0: 752e 8d3c 2111 693d 2836 84bd 9fb4 76bd
000000d0: 52e8 063d 65a7 423d 37c3 42bd 369a 913d
000000e0: f967 73bc 5217 99bd 8d83 de3b 5886 77bd
000000f0: bb41 2ebc fa8c 6ebd 5e75 48bd c942 88bd
00000100: 41c8 8dbd 9eb3 00bd fabc 56bd a0f1 603d
00000110: 9584 2f3d 929c a9bd a0c7 b4bd 58f8 75bd
00000120: 2498 783b 4888 3c3d ecfb 8b3d 951e b13c
00000130: d27a 1fbd 600a 89bc b700 01bb f7c0 82bd
00000140: 37ea 3cbd 3dbd 393d c5af 20bd d901 bfba
00000150: 49aa 5c3d 41cb b3bd 1690 133d 6260 97bd
00000160: d896 adbd 6cfe ba3b 883e a7bd 495a 7b3d
00000170: aa78 06bd b7fe 56bc d1e6 76bd 0d6a 98bd
00000180: e63c 20bd a024 26bd 9780 603d 8505 d33c
00000190: a9f4 a5bd 91cf c4bb 8770 1ebb 02f8 693d
000001a0: 93cc b1bc 1825 d43c 2533 a73d 51aa 963d
000001b0: f9c7 9bbd 9953 aebd 6035 263d 0a2c 093d
000001c0: ea72 9ebc 6d56 8a3d b125 2e3d 6885 01bd
000001d0: 12bb 2b3d 1a7d 0d3d 9246 e53c 83c9 12bd
000001e0: e67d b23d 5638 9ebc 0750 9dbb 96e7 9e3b
000001f0: 5e4b 873d af5e b1bb 89c0 023d 814c 2cbd

actor.0.weight f4 [128, 128]
-0.051831644 -0.08008018 -0.062839255 -0.08268528 -0.004340967 -0.021813797 -0.025237195 -0.07708681
-0.07923399 -0.042358793 0.05792486 0.056651052 0.0082672415 -0.087906584 -0.033097476 0.039832197
0.04930378 -0.028730284 -0.03435296 0.019833317 -0.023174897 0.073488444 -0.06883851 -0.011305681
0.0144095225 0.07012985 -0.07448177 -0.068602405 0.063937135 -0.013807487 -0.058965936 -0.058390707
0.05813199 -0.028269008 0.080977395 0.01827286 0.02089566 -0.07797988 0.08596487 0.0649997
0.07786177 -0.047550824 -0.020516042 0.023295332 -0.06602505 -0.02628034 -0.06526326 0.070388936
-0.056406107 -0.058014505 -0.05793905 0.019042462 -0.07562626 -0.0014679747 0.004250141 0.0054306844
-0.011177818 -0.08697315 -0.042657435 0.037279002 -0.0788513 -0.04227963 0.07521574 0.05120073
-0.041788757 -0.051647317 0.06884204 0.032530814 -0.014510876 -0.029667977 -0.005462063 -0.084164545
0.088104226 0.08632557 0.032546416 -0.032411285 -0.027396694 -0.026223917 -0.08800989 -0.06858413
-0.06499144 -0.08507484 -0.035797246 -0.012508447 0.027215675 -0.054896828 0.028150933 -0.07511032
0.03528336 0.0531555 -0.019432342 0.007599498 -0.013007202 0.08043848 0.041423578 0.016762802
-0.07482322 0.028391508 -0.033606052 -0.0453714 0.031512238 -0.056594282 -0.027475772 0.07123303
-0.040195554 -0.023563754 -0.017305832 -0.050084386 -0.08247899 -0.046689562 -0.07293875 0.019613152
-0.047090925 0.07153896 -0.063880056 0.07077305 0.051302936 0.060123343 -0.042514525 0.007871071
-0.056997396 0.052061934 0.08052393 0.01106379 0.044547573 -0.008666013 0.052052 0.014047734
-0.0723941 0.023676476 0.016550688 0.06277861 0.03833042 -0.085141756 -0.058493767 -0.05609381
-0.08362376 -0.06572671 0.086400785 0.0457816 0.04196256 0.024641166 -0.03823287 -0.051664006
-0.000607315 0.051221885 -0.051525798 0.019800305 -0.02440743 0.012319292 0.012453087 -0.07562728
0.07324591 0.08311813 -0.003794407 0.085139744 0.008066401 -0.057093605 -0.045808967 -0.06434802
0.03664012 0.045278434 -0.05167217 -0.07255554 -0.03299626 -0.072299585 0.044804145 0.036282692
-0.04567148 0.016606143 0.0736764 0.023238128 0.052316915 0.032559514 0.05975694 0.061708726
-0.008418538 -0.015725326 0.045616914 -0.0062577217 0.030365445 0.028203417 0.04561449 0.08662059
0.07612973 0.055908076 0.01673547 -0.069078356 -0.030941276 -0.00982365 0.016709855 0.07828106
-0.01944606 0.0674633 0.008623677 -0.040857922 -0.07894661 0.05635612 0.08437226 -0.03892018
-0.034617145 -0.0713325 -0.02292973 0.041349776 -0.06675353 0.053291127 0.02481892 -0.040295158
0.08535046 0.030691966 0.05406623 -0.03646938 -0.07179458 -0.04288701 0.068185225 -0.057904143
0.01987523 -0.0072055305 -0.034958187 -0.06394939 0.020585796 0.005734384 -0.009265332 -0.046910718
0.03296662 -0.0462702 0.0027430644 0.0008428843 0.022571102 -0.03870305 0.063505165 -0.02506332
-0.017710442 0.0015741637 0.048799664 0.07782176 0.014620415 -0.015778841 0.055265624 -0.038924973
-0.04317521 0.08355569 0.08507718 0.087635964 -0.055063486 -0.056364287 0.0079265265 -0.0020839088
0.08707389 -0.009477983 0.07824537 -0.06876084 -0.033153437 -0.015897254 0.08146502 -0.04892229
00000000: 6b4d 54bd 1401 a4bd deb1 80bd e656 a9bd
00000010: ac3e 8ebb d9b2 b2bc 3cbe cebc b0df 9dbd
00000020: 6e45 a2bd 6a80 2dbd 9e42 6d3d ef0a 683d
00000030: 5373 073c 5e08 b4bd 3891 07bd 1627 233d
00000040: c3f2 493d c65b ebbc b0b5 0cbd 7b79 a23c
00000050: 48d9 bdbc 1c81 963d 34fb 8cbd 773b 39bc
00000060: eb15 6c3c 3da0 8f3d e689 98bd 6b7f 8cbd
00000070: 79f1 823d cc38 62bc 4486 71bd 182b 6fbd
00000080: cf1b 6e3d 6894 e7bc 7ad7 a53d f7b0 953c
00000090: 602d ab3c eab3 9fbd 5a0e b03d 901e 853d
000000a0: fe75 9f3d a7c4 42bd 4211 a8bc dad5 be3c
000000b0: 2438 87bd de49 d7bc bea8 85bd 1328 903d
000000c0: 170a 67bd 9ea0 6dbd 7f51 6dbd f0fe 9b3c
000000d0: f1e1 9abd 0f69 c0ba c444 8b3b e2f3 b13b
000000e0: 2b23 37bc fb1e b2bd 90b9 2ebd deb1 183d
000000f0: ca7c a1bd 682d 2dbd b60a 9a3d dbb7 513d
00000100: b02a 2bbd 238c 53bd 0efd 8c3d 083f 053d
00000110: 06bf 6dbc 420a f3bc 1bfb b2bb 765e acbd
00000120: fd6f b43d 76cb b03d 644f 053d b2c1 04bd
00000130: 086f e0bc 8ad3 d6bc 873e b4bd d675 8cbd
00000140: 3b1a 85bd b83b aebd 22a0 12bd 3bf0 4cbc
00000150: 68f3 de3c 7fdb 60bd c99c e63c 70d3 99bd
00000160: 4985 103d 95b9 593d 9330 9fbc 3605 f93b
00000170: 291c 55bc eebc a43d c5ab 293d 2552 893c
00000180: eb3c 99bd 4f95 e83c 80a6 09bd 5cd7 39bd
00000190: fa12 013d 68cf 67bd df14 e1bc 9fe2 913d
000001a0: 18a4 24bd c608 c1bc f6c4 8dbc 4925 4dbd
000001b0: bfea a8bd 8e3d 3fbd e960 95bd c3ab a03c
000001c0: 6ae2 40bd 0583 923d 8cd3 82bd 76f1 903d
000001d0: 0723 523d e543 763d b623 2ebd aaf5 003c
000001e0: 1a76 69bd e53e 553d bbe9 a43d e644 353c
000001f0: 8477 363d e5fb 0dbc 7a34 553d 7828 663c
00000200: 5c43 94bd 2bf5 c13c 4f95 873c 1292 803d
00000210: 5c00 1d3d cd5e aebd 2997 6fbd 9fc2 65bd
00000220: ef42 abbd ba9b 86bd e5f2 b03d 7d85 3b3d
00000230: efe0 2b3d 45dc c93c 129a 1cbd a39d 53bd
00000240: 3834 1fba 0ace 513d b70c 53bd 4034 a23c
00000250: 17f2 c7bc dbd6 493c 0808 4c3c 7ae2 9abd
00000260: f401 963d d739 aa3d 96ab 78bb bf5d ae3d
00000270: f028 043c fcda 69bd 2fa2 3bbd e5c8 83bd
00000280: f313 163d e175 393d 33a6 53bd 0098 94bd
00000290: 1627 07bd ce11 94bd 8d84 373d 299d 143d
000002a0: 0512 3bbd 9b09 883c a7e3 963d e35d be3c
000002b0: 434a 563d 205d 053d b1c3 743d 4ac2 7c3d
000002c0: e8ed 09bc 66d2 80bc cdd8 3a3d 930d cdbb
000002d0: f4c0 f83c da0a e73c 42d6 3a3d 2366 b13d
000002e0: e7e9 9b3d deff 643d d318 893c f478 8dbd
000002f0: 8f78 fdbc 60f3 20bc 1be3 883c d251 a03d
00000300: 584d 9fbc 332a 8a3d 534a 0d3c a35a 27bd
00000310: c3ae a1bd add5 663d 5dcb ac3d c46a 1fbd
00000320: b5ca 0dbd c616 92bd 21d7 bbbc 625e 293d
00000330: 13b6 88bd cc47 5a3d 0c51 cb3c 890c 25bd
00000340: 39cc ae3d b86d fb3c 8d74 5d3d eb60 15bd
00000350: 0909 93bd 4aaa 2fbd b2a4 8b3d e52c 6dbd
00000360: 61d1 a23c 5f1c ecbb 5130 0fbd e6f7 82bd
00000370: 8ba3 a83c 80e7 bb3b 9ecd 17bc 7425 40bd
00000380: 0208 073d d285 3dbd fcc4 333b 02f5 5c3a
00000390: 08e7 b83c 1787 1ebd ff0e 823d 9751 cdbc
000003a0: 7d15 91bc 2b54 ce3a 28e2 473d 0461 9f3d
000003b0: 778a 6f3c a142 81bc 355e 623d cb6f 1fbd
000003c0: 7dd8 30bd 3f1f ab3d f23c ae3d 7c7a b33d
000003d0: 408a 61bd 3dde 66bd 43de 013c 3092 08bb
000003e0: cc53 b23d 8b49 1bbc 1c3f a03d 7cd2 8cbd
000003f0: e6cb 07bd f53a 82bc 22d7 a63d bd62 48bd

actor.0.bias f4 [128]
-0.07063957 -0.049449675 -0.015464858 0.040972825 0.047132168 0.0007367164 0.039833564 -0.08152442
0.065171726 -0.058825355 0.03539566 -0.047524553 -0.08044654 0.057026885 0.044684224 -0.0062222024
0.024417356 -0.02051994 0.03208962 0.008487016 -0.05290461 0.046826474 -0.02503762 0.08117583
0.037266 0.025129637 0.048814375 0.055732526 -0.057283655 0.056797326 -0.012847487 0.05184545
0.057181377 0.059897456 -0.008972411 -0.0050489185 -0.06662699 -0.07616288 -0.07159106 0.0055599175
-0.013612905 0.079357624 0.010224678 0.07684929 0.07384483 0.077226155 0.03691555 0.033635713
0.041312046 0.025375322 -0.019369027 0.08081849 0.018328505 0.08800128 0.051096614 0.05117269
0.00928514 -0.0338508 0.014377533 -0.03368889 0.03281346 0.07511179 -0.050071836 0.021399219
0.07746165 0.0015940676 0.06917789 -0.038854484 -0.06615303 -0.076483086 0.023922572 0.05201159
-0.020812556 -0.03828546 -0.023528436 -0.059102558 -0.0610197 0.055915326 -0.028079284 -0.027013527
0.043201342 0.07987668 0.0568414 0.06014784 0.019093566 -0.0315718 -0.027278304 -0.001523303
-0.03954451 -0.03205901 0.05216315 -0.03858175 -0.0047134613 0.005347729 0.0789358 0.07160833
-0.06820197 0.080354 0.06433859 0.08817679 0.03247642 0.039404962 0.0012501492 -0.020343252
-0.012883027 0.011200166 0.00725048 -0.04964197 0.037797727 -0.0039639743 0.0053204917 0.014862338
0.06845119 -0.030311465 -0.022861566 0.034146637 -0.048295334 0.011959695 -0.046750095 0.005649237
-0.05125669 -0.049371228 -0.060422912 0.073759556 -0.048143353 0.019074567 0.011209502 0.07702251
00000000: 7bab 90bd be8b 4abd 5160 7dbc 1fd3 273d
00000010: a90d 413d 3320 413a 8528 233d 46f6 a6bd
00000020: c178 853d dbf2 70bd 0afb 103d 1ba9 42bd
00000030: 28c1 a4bd 0695 693d ce06 373d 9ee3 cbbb
00000040: e806 c83c 6f19 a8bc 6870 033d 200d 0b3c
00000050: 81b2 58bd 1ecd 3f3d b21b cdbc 833f a63d
00000060: 3ca4 183d abdc cd3c 95f1 473d ca47 643d
00000070: 44a2 6abd 50a4 683d 447e 52bc e55b 543d
00000080: 0537 6a3d 0957 753d 0501 13bc 6671 a5bb
00000090: bb73 88bd 49fb 9bbd 559e 92bd f82f b63b
000000a0: a908 5fbc 4086 a23d 6885 273c 2963 9d3d
000000b0: f53b 973d bf28 9e3d c234 173d 9ac5 093d
000000c0: d236 293d e8df cf3c cbab 9ebc 2a84 a53d
000000d0: a925 963c 043a b43d af4a 513d 749a 513d
000000e0: b320 183c 23a7 0abd bf8f 6b3c 5dfd 09bd
000000f0: 6867 063d 36d4 993d 2018 4dbd 6a4d af3c
00000100: 37a4 9e3d 08f0 d03a 23ad 8d3d e125 1fbd
00000110: 3d7b 87bd 2aa3 9cbd 45f9 c33c 1b0a 553d
00000120: 187f aabc 37d1 1cbd b5be c0bc 8615 72bd
00000130: cbef 79bd 7807 653d 8706 e6bc 794b ddbc
00000140: e4f3 303d 6396 a33d 87d2 683d 955d 763d
00000150: 1c6a 9c3c 6f51 01bd c076 dfbc 91a9 c7ba
00000160: 6df9 21bd 4f50 03bd 07a9 553d e607 1ebd
00000170: 6173 9abb 013c af3b 18a9 a13d 63a7 923d
00000180: 79ad 8bbd a390 a43d f3c3 833d 0896 b43d
00000190: ff05 053d 1967 213d 0cdc a33a e4a6 a6bc
000001a0: 5513 53bc e780 373c 6f95 ed3b 6155 4bbd
000001b0: cad1 1a3d 3ae4 81bb 8557 ae3b 2a81 733c
000001c0: 2330 8c3d c04f f8bc 2e48 bbbc 58dd 0b3d
000001d0: 54d1 45bd 99f2 433c 077d 3fbd 3c1d b93b
000001e0: 89f2 51bd 7c39 4abd 047e 77bd 400f 973d
000001f0: f731 45bd 4442 9c3c 0fa8 373c fabd 9d3d

actor.2.weight f4 [5, 128]
0.0513996 0.08818393 -0.05948565 -0.016107503 -0.070439234 0.054440934 0.048989326 0.049882933
0.07128937 -0.0011524002 -0.0432408 -0.07364651 -0.017070927 -0.08312045 0.08421267 -0.051614925
-0.07310891 0.009148311 -0.0004568402 0.08812051 0.07337283 -0.0046520215 0.00074417633 -0.0123356655
-0.028371708 0.05516502 0.061486404 -0.037027564 0.013666548 -0.031478457 -0.024097502 -0.024467763
0.061450146 -0.07941168 -0.076088525 -0.021961195 -0.04481188 0.08785762 0.068401195 0.06965674
0.0060497373 -0.011159169 0.023867907 0.059562504 0.056319367 0.013028275 0.009425331 -0.08129298
0.057946794 -0.029941931 0.0613682 -0.010023827 0.060721226 0.025353648 0.029455272 -0.051636655
-0.030237708 0.055690862 0.024455488 0.02193617 -0.07063393 0.06624488 -0.057983674 -0.060752794
0.07322336 0.050115712 0.024131367 -0.04020785 0.05187198 -0.083891355 -0.07029472 0.03380237
-0.033577774 0.033124335 0.0061382144 0.0011295672 0.00690358 0.0018494248 0.049685076 0.029418932
-0.0527487 -0.059610922 -0.08387567 -0.039153315 -0.041677017 -0.08218094 0.030778695 0.042246576
-0.056001455 0.08539669 0.0711327 -0.07116558 0.017979318 -0.05901251 -0.08295764 0.05193402
-0.017698674 -0.0621501 0.07059675 0.012051543 -0.0076411497 0.014914747 0.014554328 0.07988162
0.055583127 0.06150457 -0.06288103 -0.082029544 0.022041379 -0.060611255 -0.03583876 0.08190964
0.076621935 -0.00757185 0.047471575 -0.07217849 0.056545593 0.05510261 0.005299313 -0.068088025
0.00538858 0.06805156 -0.02323697 -0.024477014 -0.022381073 -0.052885357 -0.05340988 0.05543538
0.088239655 0.08386817 -0.06673291 0.011005595 -0.051452048 0.03769884 0.058148183 -0.05850897
-0.02037427 -0.033253103 0.021754222 0.062212784 0.07569952 0.04602425 0.08584959 -0.039658688
-0.022184025 -0.049702164 -0.07933828 -0.05140374 -0.04109484 0.06636284 -0.038582742 0.049867928
-0.023293182 0.04015094 0.036922112 -0.045419265 -0.010557638 -0.08336437 -0.03400686 0.013131925
0.052352086 0.022349652 -0.08328234 -0.05176207 0.011778622 0.08033212 -0.048436012 -0.07293594
0.033232063 -0.00036155674 0.070972644 -0.049273383 0.03232594 -0.010573812 -0.005595068 0.038112614
-0.019318597 -0.026751269 -0.051514532 0.073020786 0.06337628 -0.083435975 -0.064508066 -0.04483958
0.024043765 -0.08362432 -0.0037946915 0.06936782 0.04426181 -0.03918443 -0.0826262 0.080577716
0.07692725 0.010261767 -0.045036625 0.07432339 -0.06375601 -0.0011217805 -0.040053308 0.033365224
-0.04618736 0.00892803 -0.040928572 -0.084130935 -0.075607486 0.07538911 0.027187973 0.08832933
0.01799369 0.04955205 -0.013817749 0.0700037 0.06497637 0.023706475 0.05497402 -0.07452366
-0.07148017 0.03284252 0.015068226 0.04724763 -0.05756087 0.07294631 0.06835058 0.048548784
-0.004033264 -0.03569015 0.021262538 0.011220766 0.061714955 0.04591609 -0.027281096 0.063449554
-0.019681334 0.036360074 -0.080620684 -0.068853274 0.0037465808 -0.014831054 0.032869168 -0.06407106
0.0548195 -0.05591736 -0.088098586 0.061220173 0.012635835 0.016119242 0.011605177 -0.024769925
0.05235869 0.07650596 -0.06252467 -0.0328168 -0.071541704 0.07193577 0.07465321 0.04003212
00000000: 6388 523d c799 b43d 3aa7 73bd e2f3 83bc
00000010: 7242 90bd 75fd 5e3d 08a9 483d 0c52 4c3d
00000020: 2900 923d 220c 97ba 441d 31bd fbd3 96bd
00000030: 54d8 8bbc 0e3b aabd b177 ac3d 2c6a 53bd
00000040: 20ba 95bd cce2 153c 0e84 efb9 8778 b43d
00000050: 7f44 963d fc6f 98bb d414 433a 881b 4abc
00000060: c96b e8bc b7f4 613d 2bd9 7b3d 37aa 17bd
00000070: a8e9 5f3c 8eef 00bd 2068 c5bc 9e70 c8bc
00000080: 26b3 7b3d 97a2 a2bd 4dd4 9bbd f7e7 b3bc
00000090: a98c 37bd b2ee b33d ed15 8c3d 31a8 8e3d
000000a0: e03c c63b f2d4 36bc a186 c33c d0f7 733d
000000b0: 23af 663d 8c74 553c b46c 1a3c ef7c a6bd
000000c0: 9e59 6d3d c848 f5bc 395d 7b3d fa3a 24bc
000000d0: d2b6 783d 74b2 cf3c 2f4c f13c f580 53bd
000000e0: 12b5 f7bc 1a1c 643d e056 c83c 7cb3 b33c
000000f0: 86a8 90bd 65ab 873d 4a80 6dbd ecd7 78bd
00000100: 21f6 953d 2246 4d3d 25af c53c fdb0 24bd
00000110: b777 543d 3bcf abbd aef6 8fbd 5b74 0a3d
00000120: d988 09bd 62ad 073d 1323 c93b fc0d 943a
00000130: 6d37 e23b 6668 f23a 9482 4b3d f9ff f03c
00000140: 050f 58bd 952a 74bd 02c7 abbd 3a5f 20bd
00000150: 85b5 2abd 7b4e a8bd 9a23 fc3c bf0a 2d3d
00000160: c861 65bd 76e4 ae3d 05ae 913d 42bf 91bd
00000170: 5d49 933c 1ab7 71bd b2e5 a9bd c4b8 543d
00000180: cffc 90bc 1a91 7ebd 0795 903d d673 453c
00000190: 9c62 fabb fc5c 743c 4775 6e3c fa98 a33d
000001a0: 22ab 633d 37ec 7b3d c5c7 80bd 1bff a7bd
000001b0: 1f90 b43c 8243 78bd aacb 12bd 3ec0 a73d
000001c0: f6eb 9c3d 481d f8bb 8e71 423d 51d2 93bd
000001d0: 5a9c 673d 46b3 613d dca5 ad3b bc71 8bbd
000001e0: af92 b03b 9e5e 8b3d 755b bebc 0584 c8bc
000001f0: 8358 b7bc 519e 58bd 51c4 5abd 3610 633d
00000200: feb6 b43d 13c3 ab3d 44ab 88bd d050 343c
00000210: 62bf 52bd 196a 1a3d ca2c 6e3d 1aa7 6fbd
00000220: f1e7 a6bc 6834 08bd e935 b23c d5d2 7e3d
00000230: 5a08 9b3d ed83 3c3d e9d1 af3d 2671 22bd
00000240: 46bb b5bc 7f94 4bbd 1c7c a2bd ba8c 52bd
00000250: 1053 28bd 3ee9 873d f008 1ebd 5042 4c3d
00000260: 58d1 bebc 5075 243d a43b 173d 8d09 3abd
00000270: f1f9 2cbc f0ba aabd c74a 0bbd 4927 573c
00000280: 246f 563d 9e16 b73c ee8f aabd 7704 54bd
00000290: 1ffb 403c 2b85 a43d d764 46bd 705f 95bd
000002a0: 581e 083d 538f bdb9 1b5a 913d e3d2 49bd
000002b0: 3468 043d c83d 2dbc d556 b7bb f91b 1c3d
000002c0: 0942 9ebc 7a25 dbbc e700 53bd ec8b 953d
000002d0: 6ccb 813d 7be0 aabd ce1c 84bd b5a9 37bd
000002e0: 6ef7 c43c 3a43 abbd 5cb0 78bb b710 8e3d
000002f0: df4b 353d da7f 20bd ed37 a9bd ee05 a53d
00000300: 098c 9d3d f820 283c 5378 38bd dd36 983d
00000310: 8392 82bd b508 93ba f00e 24bd f9a9 083d
00000320: f52e 3dbd df46 123c b8a4 27bd d74c acbd
00000330: 19d8 9abd 9b65 9a3d 50b9 de3c 02e6 b43d
00000340: 8167 933c 17f7 4a3d d763 62bc 1a5e 8f3d
00000350: 5512 853d 1534 c23c 702c 613d dc9f 98bd
00000360: 3264 92bd e185 063d b8e0 763c bb86 413d
00000370: f2c4 6bbd e064 953d 64fb 8b3d 17db 463d
00000380: 7829 84bb d62f 12bd c62e ae3c 4ed7 373c
00000390: d2c8 7c3d 8312 3c3d 9b7c dfbc d7f1 813d
000003a0: c03a a1bc 4dee 143d 751c a5bd f202 8dbd
000003b0: 3289 753b f3fd 72bc d2a1 063d b037 83bd
000003c0: 698a 603d 9a09 65bd 086d b4bd 01c2 7a3d
000003d0: 8906 4f3c 800c 843c a423 3e3c 4cea cabc
000003e0: 1176 563d 28af 9c3d ef0c 80bd e96a 06bd
000003f0: 7584 92bd 1053 933d c8e3 983d b8f8 233d

actor.2.bias f4 [5]
-0.039034925 -0.012429158 -0.0655604 0.004523621 -0.056821253
00000000: 16e3 1fbd aba3 4bbc 8844 86bd e23a 943b
00000010: 67bd 68bd

critic.0.weight f4 [128, 128]
0.05697298 -0.03017529 0.03311104 0.013228842 -0.07394871 -0.040259268 0.027134046 -0.05438628
-0.041169316 -0.028963504 -0.0065338886 0.055908762 0.080711484 0.0046428125 0.029405719 -0.06483911
0.029893568 -0.042696137 -0.0075340546 0.060361955 0.04007686 0.06304065 -0.018439805 0.06362905
-0.04898606 0.009043892 -0.0506528 0.040050462 -0.05804175 0.039798446 0.0032324526 0.066707335
0.01281123 0.020966697 0.02540689 -0.010152481 0.0100115305 -0.0568579 -0.06061805 -0.0056753363
-0.07835259 0.005131031 0.053517383 -0.057541195 0.065317586 -0.08735827 -0.07137423 -0.039400052
0.016792389 -0.021174755 -0.034492306 -0.06600875 0.024540972 0.015645722 -0.058207873 0.030849574
0.027702207 0.007866056 0.053608365 -0.06136108 -0.043229125 -0.046845935 0.06379939 -0.042135667
-0.02308875 -0.054466117 -0.076550774 0.031201385 0.022003341 0.0024876439 0.055141173 0.014622807
0.06536977 -0.01855026 0.07324151 -0.043407228 0.06793058 -0.025899975 -0.009596458 0.036808424
-0.06038482 -0.07462295 0.07777261 -0.03259261 -0.068277895 -0.07826737 -0.087079346 0.0702672
0.067013025 -0.08415212 -0.03230835 -0.07347717 0.048406225 0.07740394 0.018077489 0.05464298
-0.07587609 0.013146277 -0.012306205 -0.07875212 -0.0069017042 -0.01017329 0.032417953 -0.02258777
-0.0031996623 -0.035707854 -0.015068594 -0.028414963 0.0565581 0.08123255 0.017856702 0.05603262
0.02796004 -0.08575049 0.025332415 -0.0127168 0.06911923 -0.011053949 -0.02194108 -0.04060105
-0.046908304 0.0832804 -0.059589762 0.012934647 -0.03769065 -0.05177692 0.02639125 0.053497363
-0.086748265 -0.06634633 -0.062469184 0.0473362 -0.024326265 0.04515883 0.0023970704 -0.07304813
0.08517231 0.043520045 -0.054594383 0.030157238 0.02001871 -0.024547968 -0.05330888 0.03157757
-0.019878024 -0.055725496 -0.032407302 -0.07032442 -0.07539849 0.08535129 -0.0064598476 -0.018342687
0.028443526 0.0025085383 -0.00956528 0.005958089 -0.07768068 0.077159666 -0.048434842 0.078031614
0.035970196 -0.06676761 0.023141665 0.071885325 -0.0034136102 -0.055125464 -0.042572353 0.0840812
-0.06618007 -0.053949125 -0.05231487 -0.029571397 0.057857558 -0.019134605 -0.012713059 -0.05007643
-0.03918189 0.05446105 0.015498597 -0.085089594 -0.07035562 -0.04117017 -0.042775363 0.05429771
-0.0245052 0.010484966 0.043521993 0.012180913 -0.07935642 -0.030341325 -0.06255441 0.06604843
0.05313785 -0.004348322 -0.06801185 0.032241452 0.035632 -0.03840842 -0.03516205 -0.026723282
-0.0034961968 -0.054154105 -0.055617698 0.02005819 -0.06535929 0.031041196 -0.06896908 0.01163254
0.02037797 0.042807806 -0.053276736 0.07651857 0.0018393201 0.06060857 0.002985198 -0.08001639
0.07802158 0.07495343 -0.013211045 0.02924986 0.08075822 0.014250523 0.037228987 -0.06263547
0.076971225 0.008371766 -0.07328092 -0.066983946 0.08361907 0.038170166 -0.03356615 -0.05091649
0.08667571 -0.014569133 0.08213674 -0.045613848 0.067262955 -0.044388637 0.04808904 -0.04557821
0.017229548 0.03575472 -0.070281595 -0.039068528 -0.044918794 -0.040825553 -0.011695361 -0.03247563
0.006204954 -0.027683167 -0.07797961 0.0408686 0.04379345 -0.08077217 0.036823437 0.076668896
00000000: 805c 693d 2b32 f7bc 719f 073d c9bd 583c
00000010: 6c72 97bd e7e6 24bd 3848 de3c 26c4 5ebd
00000020: 28a1 28bd df44 edbc 3b1a d6bb 9600 653d
00000030: 104c a53d bc22 983b 43e4 f03c 5eca 84bd
00000040: 5be3 f43c 25e2 2ebd 3be0 f6bb 193e 773d
00000050: a227 243d 751b 813d 130f 97bc f34f 823d
00000060: 9ba5 48bd d52c 143c 4f79 4fbd f40b 243d
00000070: 30bd 6dbd b203 233d 8ed7 533b db9d 883d
00000080: 31e6 513c 5ac2 ab3c 1c22 d03c 9756 26bc
00000090: 6707 243c d4e3 68bd a24a 78bd 2cf8 b9bb
000000a0: 5377 a0bd 3522 a83b 0b35 5b3d 51b0 6bbd
000000b0: 3ac5 853d e5e8 b2bd a72c 92bd f361 21bd
000000c0: 3190 893c ae76 adbc ce47 0dbd 982f 87bd
000000d0: 260a c93c 752b 803c 616b 6ebd 3fb8 fc3c
000000e0: bdef e23c a1e0 003c 7294 5b3d c155 7bbd
000000f0: 0611 31bd 86e1 3fbd 41a9 823d 7396 2cbd
00000100: 9e24 bdbc dd17 5fbd a7c6 9cbd 0c9a ff3c
00000110: 5a40 b43c bd07 233b b6db 613d 7f94 6f3c
00000120: 96e0 853d b7f6 97bc a5ff 953d c7cb 31bd
00000130: 301f 8b3d 2f2c d4bc 763a 1dbc 6ec4 163d
00000140: 1356 77bd ebd3 98bd 3f47 9f3d d47f 05bd
00000150: 48d5 8bbd a54a a0bd a856 b2bd 40e8 8f3d
00000160: 203e 893d f257 acbd c355 04bd 337b 96bd
00000170: 9b45 463d f585 9e3d 3e17 943c 51d1 5f3d
00000180: ec64 9bbd 7b63 573c f79f 49bc cb48 a1bd
00000190: b127 e2bb dfad 26bc b0c8 043d fd09 b9bc
000001a0: 6db1 51bb 6642 12bd 44e2 76bc 7fc6 e8bc
000001b0: 77a9 673d 405d a63d 3848 923c 7682 653d
000001c0: 740c e53c f49d afbd ed85 cf3c 205a 50bc
000001d0: 628e 8d3d 9f1b 35bc c8bd b3bc 494d 26bd
000001e0: ec22 40bd ea8e aa3d 6514 74bd d7eb 533c
000001f0: 8361 1abd 0914 54bd 7632 d83c 0d20 5b3d
00000200: 13a9 b1bd 96e0 87bd b0df 7fbd 9ae3 413d
00000210: e047 c7bc 77f8 383d 2b18 1d3b 429a 95bd
00000220: d26e ae3d 1342 323d 5c9e 5fbd 500c f73c
00000230: 47fe a33c d218 c9bc 6a5a 5abd 7b57 013d
00000240: 3dd7 a2bc 6b40 64bd 85bd 04bd 4006 90bd
00000250: 866a 9abd a8cc ae3d 21ad d3bb 6743 96bc
00000260: 6602 e93c 4a66 243b b1b7 1cbc 133c c33b
00000270: 0c17 9fbd e305 9e3d 9d63 46bd 0acf 9f3d
00000280: 7c55 133d 75bd 88bd 9793 bd3c 9d38 933d
00000290: e0b6 5fbb 3dcb 61bd 5960 2ebd c432 ac3d
000002a0: 6b89 87bd c2f9 5cbd 1e48 56bd b73f f2bc
000002b0: 0cfc 6c3d 2dc0 9cbc 6f4a 50bc f11c 4dbd
000002c0: 317d 20bd 8d12 5f3d d4ed 7d3c 7443 aebd
000002d0: 9b16 90bd 0da2 28bd 3835 2fbd 4767 5e3d
000002e0: 21bf c8bc 23c9 2b3c 1e44 323d 7492 473c
000002f0: 9e85 a2bd 5f8e f8bc 871c 80bd 6644 873d
00000300: 13a7 593d 5e7c 8ebb cc49 8bbd 9d0f 043d
00000310: dcf2 113d 2652 1dbd 1506 10bd c9ea dabc
00000320: 7320 65bb b2d0 5dbd 62cf 63bd 1351 a43c
00000330: 17db 85bd 1b4a fe3c a93f 8dbd 6996 3e3c
00000340: b3ef a63c 3d57 2f3d b538 5abd c5b5 9c3d
00000350: 5715 f13a b140 783d 50a3 433b a2df a3bd
00000360: c7c9 9f3d 2f81 993d 2473 58bc 679d ef3c
00000370: 9164 a53d 077b 693c 6c7d 183d 0647 80bd
00000380: 17a3 9d3d bb29 093c 4f14 96bd e12e 89bd
00000390: 7a40 ab3d 5258 1c3d a97c 09bd cf8d 50bd
000003a0: 0983 b13d 5fb3 6ebc 4f37 a83d 96d5 3abd
000003b0: 29c1 893d dcd0 35bd 03f9 443d 38b0 3abd
000003c0: fb24 8d3c 8b73 123d ccef 8fbd 5206 20bd
000003d0: c5fc 37bd b238 27bd e69d 3fbc 2b05 05bd
000003e0: ed52 cb3b cfc7 e2bc c6b3 9fbd d565 273d
000003f0: c360 333d e16b a5bd 2cd4 163d 9504 9d3d

critic.0.bias f4 [128]
0.07369087 -0.080056556 0.029720873 0.041403726 0.02252377 -0.039051615 -0.080692194 -0.06762095
-0.059681296 0.052007534 -0.08398704 0.04168236 -0.048729386 0.033284534 -0.014201159 -0.07701218
-0.07425842 0.062083814 -0.023618314 -0.0703764 0.07152392 -0.035201628 0.07871873 0.05062414
0.049133047 0.08004661 0.045862284 0.0026553252 0.051595002 0.032853596 0.05647941 -0.062021866
-0.07270854 -0.07811074 -0.013828518 0.015660694 0.018580932 0.05976911 -0.058060993 0.08267807
0.014752524 -0.005439978 0.017757911 0.073290765 -0.03392659 -0.052350443 -0.04982827 0.06192961
-0.05245584 0.07137201 -0.0564639 -0.042354926 -0.0015219648 0.043740008 0.023384979 0.0040937443
0.032321185 -0.06024326 -0.008804529 0.023369731 0.064871974 -0.08720918 -0.07706063 -0.07218403
-0.08316534 0.076413214 0.071442574 -0.07409305 0.037967883 -0.06547699 0.060301464 0.00874212
-0.065787405 -0.06577969 0.005678761 -0.0394654 -0.01229962 0.0652421 0.04735385 -0.06268286
-0.014643943 -0.07362919 0.045329694 0.028083013 0.012099286 0.03736157 0.056165945 -0.06344372
-0.06267495 -0.05453134 -0.07386742 0.07819129 0.029136516 -0.039984062 -0.021538345 -0.006099829
0.08725707 0.03541199 -0.066797286 0.042140443 -0.03958 -0.054793198 0.031280104 -0.07366779
-0.00032114843 -0.00830256 -0.01705271 -0.031550784 -0.0077075204 0.0686699 0.028260093 0.04050332
0.02720302 0.07244843 -0.0064284587 -0.012384461 0.046167247 -0.026285546 0.062081885 -0.05071604
-0.001080308 -0.05771543 -0.017949099 0.076201744 0.017067334 -0.015342295 -0.014300741 0.011399363
00000000: 3deb 963d b1f4 a3bd 3079 f33c f496 293d
00000010: c583 b83c 96f4 1fbd f341 a5bd da7c 8abd
00000020: 6074 74bd da05 553d 6601 acbd 1fbb 2a3d
00000030: 7798 47bd 5d55 083d faab 68bc 90b8 9dbd
00000040: cc14 98bd 994b 7e3d 327b c1bc 8121 90bd
00000050: 227b 923d 952f 10bd 4937 a13d 425b 4f3d
00000060: bc3f 493d 7aef a33d 17da 3b3d f704 2e3b
00000070: 4855 533d 7e91 063d f456 673d a40a 7ebd
00000080: 37e8 94bd 86f8 9fbd 0291 62bc db4a 803c
00000090: 0a37 983c 74d0 743d 5dd1 6dbd 1f53 a93d
000000a0: 92b4 713c d841 b2bb 0a79 913c 7819 963d
000000b0: 9cf6 0abd 6b6d 56bd ba18 4cbd e7a9 7d3d
000000c0: efdb 56bd 7d2b 923d b146 67bd 5c7c 2dbd
000000d0: aa7c c7ba b928 333d db91 bf3c d124 863b
000000e0: 3863 043d a3c1 76bd df40 10bc e171 bf3c
000000f0: 99db 843d ba9a b2bd f7d1 9dbd 39d5 93bd
00000100: 9752 aabd 887e 9c3d 7c50 923d 19be 97bd
00000110: 3684 1b3d cd18 86bd abfe 763d 1c3b 0f3c
00000120: 8cbb 86bd 81b7 86bd e614 ba3b 79a6 21bd
00000130: 5884 49bc a69d 853d 1cf6 413d df5f 80bd
00000140: 26ed 6fbc e7ca 96bd a1ab 393d 590e e63c
00000150: 153c 463c 7208 193d 430e 663d c8ee 81bd
00000160: b95b 80bd 415c 5fbd cd47 97bd c122 a03d
00000170: b4af ee3c 54c6 23bd 2f71 b0bc 13e1 c7bb
00000180: d6b3 b23d 2a0c 113d 04cd 88bd 759b 2c3d
00000190: a31e 22bd d56e 60bd 911f 003d 23df 96bd
000001a0: d05f a8b9 7607 08bc 20b2 8bbc 653b 01bd
000001b0: 5e8f fcbb cea2 8c3d b681 e73c cfe6 253d
000001c0: ded8 de3c d85f 943d d2a5 d2bb 32e8 4abc
000001d0: de19 3d3d c954 d7bc 9349 7e3d 9fbb 4fbd
000001e0: 1f99 8dba 0467 6cbd fd09 93bc a90f 9c3d
000001f0: cbd0 8b3c 405e 7bbc a84d 6abc 65c4 3a3c

critic.2.weight f4 [1, 128]
0.029452143 -0.025142482 -0.04828292 -0.023983316 -0.011213833 0.0015549236 0.056972623 -0.023772087
0.07848296 0.05665279 0.06849694 -0.00045031798 -0.031278536 -0.040612597 0.067408785 -0.042460926
0.06959724 0.01920734 -0.06038677 0.005975085 -0.08628494 -0.033457834 -0.08688322 0.023035191
-0.004110287 -0.06409213 -0.06585458 -0.0012871647 -0.041008156 0.0190379 -0.054759566 0.03834969
0.040866744 -0.031273395 0.02272873 -0.051247343 0.01717072 0.023067782 -0.076335445 0.019078583
0.030491095 -0.07290288 -0.049488693 0.009248747 0.04187854 0.02136312 -0.048658736 -0.08070718
0.012123224 -0.061117448 0.050549675 -0.005070856 -0.052337196 0.055990126 0.041102037 0.001426439
-0.0010047703 -0.030453458 0.030735841 0.07491738 -0.07691385 -0.043207053 0.002460375 0.019200208
0.0118438015 0.01420923 0.073923096 -0.060641948 -0.01667911 0.007282501 0.024346948 0.029085876
-0.02860768 -0.0025027746 -0.024557978 0.035297986 0.08449228 0.04162506 0.027841965 -0.08388173
7.094368e-05 0.040102337 0.018125558 -0.03298761 0.07732698 0.02669181 -0.07706859 -0.07297397
0.028508443 0.045623172 -0.03280461 0.044453662 -0.039916616 -0.0040657376 0.035933107 -0.06544611
-0.045049723 -0.05400344 -0.050168037 -0.07758869 -0.03029097 0.017790543 0.033799294 0.03726071
0.04135531 0.08731222 0.065100886 -0.045174412 0.042184 -0.006879272 -0.060048457 -0.04595491
0.016916733 -0.0037474132 -0.02039074 -0.046637647 -0.05300921 -0.05042196 -0.033528775 0.030605733
-0.010335155 0.07162923 0.0056587304 -0.00788184 -0.046282098 -0.072638944 -0.079165235 0.05625972
00000000: 9f45 f13c 9bf7 cdbc 50c4 45bd a978 c4bc
00000010: 39ba 37bc 94ce cb3a 205c 693d aebd c2bc
00000020: adbb a03d c20c 683d 2048 8c3d a818 ecb9
00000030: ec1d 00bd 6559 26bd 9e0d 8a3d 82eb 2dbd
00000040: ff88 8e3d b658 9d3c 1e58 77bd a5ca c33b
00000050: 29b6 b0bd 150b 09bd d4ef b1bd 4cb4 bc3c
00000060: 96af 86bb bc42 83bd c4de 86bd 15b6 a8ba
00000070: 2bf8 27bd 5ff5 9b3c 914b 60bd 9114 1d3d
00000080: e363 273d 8818 00bd 9a31 ba3c bce8 51bd
00000090: 9ca9 8c3c a5f8 bc3c c255 9cbd b04a 9c3c
000000a0: 76c8 f93c 1b4e 95bd a8b4 4abd 0e88 173c
000000b0: d588 2b3d b601 af3c 624e 47bd ce49 a5bd
000000c0: 7da0 463c 4a56 7abd 2d0d 4f3d 6c29 a6bb
000000d0: 875f 56bd e755 653d 9c5a 283d 5af7 ba3a
000000e0: 7fb2 83ba 8879 f9bc bbc9 fb3c 496e 993d
000000f0: 0285 9dbd e1f9 30bd 3e3e 213b c149 9d3c
00000100: 810c 423c d5cd 683c fe64 973d b163 78bd
00000110: a1a2 88bc 0ca2 ee3b 4073 c73c 8145 ee3c
00000120: a75a eabc 9705 24bb d02d c9bc 9f94 103d
00000130: 4a0a ad3d 0a7f 2a3d d514 e43c 2fca abbd
00000140: 99c7 9438 5942 243d 0d7c 943c 041e 07bd
00000150: 9c5d 9e3d c8a8 da3c 23d6 9dbd 6073 95bd
00000160: 8a8a e93c 5ddf 3a3d 205e 06bd 0b15 363d
00000170: 9b7f 23bd e139 85bb 982e 133d 9c08 86bd
00000180: 0f86 38bd b632 5dbd 007d 4dbd d2e6 9ebd
00000190: c524 f8bc 79bd 913c 2171 0a3d b09e 183d
000001a0: 2f64 293d c0d0 b23d 9d53 853d ce08 39bd
000001b0: 21c9 2c3d 846b e1bb 5ff5 75bd 373b 3cbd
000001c0: f694 8a3c 2997 75bb 7b0a a7bc 1e07 3fbd
000001d0: 2f20 59bd 4287 4ebd 7855 09bd e0b8 fa3c
000001e0: c854 29bc 59b2 923d df6c b93b d522 01bc
000001f0: 4c92 3dbd bac3 94bd 6221 a2bd 9870 663d
