models/frl-model/final_frl_agent0.pt (torch, 216578 bytes, 11 tensors)

embedding.0.weight f4 [128, 20]
00000000: 1a52 ad3d 35be 113e b9dd 5f3d 79ed 383d
00000010: 6ac1 963b 959b 1abe b05c 583d e381 4a3e
00000020: 172e 643d 3324 8c3d e1f6 c0bd f874 adbd
00000030: 3938 0e3e b149 c53d 2124 7e3d b1af 1c3e
00000040: 9ad2 053d 5450 cc3d 0cba 4dbe 0066 1dbd
00000050: 8084 30bd cd48 53be 078e c4bd 7f85 60be
00000060: 6727 84bd 7c43 04be 598d d5bc a7bc bdbc
00000070: e340 81bd 7ece 233d eb51 da3d 24e8 a6bd
00000080: ab07 403e d634 6abd 8a63 86bd f567 9d3c
00000090: 9e72 93ba ca2a 04be f6d4 1abe 70b7 9f3d
000000a0: 7920 2cbe b2f4 2f3b 94c2 f33d aec4 a2bd
000000b0: 8c0e 32be 4e00 0fbe d683 32bd d155 1d3d
000000c0: 141d 0f3b f67d 3fbd b5bf a4bc 9550 37bd
000000d0: 02ce 03be 9abf 5d3e f1c4 12be 7418 603e
000000e0: 1e25 d4bd 34c6 26be 3bde f03d 1a86 613d
000000f0: 1795 5e3e ff36 133e 33fa 9ebd 2e43 a13a
00000100: 274c d53d ce23 0abe 4bb6 c53b a11c 0ebe
00000110: c11e 1e3e 4386 303c 703c e9bd 770b 0f3e
00000120: dc71 28be e62e 27be 1a5a 383e bc61 043c
00000130: 2f6a 3ebe c266 1fbe 3593 42bc 9baf 5c3e
00000140: 826c e03d 118e cabd 2876 563e 71a7 03bd
00000150: aae5 7f3d 0db0 8bbd 67e6 d13d 51f6 c73d
00000160: aefc abbc fc1f e9bd 6ffd 13be 191d 163e
00000170: f01d 5ebe 5ca5 8b3c 130d f9bd 1a14 593b
00000180: 1085 0abe 172c 5c3d 21cd 4e3e 9f26 05bd
00000190: a6f0 05bd 6924 14be 65c3 313e b98a 49be
000001a0: 40f8 173e 9165 09be aa69 96bd d540 473e
000001b0: 2d87 0c3e b45c 60bd 1d99 17be 74bd 403e
000001c0: 9cea e83d 8c13 c53d d7e1 3dbe 7262 253e
000001d0: 1b04 cc3d d796 0cbe 5605 903d 0488 a5bd
000001e0: 813f f43c c7a1 543d 8c39 4f3e 6ed8 613e
000001f0: ab51 713d 882a d0bc 6523 293e 2c5a 9abd
00000200: 3ada 123d b140 cebd b07a 233e 7490 2dbe
00000210: 36ce c0bd 7619 043e f50c 6dbd a84b 473e
00000220: 4a87 1dbe 87af 453e 45de 763d becc 29be
00000230: 10ca c93d 35da 86bb 8e20 e1bd aa86 443e
00000240: c232 75bd f591 633d f8e8 083d fca3 3d3e
00000250: 1042 383e da58 eabd fee0 6d3d bda1 c6bd
00000260: 742d e13d 10df 5fbe 129b 883d c89f 6dbb
00000270: 84b8 ec3d be69 27be 1823 b9bd ba41 5dbd
00000280: 0fdd 1ebe 7cc6 373e 81b8 2f3e f37c 5f3e
00000290: adc9 2a3e 75b7 1dbe 6a1d 3cbc 9fdc 0cbd
000002a0: 2685 2abe 7472 63be 4acb 67bd 0d22 0e3d
000002b0: e257 153e 1d40 9ebd 4037 2ebe a4ca 2b3e
000002c0: f777 55bd 20b0 ca3c 1e6c 3c3e 6e1a ed3d
000002d0: 12d9 e83d c2a1 4bbe 0c64 3dbd 2d76 4d3e
000002e0: 7c6d c83c 901f e13d b28a 493d 6e08 26be
000002f0: e454 763d 6b14 3f3d 9aee 6dbd 3c63 0ebd
00000300: 15c3 5ebe 50c0 dc3d e3a4 943d 3a2f 07be
00000310: 94e6 ebbd 1a5c 573e cb5b 213e f2ff 603e
00000320: 8855 0b3d c3d9 2ebe 61cb 863d 37ce 25be
00000330: af6e 46bd a724 403e cdc1 d03c 2a98 c63d
00000340: 217f 3d3d d5cb 303d bdad 5ebe 2bad 813c
00000350: e3a9 67bd 61d3 913b ddf4 43be f2e6 7c3d
00000360: c074 55bd 060e 4abe f723 273e 8cfa 50be
00000370: 6298 f2bd 29fe 453e 9725 e2bc 6e4f 9d3d
00000380: 788e 58be 47b8 89bd c252 503e fb26 003e
00000390: 511f 33be 72be d03a e04b c8bd 229a 1b3e
000003a0: 3bd4 433e c90f 15bd 318d ecbc 9c02 54be
000003b0: 2c3f a9bd f2c7 f43d c0d6 f7bd 00fc b43c
000003c0: 95ee 283e 17e9 f23d 0171 363e 8720 5e3e
000003d0: c4ae d7bd 938c 973d b825 99bd ab34 bbbd
000003e0: a922 fcbd 03bd a43d 1a94 0f3e 57e5 e03d
000003f0: 4add e73d e22f d73c 86e9 613e 2342 d23d
0.08462925 0.14232714 0.05465481 0.045148347 0.0046006935 -0.15098412 0.05282277 0.1977611
0.055708017 0.06842842 -0.094220884 -0.08469576 0.13888635 0.09633196 0.062046174 0.15301396
0.03267155 0.09976259 -0.20090503 -0.038427353 -0.04309511 -0.2063324 -0.09597402 -0.21925925
-0.06452828 -0.12916368 -0.026068376 -0.023161246 -0.06311204 0.03999185 0.10660156 -0.08149746
0.18752925 -0.057179295 -0.06561954 0.01921461 -0.0011249369 -0.12906948 -0.151203 0.0779866
-0.16809262 0.002684873 0.11902347 -0.0794767 -0.17388362 -0.1396496 -0.04358276 0.03841192
0.00218374 -0.046750985 -0.020110944 -0.044754583 -0.12871554 0.21655121 -0.1433294 0.21884328
-0.10358642 -0.16286546 0.11761137 0.05505953 0.21736561 0.14376448 -0.077625655 0.0012303346
0.104149155 -0.13490221 0.006033694 -0.13878109 0.15441419 0.010774198 -0.11388481 0.13969217
-0.16449684 -0.16326484 0.18003121 0.008079942 -0.18595193 -0.15566543 -0.011875917 0.21551363
0.10958196 -0.09890378 0.2094351 -0.032142106 0.062474884 -0.068206884 0.10249024 0.09763778
-0.02099451 -0.11383054 -0.14452146 0.14659537 -0.21691108 0.017046623 -0.12160697 0.0033123554
-0.13527322 0.053752985 0.20195438 -0.032507535 -0.032700203 -0.14467014 0.17359693 -0.19681825
0.14840794 -0.13417651 -0.073443726 0.19458325 0.1372344 -0.05477591 -0.14804502 0.1882227
0.11372873 0.09622869 -0.18543182 0.16150835 0.099617206 -0.13729416 0.07032268 -0.080825835
0.029815437 0.051912095 0.20236796 0.22055218 0.058915775 -0.025410905 0.16517408 -0.0753673
0.03585265 -0.10070933 0.1596477 -0.16949636 -0.094143316 0.12900338 -0.057873685 0.19462454
-0.1538364 0.1930524 0.060270566 -0.16582009 0.098529935 -0.004115368 -0.109925374 0.19191995
-0.05986286 0.055559117 0.0334253 0.18519586 0.17993951 -0.11442728 0.058075897 -0.09698818
0.109949976 -0.21862435 0.06670202 -0.0036258567 0.11558631 -0.16348931 -0.09039897 -0.05401776
-0.15514015 0.1794681 0.17160226 0.21825008 0.16678496 -0.15402015 -0.011481622 -0.03439009
-0.16652355 -0.22211629 -0.056590356 0.034700442 0.14584306 -0.077270724 -0.17013264 0.1677652
-0.05211636 0.024742186 0.18400618 0.11577307 0.11369528 -0.19885924 -0.04623799 0.20064612
0.024466269 0.10992348 0.049204536 -0.16214153 0.06013955 0.04665033 -0.058088876 -0.034762606
-0.21754105 0.10778868 0.07258012 -0.13201609 -0.11518589 0.21031228 0.15757672 0.21972635
0.034017116 -0.17075257 0.0658176 -0.16191946 -0.0484454 0.18763982 0.025483036 0.09696992
0.046263818 0.04316314 -0.21745963 0.015829643 -0.0565585 0.004450247 -0.19136377 0.061743684
-0.052113295 -0.19731912 0.16322313 -0.20408076 -0.11845471 0.19335236 -0.027605815 0.07681166
-0.21148098 -0.06724601 0.2034407 0.1251487 -0.17492415 0.0015925898 -0.09780097 0.15195516
0.19123928 -0.036392007 -0.028875919 -0.2070412 -0.08264002 0.11952199 -0.12101507 0.02209282
0.16497262 0.118608646 0.17816545 0.21692096 -0.10531381 0.07399859 -0.074778974 -0.09140905
-0.123112984 0.080438636 0.1402134 0.10981243 0.113215044 0.02626795 0.22061738 0.10266521

embedding.0.bias f4 [128]
00000000: 7b8a 323e 4a2e 5ebe bef4 85bd a7fe f0bd
00000010: dd52 3abe 709b 1abd cc96 58be 8973 33be
00000020: 754c e3bd 7ab6 f4bd ae52 293e e0e2 dc3d
00000030: 1c8a 09be d2f4 2bbe 0a12 db3c ab44 34be
00000040: 8041 d43d b23d 06be 82d0 63be adef c6bd
00000050: 4d7e 583e 7813 44be 015e 59bd f7d4 bb3c
00000060: 1429 053d c1bd 623c 9c95 403c 2993 42be
00000070: 1cc1 173e a6db b63d 8c7a 1abe f77b 0b3e
00000080: 75a3 573d 8057 a0bb 9d28 43be cd55 f03c
00000090: d55a 7f3d f5b5 36bd 5746 c83d bbcd dd3d
000000a0: f788 553e e26e c1bd 2f40 1eba b8d2 1f3e
000000b0: 13cd 47bd 35a8 613e 2fbf 3c3e 235a d3bb
000000c0: 382f bd3c 1c25 a3bc d715 cc3d 1cad 9f3d
000000d0: 80bc c73d 5e94 23be ff1f 283e 886e 1d3e
000000e0: 74cf 35be 4c57 f0bd a264 1f3e 0ca0 663d
000000f0: bcc4 8abd abc2 133b 28f9 1abe 0a64 febd
00000100: 0de8 9a3d 4200 f1bd 82ec b93d efec a53d
00000110: a970 603d a5ea 973c 9bd5 1b3d ff65 1e3e
00000120: 4ae9 3d3e 08a6 f6bd e65a 8b3d 8ec7 c63d
00000130: 85cc 0cbd b59b 623e 5f51 8dbd 899c 4dbe
00000140: 585e 263e ce16 be3d 144a 5ebe 1947 c93d
00000150: 8263 133e 2ca2 f63c 5df0 30be 4ae4 16be
00000160: 1bef b83d 653f 3d3e fea6 613e f698 053e
00000170: 214a 48be 3d3c 593c e442 423e 736f 5a3e
00000180: acd5 b13c f53c 2abe b7ee 403c 9fa6 babd
00000190: 5e9f 1c3e a237 2ebd 4c10 c7bd 4ac6 42be
000001a0: 9aae 053e 341e 9a3d cd1c 6b3d d9bd d2bd
000001b0: 7e0c 153e ac95 f13d 4ec7 92bd e335 973d
000001c0: 6542 413e 631d 3cbd 428a 30bd 6257 0f3e
000001d0: 1faf eabc c41a a2bd 3103 45be cdda e53c
000001e0: 4d85 e6bd 2e53 e33d a465 f4bd fa7b 21bd
000001f0: 9811 b7bd 8f9a 49be 8cf1 25bd 42a3 18bd
0.17435639 -0.21697345 -0.065408215 -0.11767321 -0.18195672 -0.037745893 -0.21151274 -0.17524542
-0.110985674 -0.11948867 0.16535446 0.107854605 -0.13431591 -0.1679261 0.026742 -0.1760432
0.10364056 -0.13109472 -0.22247508 -0.09713683 0.2114193 -0.19148052 -0.053068165 0.022928698
0.03250988 0.013839186 0.01175442 -0.1900145 0.14819759 0.08928613 -0.1508581 0.13621508
0.05264612 -0.0048932433 -0.19058461 0.029337788 0.062342484 -0.04460712 0.09779041 0.108302556
0.20853029 -0.09444977 -0.0006036786 0.15607727 -0.04877956 0.22036822 0.18432306 -0.006449954
0.023093805 -0.019915156 0.09965103 0.0779669 0.097527504 -0.15974566 0.16418456 0.15374196
-0.17754918 -0.117354006 0.15565732 0.056304976 -0.06775805 0.002254645 -0.15134108 -0.12421425
0.075637914 -0.11767627 0.090783134 0.08101832 0.05479494 0.018544504 0.038045507 0.15468596
0.18546024 -0.12043387 0.06804447 0.09706031 -0.034374733 0.2212971 -0.06900286 -0.20079245
0.16246927 0.092816934 -0.21707946 0.09828014 0.14393428 0.030106626 -0.17279191 -0.14735523
0.09029981 0.18481214 0.22036359 0.13046631 -0.19559528 0.013258991 0.18970829 0.21331577
0.021708332 -0.16624816 0.011775664 -0.09113812 0.15295169 -0.042533524 -0.09719905 -0.19020954
0.13054886 0.07525292 0.057400513 -0.10290117 0.14555547 0.11796126 -0.071669206 0.07383325
0.18872984 -0.045926463 -0.043100603 0.13998178 -0.028647957 -0.079152614 -0.19239499 0.028058434
-0.11255894 0.1109985 -0.11933449 -0.039424874 -0.089389026 -0.19687866 -0.04051356 -0.03726507

embedding.2.weight f4 [128, 128]
00000000: 0763 6cbd 8767 b0bc 4059 c63b de45 79bc
00000010: 0b85 9cbd 41a8 eabb fc47 32bd c5a0 7cbd
00000020: 77a7 2e3d 92f1 08bd c036 603d 691e 873d
00000030: 3f43 d63c 00ec 2abd 8c9a 353c 77b1 2a3d
00000040: 3e27 40bd 88fd 0dbc 4c7e 61bd 3c0c 30bd
00000050: 355c 013d e401 adbd 5b0c 32bd 2c58 debc
00000060: 7d38 9c3d 14b2 2dbd ac6b 8f3d 604f a8bc
00000070: f611 643d 2718 d2bc cf15 b1bd 4919 0abd
00000080: daed 6e3d 6f09 953d 252d 91bd 5ca1 77bd
00000090: f27c 483c 0647 653d 5682 c0bc 3623 4cbd
000000a0: 69ba 1a3d 306a 003c da81 0bbd 81fa a3bd
000000b0: 7c4d 2cbd 6046 603d 789e 8d3d 1d24 713d
000000c0: aa8b 593d 43bc a13c 79c8 553d 937e 873d
000000d0: 6442 91ba eba3 3fbd 0825 84bd bfab 103d
000000e0: c437 7c3d 5f67 203c 83c7 c6bc 52fd 6c3c
000000f0: d06b 67bd 48e3 543d 8da7 09bd 2f05 943d
00000100: b161 26bd 33ff 95bd 2fdb aa3d 2f4d 72bd
00000110: a311 32bd 7c60 d9bc 05db b33d 481c f9bc
00000120: 6cee 5cbc cb02 96bb 6652 883d cd1c d9bb
00000130: 9f2f f83c f5c9 78bd d41d d73a 3c78 87bd
00000140: 5821 f8bb e6a4 b2bd 30ee 56bc 556a 113d
00000150: 13d8 8a3d 62e3 ac3c 1a23 823d 0a3c b53c
00000160: 1603 9dbd f9fe edbb a29a b3bd dae8 003b
00000170: 8e09 b13d 0121 bb3c cb4d a03d 19c9 a83d
00000180: 48a1 4f3d 853f 22bd 50eb 5b3b dd61 a63d
00000190: d891 7cbb bcf2 96bd 05a1 29bd 33a2 bcbc
000001a0: 5b53 92bd f15a 943d 54c5 a5bd cb21 96bd
000001b0: e3f3 bdbc 10ed c93c e970 883d 2094 03bd
000001c0: 1f5c 553d b0f4 8c3d caeb 3f3d 437c 373d
000001d0: fa46 263d cf13 9c3d eba2 a9bd 603e 7b3d
000001e0: 8912 ab3d d9e8 6ebb f5e7 b8bc e159 633d
000001f0: 85a8 92bd c0e6 fa3a 8c04 71bb 3b08 a13d
00000200: 467c b53c 492c 9bbd 7a41 02bc 4703 ff3a
00000210: 2dec 4e3d d4a8 a4bd 3b54 03bd d9d0 1a3c
00000220: 7c37 f4bc 8777 a33c edf9 253d 8e6b aebd
00000230: 3176 73bd 2af9 80bd a19c 923c 0f53 833d
00000240: 660e e9bc 0bf0 abbd 2409 3f3c 2521 8f3d
00000250: ddcd a43d 8a24 febc c7ac bd3c b000 d6bb
00000260: 25a7 99bd aa9f abbd 1af9 a3bd 8896 8f3d
00000270: c81a 743d 760f 83bd bfdc d33c f8e6 9e3d
00000280: e8a7 3b3d 0df9 f5bc 3c3d 0abd 802f 2abc
00000290: 04f9 003d edff 64bb 31fa 2b3d d3b5 72bd
000002a0: fe85 943c 300f 4f3d aa11 0bbd 700a 983d
000002b0: 767f a7bc 7bc1 203c eb8e 3c3d 6638 a73d
000002c0: 7d3d d0bb 55f2 43bb 0ec8 c43c ff07 3cbd
000002d0: aec6 1fbc 8832 49bd d3f4 0bbd 63a7 8e3d
000002e0: 32b1 70bc df6c 1ebd d349 483d 581d ec3b
000002f0: 7129 d9bc df01 cbbb 3649 96bd 7aa0 6e3d
00000300: b85c 57bc f689 483d 6407 9e3d fcc0 633d
00000310: c38f 7d3d 5f9b d53c 68bb 4e3b 2abb 43bd
00000320: b229 ac3d a230 943a 7a04 54bd d92b 833d
00000330: 8bed 9d3d 3454 13bd b9b9 14bc 39fe 2bbd
00000340: e285 64bd 3b61 d63c 337a aabd c3a5 fa3c
00000350: a992 613d 54a1 8abd 50db 8b3d 53c5 d7bb
00000360: 827a 0dbd 7b65 a2bc 8371 703c d707 8c3c
00000370: 24ad af3d 2b77 db3c 4ae1 ea3c 498f c03c
00000380: a357 dbbc 85e3 9e3c 4622 a03d 6fc9 593d
00000390: d988 133d 63b7 95bd 54c7 c33c 95aa 1f3d
000003a0: 1ff9 35bc 4a72 3dbd 195a 7d3d 5eb7 6d3d
000003b0: 26a9 0a3d de1d 88bb 4063 92bd 979a 57bd
000003c0: e3e8 383d 43d0 ba3c 6463 8b3c 2ba4 9e3d
000003d0: 08d1 0e3d d83e af3d 69fd 61bd 2564 f03c
000003e0: 935b 9fbd 85ed 82bd 5896 8ebd e1ce 68bd
000003f0: 9beb 943d 76db 4b3d 49b9 a43d ee38 b13d
-0.057711627 -0.02153374 0.00605312 -0.015214412 -0.076425634 -0.0071611707 -0.04352568 -0.06167676
0.042640176 -0.033433504 0.054739714 0.06597597 0.026155112 -0.041728973 0.01108421 0.04167315
-0.046912424 -0.008666404 -0.055052087 -0.042980418 0.031582076 -0.08447626 -0.043468814 -0.027141653
0.07627962 -0.042406157 0.07002959 -0.020545661 0.05568119 -0.025646282 -0.08646738 -0.03371552
0.0583323 0.0727719 -0.07088689 -0.06045662 0.0122368205 0.055975936 -0.023499649 -0.049838267
0.03777543 0.007837817 -0.034059383 -0.08006764 -0.042066082 0.054754615 0.06914991 0.05887233
0.05311171 0.01974309 0.05219314 0.06615939 -0.0011082408 -0.046787184 -0.06452376 0.03532004
0.06157662 0.009790271 -0.024265056 0.014464693 -0.056499302 0.051974565 -0.033607055 0.07227551
-0.04062051 -0.07324066 0.08342587 -0.05915564 -0.04347385 -0.026535265 0.08782009 -0.030408993
-0.013484579 -0.0045779697 0.06656341 -0.006625748 0.030296145 -0.060739476 0.0016412088 -0.0661473
-0.0075723343 -0.08722858 -0.013118312 0.035501797 0.06779494 0.021104518 0.06354351 0.022123355
-0.07666604 -0.007263061 -0.08769728 0.001967004 0.086444005 0.022842886 0.07827338 0.08241481
0.05069092 -0.03961136 0.0033557005 0.08124135 -0.0038539078 -0.07370517 -0.041413326 -0.023026561
-0.07144805 0.07243908 -0.08094278 -0.07330664 -0.023187583 0.024649173 0.06662161 -0.032123685
0.052089807 0.06882608 0.046855725 0.04479624 0.040595032 0.07620966 -0.08283027 0.061338782
0.08353145 -0.0036454706 -0.022571543 0.055505637 -0.07161049 0.0019142255 -0.0036776392 0.07862898
0.022153985 -0.07576806 -0.007950181 0.0019455933 0.050518204 -0.08040014 -0.03206275 0.009449207
-0.029811613 0.019954456 0.04052155 -0.08516608 -0.059438888 -0.06297524 0.017896952 0.064123265
-0.028449249 -0.08395394 0.011659894 0.06988744 0.08047078 -0.031023283 0.023153676 -0.0065308437
-0.075025834 -0.08380063 -0.08006497 0.070111334 0.059595853 -0.06399433 0.025862096 0.077588975
0.045814425 -0.030025983 -0.033749804 -0.010387301 0.03148748 -0.0034942583 0.041986648 -0.059255432
0.018130299 0.050551593 -0.033952393 0.07423866 -0.02044652 0.009811754 0.046034735 0.08165054
-0.006354986 -0.002989908 0.024021175 -0.045906063 -0.009751959 -0.049120456 -0.03416903 0.0696552
-0.014690684 -0.038678046 0.04889853 0.0072056465 -0.026509019 -0.0061952914 -0.07338183 0.05825851
-0.0131446645 0.048959695 0.077162534 0.055603966 0.06190468 0.026075063 0.0031544808 -0.047785915
0.0840639 0.0011305998 -0.05176208 0.06404848 0.07711323 -0.035968974 -0.009077483 -0.041990492
-0.055791743 0.02616941 -0.08324089 0.03059662 0.055071507 -0.06769052 0.0682894 -0.006584802
-0.03454066 -0.01982378 0.014675501 0.017093582 0.08577946 0.026790222 0.02867188 0.023505824
-0.026775187 0.0193956 0.07819037 0.053170618 0.03601918 -0.07310369 0.023898758 0.03898104
-0.011106758 -0.046251573 0.061853502 0.0580362 0.03385272 -0.004153951 -0.07147837 -0.052637663
0.045143973 0.022804385 0.017015167 0.07746156 0.034867316 0.08556908 -0.05517331 0.029344628
-0.07781138 -0.063929595 -0.069622695 -0.05683792 0.07271501 0.04976984 0.08043153 0.086534366

embedding.2.bias f4 [128]
00000000: 3eb8 ec3c 5b2e 27bd d831 0cbd 191f afbc
00000010: ad7d d9bc 1f0e a3bd 0e37 8cbd 0a9c 353d
00000020: 3af3 82bd 0d78 adbd 2fb0 993d 045e 993b
00000030: 66c5 12bd b849 82bd 19a8 8f3d 1de5 b33d
00000040: 5dd0 373d 7e86 823d 5381 28bd eb50 ca3c
00000050: fa30 44bd bd59 973d bc3a 3b3d ba01 653d
00000060: 156e edbc 4f74 aabc ffbd 4dbd 470e 19bd
00000070: b138 b73b ebd1 03bc cf05 513d dc4f 82bd
00000080: 6652 593d dc93 16bd bf49 85bc d94e 64bd
00000090: 8822 babc a532 95bd c838 bbbc 56fa 9bbd
000000a0: 20c5 293c d115 8fbd 4f44 fbbc 3921 af3d
000000b0: bc8a 483d 4d21 5b3d 3de4 273d c2f8 e13b
000000c0: 4111 68bc ac89 f7bb 0862 51bd 2afc d4bc
000000d0: 9d84 a1bd 1439 e3bc dc31 813a a532 983a
000000e0: 612b abbd 3309 103d b177 bf3c 8c1b 86bd
000000f0: 4b6f 3d3d cf03 18bd a4bd b0ba 7d32 16bd
00000100: c267 a63d 577c dfbc ccca 413d 9886 b2bd
00000110: 018f febc 2716 653c 3693 4c3d 92e3 883c
00000120: 2bcd cfbc 32c3 b33c e5af 973d 5646 a0bd
00000130: 246c a9bc 6c15 f63c fb5d 9bbd fe5a 833c
00000140: 9dc9 933c c436 6abc ee8d 70bc f6de e73c
00000150: 6245 893d cf1a 4b3d e633 733d cd4a 9b3c
00000160: 8286 c1bc bd9d b3bb 0252 733d 4902 42bd
00000170: 4a53 9fbc 3c0c 54bd 1c61 67bd c351 823d
00000180: 3872 ca3c af4c 6abd fc18 41bd 3843 703d
00000190: 8f48 713c 0220 20bd 742a 36bd b81a 2cbd
000001a0: 784b 2fbc f944 ae3d e688 123c 8ac9 8a3d
000001b0: f4f5 91bd ab2e 07bd ce86 723c cf0c 3fbc
000001c0: 6ac5 403d de2b eb3c 5e4c 073d c1e6 5abd
000001d0: 25ec 32bd b689 7c3c 891e e43c 9a8f 693d
000001e0: 81b9 893d a136 9b3b 0a60 88bd 441b 8bbc
000001f0: e91f 843d 70a6 173d 54ad 98ba c923 d9ba
0.028896447 -0.040815692 -0.034227222 -0.021377133 -0.026549185 -0.07961678 -0.06846438 0.044338264
-0.06394048 -0.084701635 0.075043075 0.004680397 -0.035832785 -0.06361717 0.07014484 0.08783934
0.044876445 0.063733086 -0.04113896 0.024696788 -0.04789827 0.07390163 0.04571031 0.05590985
-0.028983155 -0.020807413 -0.050230023 -0.03736713 0.005591475 -0.008045654 0.05103093 -0.06362888
0.053057097 -0.036762103 -0.016270516 -0.055739257 -0.022721544 -0.0728505 -0.022854224 -0.07616107
0.01036194 -0.06986583 -0.03067222 0.085512586 0.048960432 0.053498555 0.04098915 0.0068961093
-0.01416427 -0.0075542536 -0.05111888 -0.025999147 -0.07886622 -0.027737178 0.0009856778 0.0011611773
-0.08357883 0.035165023 0.023372503 -0.06548223 0.046248715 -0.037113007 -0.0013484252 -0.036669243
0.08125259 -0.02728097 0.047312543 -0.08717078 -0.031074049 0.013982332 0.04994508 0.016710076
-0.025366386 0.021943662 0.07406596 -0.078259155 -0.020681448 0.030039512 -0.07586285 0.0160346
0.018040473 -0.014295284 -0.014682276 0.028304558 0.06702687 0.049586114 0.059375666 0.018956566
-0.023623709 -0.0054814504 0.05940438 -0.04736546 -0.019448895 -0.05176948 -0.056489095 0.06363251
0.024712667 -0.057202037 -0.047142968 0.058657855 0.014726772 -0.039093025 -0.04447408 -0.04201767
-0.0106991455 0.08509249 0.008943772 0.06776722 -0.0712699 -0.03300349 0.014802648 -0.011660769
0.04706327 0.028707441 0.033031814 -0.05344272 -0.043682236 0.015413692 0.027846592 0.057021715
0.06724835 0.004736737 -0.06658943 -0.016980775 0.06451399 0.03702396 -0.0011648335 -0.0016566451

actor.0.weight f4 [128, 128]
00000000: dbb3 9238 f33d 523d 13d1 b23c 14dc 95bc
00000010: 3c9d 3fbd 81a7 813b 4802 91bd 16ff 7f3d
00000020: 1134 b43c 9c83 2dbc e494 28bc e821 9c3d
00000030: e377 a2bd 2859 34bd 9044 b639 3d9b 273d
00000040: 615b 553d 71f0 b23d 6492 c23c b1ce 2b3d
00000050: 5834 95bd 3210 aa3d e4f4 8abd 0efd a2bd
00000060: 5440 49bb 4faf 80bc 1af1 a83d 9bb2 793d
00000070: 4801 0b3c bde3 4dbd 45c3 093d d1f3 4fbd
00000080: 5846 703d 2d1f 883d 93f3 70bc 375f a33d
00000090: 231c 293d b44e 47bc 253d 4c3d d30c 273d
000000a0: becb 3a3d 5af8 9bbd d87b f23b b28c 6bbd
000000b0: 1de4 de3c 3869 6d3d 8aeb 963c 9893 403d
000000c0: 4349 0d3d 7c32 9f3d 8b02 aabd 0f0a f33b
000000d0: d970 b13c 58b0 813d e782 a5bd 2a1d 983d
000000e0: a708 563d 4749 003d 6718 c43c 3bf3 af3d
000000f0: 826e a83d b2d2 33bd 6fa3 c53b f013 4dbc
00000100: fac9 a0bd e99a c03c 70a3 42bd 14b4 d13c
00000110: cbab a63b 3828 6b3d f7b7 55bd 98b0 5a3d
00000120: ed0f 8bbd 62f4 483d fc97 7c3d 30e6 ae3d
00000130: 522b 483d 7784 60b9 4fec 653d a9fd 84bd
00000140: dd3a 09bd a9a5 8abd 6a3f 913d 6450 3bbd
00000150: c76b 2f3d 4b8e 553d 08ee d23c bfbf 1ebd
00000160: cfc8 e93c 22d4 61bd d302 ab3d 39a3 b23d
00000170: 2a99 663b 3554 01bd 751d 7c3d a7a3 7c3c
00000180: 6e6d 92bc f99f 903d 78a7 79bd 2491 6abd
00000190: 81a7 a93d fff2 303d a772 993c 8fc2 273d
000001a0: 81ad aabd 423c 9fbd 9052 423d b9f2 59bd
000001b0: 15c4 67bd 65bd abbd e182 a93b 7c60 b33b
000001c0: 8121 87bd eb46 fb39 8f63 0d3b 16ff 333d
000001d0: 6117 dfbc 69b6 90bd 7823 283d 7010 123d
000001e0: 9d98 a8bd 711e 28bd ad92 81bd b8ed 8ebd
000001f0: 3d49 57bd a105 43bd 0675 f0bc dad6 693d
00000200: 659f 093d d8b8 4c3d 7cb4 b43d e694 96bd
00000210: 6a83 b03c b2b2 143d 4e98 72bc 452c 29bd
00000220: efb9 0b3d ad62 853d 44c4 8fbc 9ae5 783d
00000230: 7393 293d ed7d 94bd e144 81bd 0952 653d
00000240: ae66 95bd cc1e 34bd 818c 503c 7d05 93bd
00000250: 47b7 c53c d29b 043d 4827 a03d bba5 93bd
00000260: a2ef 8437 2b39 6bbd aa5a b33d 6d24 e13c
00000270: 6a7d 76bd d932 78bd 051c 52bc b4d1 2cbd
00000280: 5e9d c3bc 229e 833d 4873 8dbd d779 883d
00000290: a266 653a 414c 46bb c12b 9b3d bc47 3e3d
000002a0: be3e 2fbc 96d4 17bd 1617 be39 ead3 52bc
000002b0: 8abe d33b f210 af3d 524c adbc 75a1 b23c
000002c0: 50c8 3fbd fcf6 5ebc 4747 adbd 4466 37bd
000002d0: e7e3 b43d dec0 9bbc aab5 17bb 5115 19bc
000002e0: 6895 4d3d a63f ad3d 924f 703d 4ae8 9abd
000002f0: e6e4 a5bc 86e6 983d 623b 813c 612c 893c
00000300: 29ec 893d 18b1 af3c f2bf 8dbc 4029 c7bc
00000310: 04b1 753d 9547 0d3d ce3a a4bd 8c0e 77bc
00000320: c3c4 c8bb 2006 36bd 81c2 5a3d 87d3 2abd
00000330: af33 61bd eb0c 15bd c032 86bd 6f89 923d
00000340: 3d90 703d 84ea 6abd dcd2 5dbc 6575 023d
00000350: 195a bcbc 71c3 0cbd 5aac 71bd f8d7 2abc
00000360: f54b 96bc d9a7 8d3d 6637 b9bc e9cf 97bd
00000370: db02 6fbd ed81 a23d ed12 11bc ee40 96bd
00000380: a046 30bc a531 803d 7e28 8e3d 1e98 3dbd
00000390: 8dc0 cf3c e6ce 21bd d471 893d 8909 903d
000003a0: a232 d9bc ce94 17bd 41c8 9f3d 62be a53d
000003b0: b14d 853d 540a 0bbd fbed 27bd 1e22 ecbb
000003c0: 4c8b 88bd b0f2 f93c 28ba a43d 20d5 a0bd
000003d0: e69c 963c ccce 983d 646c a1bd 4f0a eebc
000003e0: 4dcd ae3d 2485 de3c dc7a a63d 43d6 c83b
000003f0: a0b7 2bbd 020b 19bd 6daf 46bb e8bf 84bd
6.995323e-05 0.05132861 0.02182821 -0.018293418 -0.04678081 0.0039567356 -0.07080513 0.06249913
0.021997483 -0.01059046 -0.010289405 0.076236546 -0.07933023 -0.04403034 0.00034764828 0.04091953
0.0520891 0.08737267 0.023751445 0.041945163 -0.072853744 0.0830387 -0.067849904 -0.079584226
-0.0030708509 -0.015708594 0.082491115 0.060961347 0.008484192 -0.050266016 0.03363349 -0.05076963
0.058660835 0.06646571 -0.01470651 0.07977145 0.0412866 -0.01216476 0.049863 0.040783715
0.04560446 -0.07615729 0.007400017 -0.057507224 0.027208382 0.057961673 0.01842286 0.047015756
0.034493696 0.07773301 -0.08301266 0.0074169706 0.021660255 0.06332463 -0.08081608 0.074274376
0.052254345 0.031319883 0.023937417 0.085913144 0.08224203 -0.043902107 0.0060314457 -0.0125169605
-0.07851024 0.023511367 -0.047519147 0.025598563 0.0050863973 0.057411402 -0.052177396 0.05339107
-0.06790147 0.049061187 0.06166838 0.085399985 0.04886944 -0.00021411652 0.056133565 -0.06493694
-0.033503402 -0.067698784 0.070921734 -0.045730963 0.042827394 0.052137654 0.025748268 -0.038757082
0.028538136 -0.055133946 0.08350148 0.087225385 0.0035186508 -0.031574447 0.06155153 0.015419877
-0.017874446 0.07061762 -0.060950726 -0.057267323 0.08283902 0.04320049 0.018731428 0.04095703
-0.083338745 -0.07775165 0.04744202 -0.053209994 -0.056583483 -0.083857335 0.0051730727 0.0054741483
-0.06598187 0.0004792729 0.0021574234 0.04394444 -0.027232828 -0.07066042 0.04104945 0.035660207
-0.08232234 -0.041044656 -0.06326804 -0.06978935 -0.05256008 -0.04761279 -0.029352676 0.057089664
0.033599276 0.04998097 0.08823487 -0.07352619 0.021547038 0.03630323 -0.01480682 -0.041301984
0.034112867 0.065129615 -0.017549641 0.06076584 0.041400384 -0.07250581 -0.06311966 0.055986438
-0.07294975 -0.043974683 0.012728811 -0.07178781 0.024135245 0.032375164 0.07819992 -0.07209345
1.5847214e-05 -0.057427566 0.08757527 0.02748319 -0.060178198 -0.060595367 -0.012824063 -0.042192176
-0.02387875 0.06426646 -0.06906754 0.06663864 0.000875095 -0.0030257853 0.07576705 0.04645513
-0.010696111 -0.037067972 0.00036256824 -0.012867907 0.006461923 0.08548154 -0.021154556 0.021805504
-0.046821892 -0.01360869 -0.08460861 -0.044775262 0.088325314 -0.019012865 -0.0023149052 -0.009343461
0.050191313 0.084594056 0.058669634 -0.07563837 -0.020250749 0.07465844 0.015775386 0.016744794
0.06734497 0.02144675 -0.01730344 -0.024311662 0.05998327 0.034492094 -0.080190286 -0.015079152
-0.0061269714 -0.044439435 0.05340815 -0.041705634 -0.05498093 -0.036389273 -0.065526485 0.0715512
0.058731306 -0.057352558 -0.013539042 0.031850237 -0.02299218 -0.034366075 -0.059002258 -0.0104274675
-0.018346766 0.0691678 -0.022609424 -0.074127026 -0.058352333 0.079349376 -0.00885461 -0.07336603
-0.010759026 0.06259469 0.06941317 -0.04628765 0.02536037 -0.039503954 0.06711164 0.07033069
-0.026513401 -0.037007146 0.07801867 0.08092953 0.06508959 -0.033945397 -0.04099844 -0.0072062155
-0.06667194 0.03051123 0.08043319 -0.0785315 0.018385362 0.074613184 -0.07882002 -0.02905765
0.08535252 0.027163096 0.08128902 0.0061290576 -0.041923165 -0.037364013 -0.0030316964 -0.06481916

actor.0.bias f4 [128]
00000000: dcf3 ecb9 25c5 9bbd 434b 353c 1993 98bd
00000010: 1797 4cbd ffec 8a3b 1e73 80bd 756a 47bc
00000020: 5ffd 323d dace 7cbd c91e c13c 7d8d 823b
00000030: 2b65 6abc 7994 52bd ae96 b93b f21e 483b
00000040: 6bc4 1c3d af2f 993d 3152 74bd 315c e3bc
00000050: b3f5 563c 3d75 913c 29dc 423d 34aa dd3c
00000060: 03a4 d1bc 68b4 a0bd 7db8 a4bc 7b6b 20bc
00000070: 98c2 e2bc 41c0 1ebb 9cdb d1bc abd2 32bc
00000080: d754 0dbd c459 a33b cb3a 953c 46fc a4bd
00000090: 9f7f 893d e41e 6abd e2f7 203c 2582 febb
000000a0: 6d47 c03c c5ce 993d c8ac 04bd 7ef1 983d
000000b0: a0db 96bd d303 113d 9476 b43c b48f 94bd
000000c0: 04fb 0c3d 784e 813d ae08 213d 96d8 3bbd
000000d0: 55f0 823d 3e19 013c 3c00 bbbc 3a33 79bd
000000e0: 161d 8abd 7aa9 88bd 91bf 51bd be90 75bd
000000f0: 93ea 2c3d 5c3a 743d e905 ad3d 2431 95bd
00000100: 17a1 4c3d c002 9bbd bd83 4dbd 5ceb 8a3c
00000110: 2bbd f9bc 1807 28bd 2f54 30bd 5cfb 213d
00000120: 4c08 223b 3caf da3c c05c 703d 2972 e23c
00000130: ff64 19bb 37ed 133d 2573 293d b454 923c
00000140: edbc 38bd 039e 3ebc 0327 f23c 42bc 7ebd
00000150: 8172 a93d 074a 30bd 6248 c7bc d5b3 b4bc
00000160: cd82 c4bc 8519 7b3d 21cb 84bd c1b7 a5bd
00000170: 4bc0 9d3d d00d 43bd 80bd cf3c 89b5 1abd
00000180: 2376 62bd 147a febc 00fb 593d 9bbd 69bd
00000190: 099e 013d a398 913d ff28 943d 3f7b 883d
000001a0: 039b 83bd 9155 23bd 4307 85bd 8129 013c
000001b0: 222b db3c f582 2bbd d511 a43d bc94 c63a
000001c0: a706 813d 3430 5d3d b5e0 f8bb 2841 7ebd
000001d0: 678e b2bd ec3a a83d 8b49 5ebd f1ed 8a3d
000001e0: f200 1f3d df9e fe3a cdef 803d 33a8 ad3c
000001f0: 7b4d 09bd be54 f8bc 3859 a2bd 792d 18bc
-0.00045195117 -0.07605962 0.011065307 -0.07449932 -0.049948778 0.004239678 -0.06271957 -0.012171377
0.043698665 -0.061720707 0.02357425 0.003984152 -0.014306347 -0.051411126 0.0056637144 0.0030536023
0.038273256 0.07479798 -0.059648696 -0.027753921 0.013120103 0.017756099 0.047573242 0.027058698
-0.025590902 -0.0784691 -0.020107502 -0.00979125 -0.02768068 -0.002422348 -0.025617413 -0.010914485
-0.034504738 0.004985066 0.018216511 -0.0805593 0.06713795 -0.057158366 0.009824725 -0.0077669793
0.023471558 0.07510141 -0.03239134 0.07467936 -0.07366109 0.035404038 0.022029199 -0.07253972
0.034419075 0.06313795 0.03931492 -0.04586085 0.06393496 0.007879553 -0.02282726 -0.06083987
-0.06743829 -0.0667295 -0.051208083 -0.05995249 0.042215895 0.05962597 0.08448393 -0.072847635
0.049958315 -0.07568884 -0.050174464 0.016957931 -0.03048571 -0.04102239 -0.043049034 0.039546356
0.0024724184 0.026694886 0.058682203 0.027642326 -0.0023406146 0.036114898 0.041369576 0.017862655
-0.04510205 -0.011634353 0.029559618 -0.062191255 0.08273793 -0.043039348 -0.024326507 -0.022058407
-0.023988152 0.061303634 -0.06484056 -0.08091689 0.077026926 -0.047620595 0.025358915 -0.03777078
-0.055288445 -0.03106407 0.053217888 -0.057065587 0.031644855 0.07109191 0.07234382 0.06664132
-0.064260505 -0.039876524 -0.06495526 0.00788343 0.026753966 -0.041872937 0.08011214 0.0015150527
0.06300097 0.05400105 -0.0075951465 -0.062073857 -0.08718567 0.082143635 -0.054269355 0.06783665
0.03881926 0.0019426009 0.06295738 0.021198368 -0.033521157 -0.030313846 -0.079271734 -0.009288185

actor.2.weight f4 [5, 128]
00000000: 3a7f d4bc bb2a a8bd b4ea 0f3d 3670 933b
00000010: 2c9c 63bd fef4 6bbc 9883 663c f9e5 a93d
00000020: 7be6 f73c a269 9abc e482 9ebd 3919 4c3d
00000030: 18bd ac3d e2e1 abbc 61d9 9cbd 6bf0 743d
00000040: 34b2 a53d 2d8f ae3d eff0 983d c4e1 313c
00000050: 83db e33c 1784 8ebd 6993 96bd f868 f73b
00000060: adde 17bb 39e5 d9bc 25ac 6abd faeb 9bbc
00000070: 70f3 5abd c850 8cbd 748f ec3a 739c 813d
00000080: edff 9ebd 0cc1 3ebd 2b39 0a3c edb0 4bbc
00000090: 6e12 fc3c 63fd 463d dabb 9e3d c901 bebc
000000a0: 6bb9 b53c 1979 62bd 2a8c 923d 19b2 403d
000000b0: a38b 623d 2fd3 a73d 3d40 86bd 8e0a 84bd
000000c0: 0c06 a0bd 159d 43bd c1f6 4f3d 8858 a63b
000000d0: f7b2 263d efea ae3d 4089 123b 7c1d 573d
000000e0: 7f95 22bc dfa5 a7bd 5f36 65bc 15ed fc3c
000000f0: 61bf 75bc 23a9 933d 9805 28bd 6e33 46bd
00000100: b885 01bd 43d3 11bc 4e28 b5ba 13f9 fd3c
00000110: 8df6 88bd 08d2 40bd 1dd8 87bd 3557 33bd
00000120: 53c1 883d 572b 97bd 6c6c 04bc 75e4 fd3c
00000130: 0f6a aabc 03a4 6a3c 33e3 853d 32a1 ac3d
00000140: 89be bbbc 8b50 76bd 6be0 ce3c da45 883d
00000150: 85a7 c13b 38ea f6bc e095 243d 81da 4dbd
00000160: 6031 4abd 1b13 a53d 6fcd 683b 2191 8e3d
00000170: ad23 3b3c 4ec0 dcbc 177c b23b c4a9 b0bd
00000180: c393 cabc dde4 0e3d aecf 72bd 4de9 893d
00000190: bbd7 29bc d6ea 2dbd 4ff1 afbd 9f70 8bbd
000001a0: 3194 013d 3948 68bd b0b9 38bd ab25 433d
000001b0: 8eb2 92bd 8713 25bb 4018 593c c31c 67bd
000001c0: 1b1a c4ba 9769 22bd c1e6 34bd 813b 833d
000001d0: 4017 67bd 6726 203b fc1f 85bd 439d 91bd
000001e0: 4039 7dbb 7f67 9ebd 25e4 823d 272e 2abd
000001f0: 49e7 16bd a12b 42bd d668 d5ba 9f35 e9bc
00000200: c8fa ae3d c6e9 03bd 3556 d5bc 42b0 1e3d
00000210: 7fa2 3aba 0c6e 56bd 0564 9abd f6c5 4b3c
00000220: ffa2 9abd fb05 5a3d 1df3 8fbd d0d4 643d
00000230: 935d 973d 4fae 573d 95fd f9bc 8a26 76bd
00000240: 306e 763d 7b9e a03d 35ab b1bc 295d 1abd
00000250: 8f80 9e3d 1d91 22bd c646 acbd 16c3 373d
00000260: fd47 ab3d 729b 6dba 6e82 903d 31ac 65bd
00000270: 6a69 70bd b0fc 7bbc 9c9b a93d e7c4 e4bc
00000280: 04f3 2abb c8e9 793b fb08 29bd 3b35 35bd
00000290: d2ca 9abd bb50 9abb d26a e73b 8a90 ab3d
000002a0: 9540 953c 80c8 d43c ce38 6fbd c44a b1bd
000002b0: 18f9 a23d 9c92 3c3d b63d 89bd 5053 6abc
000002c0: 26c9 8fbc e1c9 b23d 7bb8 67bd b9bf 053d
000002d0: 8e32 38bd 7d10 993d abfe 243b 4d32 a53d
000002e0: d9c8 8e3c 90d1 af3d 4267 22bd 9c26 963c
000002f0: eac0 963d 85aa a43d 84f7 de3b 23dc b03d
00000300: d96d abbd c310 fa3b 6104 9abd b8a6 07ba
00000310: 4607 97bb 50cb 01bd 50e6 a2bd 6330 71bd
00000320: 2f63 bbbb 5d8d c4bb cbe1 0ebc 25da 85bd
00000330: 810c fdbc b602 303d 9638 4b3d 8b2a a33d
00000340: 1606 b43d 112c 5abb a828 6c3c 6b21 7d3d
00000350: bfeb 71bd 892d 9b3d b9c8 a1bc 0591 293d
00000360: 7774 43bc 4d00 843d 991a 213d f79f da3c
00000370: e6ea 963d 8116 dd3b d7eb 29bd bcc5 093d
00000380: 559f 24bd b9cf 1e3c dcc2 293d 9a6b 5b3d
00000390: 14dc 11bd 8d78 9c3d 1db1 51bd 0f07 8d3d
000003a0: f0bf 28bd ef52 493d 59b9 79bd fdaa 203b
000003b0: 4825 1b3d cb59 f6bc 8391 083d 602f 573c
000003c0: 0e2c 1dbd 129f 383d 41ce 6c3d 76e9 cd3c
000003d0: f3fe 0ebd 8d65 3fbc 9d37 623d c660 913c
000003e0: f82d 5e3d 4d01 933d b5b0 68bd 9793 82bd
000003f0: c9ca 93bd 04be 813d cef3 cdbc e564 743c
-0.025939573 -0.08211275 0.03513594 0.0044994606 -0.05556886 -0.014401672 0.01406946 0.08295817
0.030261269 -0.018849198 -0.07739809 0.04982874 0.08434504 -0.020981733 -0.07658649 0.059799593
0.0809063 0.08523402 0.074678294 0.010857049 0.027814632 -0.06958788 -0.07352335 0.007550355
-0.0023173497 -0.02659856 -0.057293076 -0.01903342 -0.053454816 -0.06851345 0.0018048123 0.063286684
-0.07763658 -0.046570823 0.0084364815 -0.012432319 0.030770507 0.048581492 0.077506736 -0.02319421
0.02218314 -0.05529127 0.071556404 0.047044847 0.05530895 0.08194577 -0.06555221 -0.06447326
-0.07813653 -0.047757227 0.050772432 0.0050764717 0.040698018 0.08540904 0.002235964 0.052518353
-0.009923338 -0.08185934 -0.013990014 0.030874768 -0.014999242 0.07209995 -0.04102096 -0.04838889
-0.031621665 -0.008900466 -0.0013821216 0.031002557 -0.06687651 -0.0470753 -0.06633017 -0.04378434
0.06677499 -0.07381313 -0.00808249 0.030992726 -0.020802526 0.01432133 0.065374754 0.08429183
-0.022918003 -0.060135406 0.025253495 0.06653948 0.0059098625 -0.030140981 0.040181994 -0.05025721
-0.049363494 0.08060285 0.0035522839 0.06961275 0.01142208 -0.026947167 0.0054469216 -0.0862613
-0.024728661 0.03488623 -0.05928009 0.06733952 -0.010366376 -0.042460285 -0.08590948 -0.0680859
0.031635467 -0.056709502 -0.04509896 0.047643345 -0.07162963 -0.002518864 0.013250411 -0.056423914
-0.0014961393 -0.03965148 -0.044165377 0.06407834 -0.056418657 0.0024436952 -0.06500241 -0.071100734
-0.003863886 -0.07734584 0.06391171 -0.04154792 -0.036841664 -0.04740489 -0.0016281854 -0.028467951
0.085439265 -0.032205366 -0.026042083 0.03874231 -0.0007119551 -0.052351043 -0.075386085 0.012437334
-0.0755062 0.05322836 -0.07028792 0.055867016 0.07390895 0.052656468 -0.030516425 -0.060095347
0.060163677 0.07842728 -0.021688083 -0.0376865 0.07739364 -0.039689172 -0.084119365 0.044863783
0.0836334 -0.00090639957 0.070561275 -0.056072418 -0.05869428 -0.01538007 0.08281633 -0.027925922
-0.002608479 0.003813373 -0.04126833 -0.044240218 -0.07558216 -0.004709331 0.0070622945 0.08377178
0.018219272 0.025974512 -0.058403783 -0.086568385 0.07957667 0.046038255 -0.067012236 -0.01430209
-0.01755197 0.087299116 -0.05657242 0.032653544 -0.044970088 0.07473848 0.0025176208 0.08066235
0.017429756 0.08584893 -0.039649256 0.018328957 0.07361014 0.080403365 0.0068044085 0.08635738
-0.08370561 0.0076313927 -0.075203665 -0.00051746843 -0.0046090214 -0.031688035 -0.07954085 -0.058884036
-0.0057186107 -0.005998297 -0.008720825 -0.065357484 -0.030889751 0.042971335 0.04961451 0.07967099
0.08790223 -0.0033290426 0.01441399 0.061799448 -0.059062716 0.075770445 -0.019749032 0.041398067
-0.011929623 0.0644537 0.039332006 0.026687605 0.07369022 0.0067470674 -0.04148468 0.03363584
-0.040191013 0.00969308 0.041445598 0.053569414 -0.035610273 0.07640181 -0.0511943 0.06886112
-0.04119867 0.049151357 -0.060967777 0.002451598 0.03787735 -0.030072113 0.033341896 0.013133854
-0.038372092 0.045073576 0.057813887 0.025135737 -0.034911107 -0.011681926 0.05522882 0.01774634
0.054243058 0.071779825 -0.056809146 -0.06375807 -0.072164126 0.06335071 -0.02514067 0.014916633

actor.2.bias f4 [5]
00000000: 402f fb3c aba3 d3bb be30 36bd 225a 5fbd
00000010: d5e8 a2bd
0.030662179 -0.0064587197 -0.044480078 -0.054529317 -0.079545654

critic.0.weight f4 [128, 128]
00000000: 100c 2dbb af0c 13bc 1e60 903b 3184 c93c
00000010: a409 a83d 5dc5 32bd a25d 23bd a676 c8bc
00000020: 33f6 9a3d 8c7d 61bb 752b f13c c34d 953d
00000030: 7848 813d 6b07 843d ef25 58bd 835c 3dbd
00000040: 3b41 873c 2bb8 483c 52f1 8cbd cbf1 c93c
00000050: f8de 8b3d 9d7f 193d 7a71 5bbd 7bb9 b0bd
00000060: 466d 8abd 5066 8cbd 3ff7 0f3c 70e5 823c
00000070: efee 6e3d 0f04 54bc 1d8f 803d 787e 853b
00000080: f0b3 a4bc bab9 8fbc d01b 84bd fcfc 8ebd
00000090: 73e5 b2bd 3e80 a43d 6a13 26bd 8408 9aba
000000a0: f023 143d 8ac4 d53c b6a7 cf3c 15bc 2c3d
000000b0: c19d 1fbd fa37 4dbd a551 98bc 83b1 cd3c
000000c0: e11e fbbb 50a7 86bd 9352 27bd f3c3 87bd
000000d0: fca1 e53c c7f1 ae3d 1f95 913b 2680 953d
000000e0: 8e15 9abc c83c 54bd 1a73 843d bc28 b43d
000000f0: 1de1 ff3c b033 45bd 0e55 eb3b 2c08 8dbd
00000100: 3039 3fbd efba 2a3c 843b 9e3d 4203 463d
00000110: 25ce a13d 3172 cb3c 10f6 653d 05dc a3bd
00000120: 311d 97bb 73f2 283c d505 2d3c 78de 343d
00000130: e2e2 19bd e8a2 4dbd 7a92 cb3a 41e7 03bd
00000140: abae 003d 47fd 8ebd d18d d7bb d46c 37bd
00000150: e208 74bc 5314 80bd bb44 85bc cc3e 443d
00000160: f512 203a f3a3 243d 1abe a3bd 59ac 0dbd
00000170: 947d 39bc ac0a b93c 069e 12bc ee34 3e3d
00000180: 17d0 1b3d d6e2 a23d b0ba aabc ad28 943d
00000190: cfb8 4c3b e1e7 aaba 27b0 9ebd 7d1b 133d
000001a0: 1fbd 193d e3ae 09bd ca8d 003d 40cb bdbc
000001b0: 315b 073c 2012 3cbd 49fd 3c3d 17b9 8c3d
000001c0: 1f06 a4bc 4a7b 9abc 54de 8ebd 9d9a 9ebd
000001d0: 6284 a43d d8d5 0b3d b09f 04bc c4b1 b2bd
000001e0: 278c a73d 6d64 733d 2986 b33c d9a6 b3bd
000001f0: d89c 983c 7318 983d 0f33 bfbc 1557 5bbd
00000200: ae6b 633d 7edf ac3c 148f 33bd 5351 4f3d
00000210: 3607 053d a23a 013d be4e 5f3d 38e7 4f3b
00000220: 1553 abbd e09e 6abd 2c33 b2bc 2477 5cbb
00000230: 0f2e abbd f41a f93b 554b 063d 585f 3a3d
00000240: 467c b13d 6edb e2bc 12fa 313c 48ef 043c
00000250: baba c0bc 2cb2 173c 8465 5fbc dcda 99bd
00000260: b908 383d 39e2 32bc bc3d 4dbd 98ce a7bd
00000270: d497 24bd c916 843d 006f acbd 0d94 8dbd
00000280: da13 033d 2a09 85bd aaf9 33bd 4a1f a7bd
00000290: 9ea5 0d3d d3dc fbbb 6494 3ebd e580 17bc
000002a0: 10b0 a33d 6178 9d3c ad44 2fbd 112a 23bd
000002b0: 21ea 093d 856a f2b9 9993 8bbd dcc5 da3b
000002c0: f289 303d 4c75 66bd a586 96bc b69e 6abd
000002d0: e840 aa3d 933e 81bd 7948 5cba 0c2e 57bd
000002e0: 27c5 433d 7803 9c3c 7605 00bd 408d bcbc
000002f0: ff85 35bb 9425 a73d a8c1 ab3d 4adc 97bc
00000300: 1678 87bd a9f7 a4bd 8d8a 13bc 27b0 a93d
00000310: 5373 4ebd 91c2 743d eb38 833c 9e64 0dbb
00000320: bcc2 a13b 337c d8bb c612 61bd 6574 59bb
00000330: cc6f e6bb c07f debc b313 f6bc fb7d 36bd
00000340: fc4b edbb d583 353c b74d 5bbc d997 ac3d
00000350: 0e9f 3bbd dfe6 0fbd 7459 213d c7ec 90bd
00000360: fc4a 553d e063 973d 673e 353b 7d45 f1bc
00000370: 92f1 8e3b 7f3a a13d 1443 413d 358f 1a3d
00000380: 071c 893c 1a93 c1ba a800 5cbc 06cf 60bc
00000390: b70f b2bd 0f07 9ebd 8817 1c3c 4c38 883c
000003a0: 0322 1d3d 4aea b6bb f1fa 3abd 8217 183d
000003b0: 3719 c1bb 59f3 a2bd 32c4 b3bd e275 36bb
000003c0: d2cd 01bc caaa 8cbd f828 933d 8d4b 823d
000003d0: 29af babc a11c ccbc 8dec 413c a6f9 2d3b
000003e0: 8964 d83c e9bb c23b ccc7 cbbc 6626 193d
000003f0: f456 563c 671f a7bd c0a9 c63c 988d 0e3d
-0.0026404895 -0.008975192 0.0044059893 0.024599167 0.08204964 -0.04364525 -0.039884217 -0.024470638
0.0756649 -0.0034407107 0.029439667 0.072902225 0.063126504 0.06446727 -0.05277055 -0.046230804
0.016510596 0.01225094 -0.06881966 0.024651429 0.06829637 0.037475217 -0.053575017 -0.086291276
-0.067591235 -0.06855452 0.008786975 0.015978545 0.058333334 -0.012940421 0.06277297 0.004073914
-0.020105332 -0.017544616 -0.06450617 -0.06981847 -0.0873517 0.08032273 -0.04054586 -0.0011751805
0.036167085 0.026094694 0.025348525 0.042171557 -0.038968805 -0.05010221 -0.018593619 0.025109058
-0.007663593 -0.06574881 -0.040850233 -0.06629171 0.028031342 0.08542209 0.0044428254 0.07299833
-0.018809106 -0.051815778 0.064672664 0.08796832 0.031235272 -0.048144996 0.00718177 -0.06886324
-0.046685398 0.010420545 0.077261955 0.04834295 0.07900647 0.024834724 0.056142867 -0.0800095
-0.004611634 0.010311711 0.0105604725 0.044157475 -0.037569888 -0.050204188 0.0015531324 -0.032202963
0.031416576 -0.069819026 -0.006578185 -0.04478152 -0.014894696 -0.062538765 -0.016268125 0.04791145
0.00061063404 0.040195417 -0.07995243 -0.03458819 -0.011321444 0.022588097 -0.008948809 0.046437196
0.038040247 0.07953422 -0.020840973 0.07234321 0.0031238084 -0.0013039076 -0.07748442 0.035914887
0.037533876 -0.03361405 0.03138522 -0.023168206 0.008261488 -0.045915723 0.04613999 0.068712406
-0.02002245 -0.018857617 -0.069759995 -0.07744334 0.080330625 0.034139484 -0.008094713 -0.08725312
0.08181029 0.059421945 0.021914558 -0.08772058 0.018629476 0.07426538 -0.023339776 -0.053549845
0.055522613 0.021102663 -0.04383762 0.050614666 0.03247758 0.031550057 0.054518454 0.003172351
-0.08365456 -0.05728042 -0.021752916 -0.003364035 -0.08358394 0.00760209 0.032786686 0.045501083
0.086662814 -0.027692523 0.010862844 0.00811369 -0.023526538 0.009258788 -0.013635043 -0.07512447
0.044930194 -0.0109181935 -0.050107703 -0.081937015 -0.040183857 0.064496584 -0.08419609 -0.06913004
0.032001354 -0.064958885 -0.04393927 -0.08160265 0.034581773 -0.0076862364 -0.046528235 -0.009247039
0.07992566 0.01922244 -0.042790104 -0.03983504 0.03367055 -0.000462372 -0.068152614 0.0066764187
0.043100305 -0.056264207 -0.01837475 -0.057280265 0.08313161 -0.06310763 -0.0008403133 -0.052534148
0.04779544 0.019044623 -0.031255208 -0.023016572 -0.0027698276 0.08161464 0.083865464 -0.01853766
-0.066147014 -0.0805505 -0.009005201 0.082855515 -0.05040295 0.059755865 0.016018352 -0.0021574865
0.004936544 -0.0066066026 -0.054949544 -0.0033180949 -0.00703237 -0.027160525 -0.03003869 -0.044553738
-0.007241724 0.0110787945 -0.013385228 0.084274 -0.045805983 -0.035132285 0.03939195 -0.07076412
0.052073464 0.073920965 0.0027655603 -0.02945208 0.0043622935 0.07872485 0.04718311 0.03773423
0.016736997 -0.0014768571 -0.013427891 -0.013721233 -0.086944036 -0.0771619 0.009527095 0.016628407
0.038362514 -0.0055821287 -0.045649473 0.037131794 -0.0058928984 -0.07956571 -0.08777656 -0.002784126
-0.007922607 -0.06868513 0.071855485 0.063620664 -0.022788601 -0.024915995 0.011836183 0.0026546507
0.026415126 0.005942811 -0.024875544 0.037390135 0.013082255 -0.081602864 0.024250865 0.034803003

critic.0.bias f4 [128]
00000000: 6b18 f83b 81bc 8ebd e76c 6a3c b3e2 f3b9
00000010: 9ffc cdbc cc5c 4c3d ab2c a3bd 01cd 0dbc
00000020: ce64 143d 57d9 febc 78d1 373d e440 043c
00000030: 268f 1f3d c648 853c 111f c63c 56f6 b43d
00000040: 1f69 493d 69b6 9fbd 6c21 65bd cd70 793d
00000050: 0498 893d fd24 353d 06d7 92bd a603 283d
00000060: e4df 9b3b 1aa5 953b 05fa 2e3d 7eb7 9dbd
00000070: a5d4 f3bc 5edc 58b8 fbd0 2d3d 8ba0 d1bb
00000080: c294 74bc 1719 ab3c 26e3 2abd d18d 9dbd
00000090: addb 073d 83e9 a13d a18b f93c 5d1e 693d
000000a0: ffca 503c af6c c83c f9e4 c53c 2772 833b
000000b0: 4e2b 803d 89d3 b03d a54b 34bc f705 2dbc
000000c0: 222b 6c3c 6db8 5ebd 18f9 993c 06ef 763d
000000d0: 3b33 03bd 3bd9 1d3d 2e6a 9fbc a2b1 f9bc
000000e0: e34f 3c3b 052a e53c fd9e b939 5a2e 54bc
000000f0: 538d 92bd c38c 583d bee6 6b3d 421e a53d
00000100: 651b f13c 4441 6b3d b7d9 a9bd 875c 16bd
00000110: 8398 98bc a81f b0bd 9778 963c d518 a3bd
00000120: 1d59 903c 1687 de3c 34ed 523d 7e59 adbb
00000130: d0f3 973d 02c0 933d 5f34 abbd c705 223c
00000140: 48ac aabd 76fe 58bd f3cb 0e3d 2337 9a3d
00000150: 4799 a7bd 054e b4bd 34c5 81bb 19ed f53c
00000160: 5a0a af3d 58f1 e3bc 3e63 383d 3c12 cd3c
00000170: ab11 e13c 3e94 83bd f694 9f3d b85f b2bc
00000180: 307d a93d cb10 dfbc 65cf 2ebd 174f cd3c
00000190: 587a 213b 50fd 3d3d 6ace 3c3c 3b3d 37bd
000001a0: 0051 b03d 3a70 91bd b0d2 af3d a5be 063d
000001b0: 3b7f 8dbd 5854 07bb 9571 04bd 27c1 76bd
000001c0: b5ba 05bd d8fd e9bb efcd 31bd 3f63 3c3c
000001d0: f9ef 5fbd 2984 0b3d 0b61 b0bd efb5 70bd
000001e0: abd9 5d3d 5045 c33c 9927 1e3d 8a4b 093c
000001f0: a757 62bd cb67 803d cb3e 8cbc 3d20 1cbc
0.00757127 -0.06969548 0.014308191 -0.00046517476 -0.025144873 0.049893185 -0.07967504 -0.008654834
0.036228947 -0.031109495 0.0448775 0.008072112 0.038954876 0.016270053 0.024184735 0.08836047
0.049172517 -0.07798464 -0.055940077 0.06089859 0.06718448 0.044224728 -0.07169919 0.041019104
0.0047569145 0.004566801 0.042718906 -0.07701014 -0.029764483 -5.1703646e-05 0.042435627 -0.006397312
-0.014928045 0.020885987 -0.041720532 -0.07693065 0.033168484 0.07905867 0.030462088 0.056913722
0.012743711 0.024465887 0.024157034 0.0040114108 0.0625826 0.08634097 -0.011004363 -0.010560504
0.014414581 -0.0543751 0.018795535 0.060286544 -0.03203128 0.038537245 -0.01945981 -0.03048021
0.002873414 0.027974138 0.00035404405 -0.012950504 -0.07155862 0.052868616 0.0575931 0.08062412
0.029432008 0.05743529 -0.08293479 -0.036709335 -0.01862741 -0.08599788 0.018368049 -0.07963721
0.017620618 0.027164023 0.051495746 -0.0052902093 0.074195504 0.07214357 -0.08359598 0.009889073
-0.08333641 -0.052977048 0.03486247 0.07530048 -0.08183532 -0.088039435 -0.003960276 0.030020284
0.08546896 -0.027825043 0.04501652 0.025033109 0.027474245 -0.06424759 0.07792084 -0.021774158
0.08275831 -0.027229687 -0.042678256 0.025062127 0.0024639573 0.046384156 0.011523822 -0.04473613
0.086091995 -0.07101484 0.08585107 0.032896657 -0.06909033 -0.0020649638 -0.032334883 -0.0602428
-0.03264876 -0.0071408562 -0.043409284 0.0114982715 -0.054672215 0.034061585 -0.086122595 -0.058767255
0.054162662 0.023836762 0.038611982 0.008379826 -0.055259373 0.06269797 -0.017119786 -0.009529171

critic.2.weight f4 [1, 128]
00000000: 1778 aabc 1583 783d 442c 86bc 20cb 9c3d
00000010: 9313 a5bd 9cb5 4bbd 79d0 9a3c 95b5 88bd
00000020: 77c5 a13d 4460 cc3c 72ca a63c 4b13 ac3d
00000030: 8cb3 663c 2107 3b3c ee46 443d 015f 033d
00000040: b204 c8bb a1d3 da3c 90af 0d3d 03ef 8dbd
00000050: 40ce 793c c5c2 36bd 95db 823d f7f0 82bd
00000060: dfdd f1bc 2b75 8ebd 967f 1ebd 281c 1b3c
00000070: 6d57 483c fbc5 43bd 85ed 553d 31a9 9c3d
00000080: bc6c 3cbd 32d7 9d3c 6950 ad3c fad3 763d
00000090: a8f2 593d 33b2 64bd e17f 30bd 36f6 4fbd
000000a0: ae70 29bd 9ed3 1b3d 37f7 983d 0254 9dbb
000000b0: 7269 6abd 9ac2 82bd f50d 2a3d 9087 183d
000000c0: e50e 4abc 72d6 1bbd 2974 913d 0b88 febc
000000d0: 2412 243c 28dc b03c 3de3 2abc 885c 763d
000000e0: c132 db3b 1650 77bd dda7 58bb 6f9f ad3d
000000f0: 4d98 31bd 57f8 2abd af21 4fbd 4fcb 36bc
00000100: 4ae5 853d 310b 1ebc e787 233b 9d88 8c3d
00000110: ce9f 18bd 37f6 013c 740c aabc 771f 333d
00000120: a1f7 6a3b 8e09 2fbd 5909 333d 1c4d bfbc
00000130: 6650 9e3c 7d62 82bd b931 8abd 5c6c 03bc
00000140: 5c39 80bd ca78 8b3d ab94 20bc 92bc 9e3d
00000150: 0919 24bb f262 a23d 3019 03bd 1749 8cbc
00000160: 0c04 9e3d 5271 d1bc b016 21bd bdae 38bd
00000170: 3752 1dbd ca4a a3bd 22ae 7dbd e1a2 3fbd
00000180: 53b0 aabc 7007 983d 25b0 e63c da37 99bd
00000190: d040 933d 4524 c03c 88ed adbd d43d a93d
000001a0: 7356 8bbd dda4 6c3d 4446 c23b 18a0 15bd
000001b0: 55eb 20ba 6d27 de3c e79e 4ebd 3eae 91bd
000001c0: 14c4 ee3a b031 aa3c 9d18 2dbb d73e 90bc
000001d0: 5691 9dbd 642c 68bb 65c2 513c 78e4 d5bc
000001e0: 6595 23bd e426 93bc 668a 2cbd e8bb 1f3d
000001f0: a940 9b3c 8e5c 023d 2bd5 9e3d f47a 8abc
-0.020809216 0.060671885 -0.01637853 0.076559305 -0.08060374 -0.049733743 0.018898236 -0.06675259
0.078989916 0.024948247 0.020360205 0.08402117 0.014080893 0.011415274 0.047919206 0.032073025
-0.0061040753 0.02671224 0.034591258 -0.069303535 0.015246928 -0.04461934 0.06389538 -0.06393617
-0.029524742 -0.06955942 -0.038695894 0.009467162 0.012227875 -0.04779623 0.05222847 0.07649458
-0.046002135 0.019267652 0.021156507 0.06026075 0.05320993 -0.055834007 -0.043090705 -0.050771914
-0.041367225 0.03804361 0.074690275 -0.0048012743 -0.057229467 -0.063847736 0.041517217 0.037238657
-0.012332653 -0.038046308 0.07102234 -0.03107073 0.010014091 0.021589354 -0.010430154 0.06014684
0.0066894 -0.06037911 -0.0033059039 0.08477675 -0.043358136 -0.04174074 -0.050569233 -0.011156871
0.06537874 -0.009646223 0.002495283 0.068619944 -0.037261777 0.007932237 -0.020757891 0.04373118
0.0035853165 -0.04273372 0.043710086 -0.023352198 0.019325446 -0.063664414 -0.06747765 -0.00802144
-0.062609404 0.06810148 -0.00980107 0.07750811 -0.0025039336 0.079290286 -0.032006443 -0.017124696
0.07715616 -0.02556673 -0.039328277 -0.04508852 -0.038408484 -0.07973249 -0.061933644 -0.046786193
-0.020836031 0.074232936 0.028160164 -0.07481356 0.071900964 0.023454795 -0.08492571 0.08263746
-0.06803598 0.057774413 0.0059287865 -0.03652963 -0.0006138583 0.027118409 -0.05044451 -0.07113312
0.0018216395 0.020775646 -0.0026412376 -0.01760809 -0.07693736 -0.003542685 0.012802695 -0.026109919
-0.039937396 -0.01796288 -0.042124175 0.03899756 0.01895173 0.03182655 0.07755502 -0.016904332
