models/frl-model/final_frl_agent1.pt (torch, 216578 bytes, 11 tensors)

embedding.0.weight f4 [128, 20]
0.1270951 -0.19646834 0.10782408 0.007857392 0.09014246 -0.10339343 -0.07295763 0.08867803
-0.18531443 0.18220426 -0.11455403 0.015132802 -0.17180386 0.020061338 0.18596196 0.009985394
0.15782203 -0.031144772 -0.053717427 0.08829152 -0.17791387 0.054903883 -0.069183454 0.07900339
-0.034542162 0.014852807 0.14026761 0.14646626 0.21770997 -0.21825819 0.19026287 -0.044190194
0.22003172 0.0116766635 0.0321102 0.13151914 -0.18528719 0.1746258 0.15405817 0.02964092
0.11892746 -0.008595603 -0.09396744 0.12266964 0.030370414 -0.08355317 0.182871 -0.19340232
0.091081895 0.21258086 -0.03692177 -0.13700417 -0.085772716 0.1381345 -0.11193846 0.010196509
0.14416675 -0.00054644817 0.018622153 -0.061932888 0.09475259 -0.22332907 0.021848703 0.11445618
-0.20791379 -0.06976043 -0.17494118 -0.07694185 -0.20613511 -0.017149381 0.020958206 -0.21966307
-0.090502396 0.07515123 0.20575415 -0.071105964 0.01641938 -0.045201685 0.100138545 -0.15293358
-0.16669755 -0.05606859 0.10006071 0.037659954 0.038500525 -0.21829161 -0.13413651 -0.1005745
-0.08127211 0.22270614 0.1478516 -0.18988228 0.12691267 0.022905853 -0.10076373 -0.03942466
-0.12350045 -0.10845375 -0.20918523 0.07386065 -0.12836155 0.20747072 -0.05304271 -0.026606133
-0.19145134 -0.09293763 0.014906492 -0.1913015 -0.122343846 -0.18141846 0.15931007 0.11353071
0.008764069 -0.061736833 -0.10608627 -0.13250771 -0.025703669 0.2224415 -0.14950654 0.07392391
-0.1958032 0.0029271494 -0.21747069 -0.050544 0.05325284 0.15896854 0.01171129 0.08075472
0.1736996 0.07139529 0.040071923 -0.22178371 0.046999846 0.18702888 0.14543213 0.1408655
0.040996805 0.11948923 -0.16373585 -0.16537257 -0.21861634 0.06774739 -0.025534669 -0.010996936
0.19273181 0.04771028 0.029402988 -0.079762235 0.17704123 -0.08908621 0.041793633 -0.1329912
0.1707088 -0.026687434 -0.14489499 0.06971487 0.1337914 0.13279305 -0.12807894 0.22249822
0.051838018 0.22097969 -0.15490915 0.10937005 0.00026589367 -0.19553602 0.17578723 -0.054787986
-0.10001408 0.03484111 0.032564204 0.19359815 0.13323371 -0.07543453 -0.18645836 -0.1285411
0.058621038 0.026446624 -0.017388593 0.19565631 0.0838706 -0.08919846 -0.15436336 -0.04027528
-0.040296767 -0.04391788 -0.1536032 0.12754409 -0.0006324671 0.024129044 0.112796545 -0.18031442
0.18649624 0.10552623 -0.21440083 0.0275247 0.13179633 -0.029805068 0.036061738 0.17508388
0.19882241 -0.07232841 -0.15590209 0.22005434 -0.028020289 0.07059497 -0.14967625 0.000727709
0.17903496 0.001218686 -0.20431209 -0.1162392 0.05055125 -0.14983621 0.06715304 0.12794715
-0.16051029 -0.18750608 0.07705404 -0.17583446 0.21850353 0.2140537 0.20787248 -0.18872984
0.07872236 -0.18333831 -0.11806735 -0.04708184 -0.02491177 0.03468826 0.07517546 -0.14039455
-0.118912846 0.09403882 0.02495826 -0.0935174 -0.059341177 -0.023136215 0.03108802 -0.027787795
0.18664832 0.21302514 0.1184674 -0.11533241 -0.1418166 0.21121497 -0.20200059 0.21238485
0.22093488 0.05481877 -0.1014412 0.1060666 0.14148825 -0.0072934832 0.21863249 0.16828439
00000000: 3825 023e ff2e 49be dfd2 dc3d 4abc 003c
00000010: 9c9c b83d efbf d3bd cf6a 95bd d49c b53d
00000020: 11c3 3dbe c193 3a3e 4e9b eabd 92ef 773c
00000030: 5aed 2fbe ad57 a43c d06c 3e3e c799 233c
00000040: 199c 213e 5223 ffbc ce06 5cbd 2fd2 b43d
00000050: 0e2f 36be e5e2 603d 0eb0 8dbd 88cc a13d
00000060: 157c 0dbd 3059 733c 50a2 0f3e 40fb 153e
00000070: 5def 5e3e 137f 5fbe 45d4 423e c700 35bd
00000080: ff4f 613e 7a4f 3f3c fc85 033d f4ac 063e
00000090: edbb 3dbe 1bd1 323e 6dc1 1d3e 84d1 f23c
000000a0: 3d90 f33d 92d4 0cbc 0072 c0bd 383a fb3d
000000b0: 60cb f83c ed1d abbd 8942 3b3e 420b 46be
000000c0: 2589 ba3d ccae 593e 483b 17bd d24a 0cbe
000000d0: 9ba9 afbd 2173 0d3e fe3f e5bd 420f 273c
000000e0: 73a0 133e 843f 0fba 7c8d 983c 57ad 7dbd
000000f0: a50d c23d 60b0 64be 0dfc b23c 0068 ea3d
00000100: 5ae7 54be 8ede 8ebd c823 33be b093 9dbd
00000110: 1515 53be dc7c 8cbc 8bb0 ab3c 5bef 60be
00000120: 5259 b9bd e3e8 993d 37b1 523e 01a0 91bd
00000130: f081 863c 6725 39bd 7015 cd3d 9f9a 1cbe
00000140: c3b2 2abe 2ea8 65bd a1ec cc3d 5341 1a3d
00000150: bab2 1d3d d687 5fbe 155b 09be 01fa cdbd
00000160: fe71 a6bd 140d 643e 6966 173e 8070 42be
00000170: 65f5 013e 0ea5 bb3c 375d cebd c17b 21bd
00000180: ceed fcbd 001d debd a734 56be 4144 973d
00000190: 3671 03be 3473 543e 5043 59bd 1bf5 d9bc
000001a0: d20b 44be 1656 bebd 5c3a 743c 8ae4 43be
000001b0: 698f fabd c3c5 39be 2e22 233e ca82 e83d
000001c0: 2b97 0f3c c3df 7cbd c243 d9bd 1ab0 07be
000001d0: 8090 d2bc b4c7 633e 3e18 19be 6b65 973d
000001e0: a280 48be 6bd5 3f3b a3b0 5ebe 3a07 4fbd
000001f0: a61f 5a3d a6c8 223e b6e0 3f3c bb62 a53d
00000200: 4fde 313e b237 923d 7522 243d 451b 63be
00000210: e982 403d 8084 3f3e 29ec 143e 0c3f 103e
00000220: 44ec 273d c5b6 f43d 5faa 27be 6d57 29be
00000230: f6dc 5fbe 25bf 8a3d 152e d1bc 7e2c 34bc
00000240: 7d5b 453e db6b 433d 89de f03c 625a a3bd
00000250: 4c4a 353e d572 b6bd cd2f 2b3d d82e 08be
00000260: 4ace 2e3e 9b9f dabc 5a5f 14be abc6 8e3d
00000270: 9d00 093e e7fa 073e 2027 03be 93d6 633e
00000280: 1a54 543d 8048 623e 81a0 1ebe 68fd df3d
00000290: a567 8b39 983a 48be 9101 343e 5e69 60bd
000002a0: 2fd4 ccbd 8db5 0e3d 0b62 053d 983e 463e
000002b0: 6b6e 083e 6b7d 9abd f1ee 3ebe 47a0 03be
000002c0: 9d1c 703d 97a6 d83c 8672 8ebc 215a 483e
000002d0: 59c4 ab3d afad b6bd 6e11 1ebe b1f7 24bd
000002e0: 390e 25bd 3ce3 33bd 284a 1dbe eb9a 023e
000002f0: 26cc 25ba 46aa c53c e001 e73d 58a4 38be
00000300: dff8 3e3e 231e d83d e48b 5bbe 7b7b e13c
00000310: 9ef5 063e c229 f4bc 79b5 133d 3049 333e
00000320: 1a98 4b3e eb20 94bd cca4 1fbe ed55 613e
00000330: ce8a e5bc 1894 903d bb44 19be b9c3 3e3a
00000340: f154 373e 51bc 9f3a 3037 51be d10e eebd
00000350: d40e 4f3d aa6e 19be 8887 893d 9404 033e
00000360: cf5c 24be 9801 40be 82ce 9d3d f30d 34be
00000370: 64bf 5f3e e530 5b3e 86dc 543e 6542 41be
00000380: 3039 a13d 0abd 3bbe 4bcd f1bd e3d8 40bd
00000390: c513 ccbc 4715 0e3d 97f5 993d 97c3 0fbe
000003a0: 9488 f3bd 6d97 c03d 4475 cc3c 0d86 bfbd
000003b0: bc0f 73bd 2988 bdbc 4eac fe3c 3ba3 e3bc
000003c0: bd20 3f3e 4323 5a3e 099f f23d 6633 ecbd
000003d0: 5f38 11be bd48 583e 3ed9 4ebe 6a7b 593e
000003e0: c13c 623e a689 603d 67c0 cfbd 7239 d93d
000003f0: 4ce2 103e 2cfe eebb 32e1 5f3e be52 2c3e

embedding.0.bias f4 [128]
-0.104840845 -0.071409926 0.10068302 0.1398068 0.20653805 8.415301e-05 -0.0105200065 0.13016348
0.13590592 -0.164504 -0.20597574 -0.092575885 0.176304 -0.20146093 -0.15896678 0.111359656
0.10689419 -0.047227673 -0.015688127 0.2196768 0.04494936 0.085293785 -0.084407605 0.15109822
-0.08794347 -0.0608683 0.124465264 -0.010607998 0.025012584 -0.22337009 0.22192027 0.19651587
-0.120983034 0.13786826 0.2145642 -0.10127968 -0.07311151 -0.096816406 0.07621736 0.09824266
0.03004364 -0.04425044 -0.029365083 0.120729774 -0.083935745 -0.15441334 -0.11478964 0.052773617
0.110936835 0.18139406 -0.1396567 0.058954157 0.1790472 0.14302734 -0.2019067 0.19669615
-0.058963247 -0.02556495 -0.061602566 0.023618048 -0.05488933 0.18357235 -0.11736379 -0.19613296
-0.09717674 0.14095579 0.023528405 -0.06160611 0.03144071 0.21635029 0.08419398 0.12599415
0.21162982 0.028656567 -0.18281801 -0.1922891 -0.057615895 0.21313727 -0.17800553 0.18973967
-0.040844735 0.05266174 -0.19894463 -0.19386104 0.107513726 0.124187246 -0.06576717 0.10945906
-0.1611296 -0.048365247 -0.028298978 -0.18064912 0.20592019 -0.12493894 0.13533834 -0.07599774
-0.21026562 0.0092087705 -0.053900126 0.15242793 -0.15744776 0.21348847 -0.08212833 -0.18963337
0.15630697 0.13678911 -0.19884345 0.1996054 -0.104661375 -0.04091913 0.12745167 -0.11386388
0.20227642 -0.041650463 -0.073583 0.16007207 -0.038289808 0.21634072 0.049047425 -0.04515485
-0.02263303 -0.21012779 0.08729269 -0.1002509 0.0120538995 -0.00092235114 0.04333014 -0.09171703
00000000: ccb6 d6bd 5e3f 92bd e632 ce3d 8429 0f3e
00000010: b67e 533e 4e7b b038 1b5c 2cbc 9349 053e
00000020: ec2a 0b3e bd73 28be 4eeb 52be 6d98 bdbd
00000030: 0989 343e c64b 4ebe 30c8 22be 8810 e43d
00000040: 57eb da3d ce71 41bd 6384 80bc f4f2 603e
00000050: d21c 383d 82ae ae3d e5dd acbd 7eb9 1a3e
00000060: b51b b4bd 0a51 79bd a5e7 fe3d 2bcd 2dbc
00000070: 31e7 cc3c 21bb 64be 113f 633e 753b 493e
00000080: f4c5 f7bd 562d 0d3e b8b6 5b3e b96b cfbd
00000090: 7dbb 95bd ae47 c6bd d917 9c3d 7333 c93d
000000a0: 141e f63c f33f 35bd 0b8f f0bc 2c41 f73d
000000b0: 81e6 abbd 881e 1ebe d516 ebbd 2629 583d
000000c0: da32 e33d 5dbf 393e 2a02 0fbe ea79 713d
000000d0: 2658 373e c275 123e a1c0 4ebe b76a 493e
000000e0: 7283 71bd 966d d1bc f952 7cbd a37a c13c
000000f0: a2d3 60bd 64fa 3b3e 6d5c f0bd 14d7 48be
00000100: 9904 c7bd b756 103e a4be c03c b056 7cbd
00000110: f9c7 003d ee8a 5d3e e56d ac3d 9c04 013e
00000120: 7db5 583e 2dc1 ea3c a534 3bbe 6fe7 44be
00000130: a5fe 6bbd a840 5a3e 1547 36be 1e4b 423e
00000140: cf4c 27bd d6b3 573d 24b8 4bbe 8283 46be
00000150: 2830 dc3d e255 fe3d f0b0 86bd 122c e03d
00000160: 28ff 24be a31a 46bd 42d3 e7bc 15fc 38be
00000170: bedc 523e fddf ffbd 2296 0a3e b4a4 9bbd
00000180: df4f 57be 62e0 163c 61c6 5cbd 1116 1c3e
00000190: fc39 21be b99c 5a3e e632 a8bd 402f 42be
000001a0: ef0e 203e 7212 0c3e 9e9d 4bbe 5c65 4c3e
000001b0: b458 d6bd d19a 27bd b182 023e 7731 e9bd
000001c0: 8d21 4f3e ad99 2abd afb2 96bd efe9 233e
000001d0: c6d5 1cbd 6c88 5d3e f4e5 483d 4bf4 38bd
000001e0: e768 b9bc bd2b 57be 83c6 b23d 5850 cdbd
000001f0: b87d 453c f0c9 71ba f27a 313d 23d6 bbbd

embedding.2.weight f4 [128, 128]
-0.08829631 -0.0528915 0.04584559 0.016464045 -0.08395056 0.050221954 -0.058535345 -0.08102039
0.06546336 0.08204005 -0.004482349 -0.063305534 0.018091176 0.032471523 -0.08359093 0.027390245
0.0770051 0.045054536 0.0071906 -0.027104342 -0.057096273 -0.06987715 0.013525576 0.07832686
0.04623058 0.08712782 -0.060223643 -0.035055462 -0.076768786 -0.033263147 -0.0025924738 -0.018490748
0.0382743 0.0154806 0.052648082 0.033541042 -0.051587794 -0.040316757 -0.05752971 0.06312849
0.041758854 -0.0007187197 -0.082329944 -0.009776077 -0.057622403 -0.0693115 0.053478807 0.075287
0.018462649 -0.003184837 -0.05697921 -0.053889845 0.027009292 -0.020366631 -0.0694964 -0.004900319
-0.015392007 -0.08472607 -0.076187484 0.0051121386 -0.010216459 -0.08636477 -0.076560415 0.06462212
0.0012124594 0.019261941 0.045978166 0.07239217 0.0059636314 0.00959452 0.028194387 0.027552627
-0.060599085 0.07607863 0.059649516 -0.04944884 -0.085459284 0.040443208 -0.07788975 -0.009797582
-0.04937481 0.036275074 -0.013009267 -0.0141649125 -0.08190086 0.00874506 -0.06827919 -0.07319524
0.05938922 0.027810577 -0.081877954 -0.019358784 -0.070414715 -0.008407126 0.051922746 0.055205923
0.04465897 0.021841835 -0.08538556 -0.07376439 -0.08078379 0.056364108 0.03313834 0.03409521
-0.020987602 0.014153207 0.07983153 -0.08748064 -0.087081835 0.005715555 0.08268138 -0.0050175297
-0.011335521 -0.05500837 0.015921867 0.052785333 -0.02704462 0.044390526 0.04848314 0.023848351
-0.009656949 0.008837067 -0.02323559 -0.02830557 0.0010374973 -0.06179475 -0.054392077 0.0421031
0.07652544 -0.05065323 -0.06356047 -0.02559969 0.075375244 -0.018499663 0.03413685 0.01723962
0.06730703 0.07884327 0.016992133 -0.029692275 0.03215243 -0.07917307 0.062251136 -0.028559726
-0.011249331 0.014215342 0.01946942 -0.08458861 -0.0044215415 -0.08111362 -0.032827314 -0.08583051
0.022238268 0.0034794752 -0.0603057 -0.046642274 -0.03395666 -0.077907 -0.028391687 -0.058683332
-0.063228205 0.0861944 0.005374629 -0.044469338 -0.08179562 0.052255254 0.0006650667 0.041766282
0.076467656 -0.0796711 0.01680421 -0.058021184 0.06927524 -0.035825115 0.057159018 0.014702822
0.04223286 -0.04278864 -0.055612322 0.06021338 -0.04112603 0.032934114 0.008281087 0.019430604
-0.025859114 -0.03133794 0.034349985 0.06978583 0.034297608 0.006170699 -0.021249365 0.01823926
-0.018872652 0.04067801 -0.08431661 -0.027405808 0.05755234 0.07822338 0.03270783 0.033944704
0.037802234 -0.07114889 0.05689851 0.0024104835 0.015154321 -0.047568943 0.0333473 0.07510481
-0.018734949 0.08743577 -0.034357406 -0.044455472 0.0018490875 0.059978567 0.039283097 -0.0037444104
-0.06430792 0.016984537 0.079414934 0.04838141 0.04882296 -0.034510322 0.038638093 -0.06619358
0.034266092 0.05969393 0.02782144 0.029535478 -0.057522796 0.04832231 0.07886337 -0.03753025
0.088235535 0.050711088 0.08619143 -0.008141328 -0.016193146 0.050256606 -0.042851143 0.020945592
0.033410944 0.033569597 0.016427092 -0.042771295 0.00028500753 0.033469707 -0.015053358 0.06709082
-0.014969486 -0.041518185 -0.0048218733 -0.009101264 -0.008190544 0.013007508 -0.0464481 -0.036197998
00000000: b2d4 b4bd c2a4 58bd 96c8 3b3d 9bdf 863c
00000010: 45ee abbd 89b5 4d3d c2c2 6fbd 05ee a5bd
00000020: a711 863d 9d04 a83d abe0 92bb 55a6 81bd
00000030: f233 943c dc00 053d b931 abbd 8261 e03c
00000040: dab4 9d3d 1b8b 383d 209f eb3b ed09 debc
00000050: c8dd 69bd c01b 8fbd 619a 5d3c d569 a03d
00000060: 475c 3d3d 1270 b23d 11ad 76bd 5196 0fbd
00000070: f438 9dbd f03e 08bd 7ee6 29bb e979 97bc
00000080: 83c5 1c3d 58a2 7d3c 84a5 573d 5562 093d
00000090: b94d 53bd 2f23 25bd 46a4 6bbd 8249 813d
000000a0: 550b 2b3d 7668 3cba 9a9c a8bd d72b 20bc
000000b0: 7805 6cbd 30f3 8dbd 980c 5b3d 1230 9a3d
000000c0: fb3e 973c b3b8 50bb 0863 69bd 99bb 5cbd
000000d0: 9742 dd3c ecd7 a6bc 2154 8ebd db92 a0bb
000000e0: c22e 7cbc dd84 adbd 2f08 9cbd ba83 a73b
000000f0: ef62 27bc 03e0 b0bd b5cb 9cbd 9a58 843d
00000100: 63eb 9e3a 38cb 9d3c 9a53 3c3d 5942 943d
00000110: 916a c33b 5532 1d3c eaf7 e63c 0cb6 e13c
00000120: bf36 78bd 1dcf 9b3d 0d53 743d de8a 4abd
00000130: 4705 afbd c7a7 253d a984 9fbd 0a86 20bc
00000140: 3e3d 4abd 2c95 143d d224 55bc f313 68bc
00000150: a3bb a7bd 7147 0f3c f6d5 8bbd 63e7 95bd
00000160: 1c42 733d 02d3 e33c a1af a7bd 5096 9ebc
00000170: 9735 90bd 0bbe 09bc f2ac 543d 9b1f 623d
00000180: 53ec 363d a6ed b23c a0de aebd c911 97bd
00000190: f971 a5bd 0dde 663d 11bc 073d 6ba7 0b3d
000001a0: 31ee abbc dae2 673c b77e a33d 0d29 b3bd
000001b0: f657 b2bd 8d49 bb3b db54 a93d 176a a4bb
000001c0: 9fb8 39bc 7550 61bd 936e 823c 6f35 583d
000001d0: ae8c ddbc d7d2 353d 4296 463d 9e5d c33c
000001e0: 2e38 1ebc 58c9 103c 9058 bebc 15e1 e7bc
000001f0: a2fc 873a 7e1c 7dbd 3aca 5ebd 4d74 2c3d
00000200: 5fb9 9c3d c379 4fbd fe2b 82bd 71b6 d1bc
00000210: 565e 9a3d 9b8c 97bc 15d3 0b3d 1b3a 8d3c
00000220: 45d8 893d 9578 a13d 1633 8b3c 373d f3bc
00000230: 44b2 033d 7e25 a2bd 0cfb 7e3d 16f6 e9bc
00000240: 1d4f 38bc 77e7 683c 557e 9f3c cb3c adbd
00000250: 94e2 90bb e61e a6bd ef75 06bd e8c7 afbd
00000260: 072d b63c e807 643b 1c03 77bd f80b 3fbd
00000270: 2416 0bbd b58d 9fbd af95 e8bc ef5d 70bd
00000280: ca7d 81bd b186 b03d a81d b03b 7b25 36bd
00000290: 7684 a7bd 9b09 563d df57 2e3a 1f13 2b3d
000002a0: 139b 9c3d 9a2a a3bd fca8 893c 9fa7 6dbd
000002b0: 2de0 8d3d 5bbd 12bd 931f 6a3d 1be4 703c
000002c0: 5dfc 2c3d 2443 2fbd bfc9 63bd 4ea2 763d
000002d0: c573 28bd ece5 063d 65ad 073c ee2c 9f3c
000002e0: 7ed6 d3bc 365c 00bd 92b2 0c3d e0eb 8e3d
000002f0: a67b 0c3d 9333 ca3b 2613 aebc 806a 953c
00000300: d29a 9abc fc9d 263d 30ae acbd 2582 e0bc
00000310: 01bc 6b3d 9433 a03d a5f8 053d 9a09 0b3d
00000320: 84d6 1a3d 82b6 91bd 690e 693d 34f9 1d3b
00000330: d449 783c a7d7 42bd 2e97 083d 8dd0 993d
00000340: 097a 99bc 8611 b33d 5aba 0cbd f116 36bd
00000350: 155d f23a 16ac 753d 50e7 203d c864 75bb
00000360: dfb3 83bd 2823 8b3c 4ca4 a23d 962b 463d
00000370: 96fa 473d b25a 0dbd fa42 1e3d 8090 87bd
00000380: 9a5a 0c3d 9f81 743d cae9 e33c 63f4 f13c
00000390: 069d 6bbd 9ded 453d 1e83 a13d 52b9 19bd
000003a0: d5b4 b43d 6eb6 4f3d 2285 b03d 3463 05bc
000003b0: 7da7 84bc dfd9 4d3d ae84 2fbd 1796 ab3c
000003c0: ead9 083d 4680 093d 1c92 863c f430 2fbd
000003d0: 106d 9539 8817 093d 5ca2 76bc e966 893d
000003e0: 9342 75bc f90e 2abd ce00 9ebb 781d 15bc
000003f0: a231 06bc 711d 553c 5d40 3ebd 5a44 14bd

embedding.2.bias f4 [128]
0.074736804 0.0506395 -0.05279841 0.08522276 0.013637371 -0.0048430944 0.01769784 0.08792286
-0.078663066 0.0080277 -0.054761305 -0.033109047 0.031173937 0.039859265 0.043898314 0.07904791
-0.076500535 0.03673279 -0.063335724 -0.05119997 0.03236218 -0.06383017 0.044609603 -0.012859361
-0.035300672 0.008733248 0.06776207 -0.036705025 0.03514632 0.030211799 -0.056315724 0.043551117
0.026036931 0.05334299 0.004368584 0.07368482 0.00938172 -0.008212587 -0.04902883 -0.052330792
-0.04612627 -0.0458836 0.051112324 -0.07760239 -0.021406848 0.009310239 0.0062344354 -0.0588011
-0.0019202209 0.07263403 -0.02237689 -0.0743251 -0.08195785 -0.0645452 0.009799595 -0.0065120147
0.055233054 -0.06311043 -0.023701333 0.017189886 0.03249658 -0.030691577 -0.025550673 0.059621204
0.07037212 -0.034709994 -0.052221198 0.022132775 -0.05539905 0.04511619 0.0031834778 0.029408332
0.052627105 0.053290676 -0.023620527 -0.044750355 0.041233253 0.061240572 -0.061274815 -0.0837045
0.082327485 0.06147262 0.051770344 -0.05598472 -0.05129477 0.07646889 0.087933235 0.08357215
0.07741223 -0.027787343 0.004775122 -0.07683064 0.01579391 0.037644237 0.045198195 0.013897996
-0.061003126 0.035167433 -0.016269399 0.086063266 0.006769774 0.037752986 0.027996307 0.024392856
-0.036595087 -0.058518656 0.032752093 -0.005739695 0.0011628526 0.00847376 -0.086813994 -0.08045209
-0.017478751 0.0009577239 -0.08486883 -0.01205423 -0.051435295 0.026937978 0.07113742 -0.08218706
-0.07036608 0.062602915 -0.057148512 0.04261339 0.03405574 -0.03224117 0.0032769807 0.04676789
00000000: 9c0f 993d 5d6b 4f3d 2543 58bd 4589 ae3d
00000010: 486f 5f3c d2b2 9ebb 10fb 903c e710 b43d
00000020: 1a1a a1bd 9d86 033c 644d 60bd 5a9d 07bd
00000030: 7c60 ff3c 7843 233d b8ce 333d dfe3 a13d
00000040: 50ac 9cbd 1f75 163d 29b6 81bd 0fb7 51bd
00000050: 358e 043d 64b9 82bd 8fb8 363d 12b0 52bc
00000060: 7097 10bd e615 0f3c d7c6 8a3d 0258 16bd
00000070: 96f5 0f3d bc7e f73c 51ab 66bd a862 323d
00000080: 674b d53c 2e7e 5a3d 5726 8f3b 11e8 963d
00000090: c9b5 193c 168e 06bc 74d2 48bd d058 56bd
000000a0: e6ee 3cbd 71f0 3bbd 285b 513d 00ee 9ebd
000000b0: 6a5d afbc f989 183c 3c4a cc3b 6cd9 70bd
000000c0: ecaf fbba 26c1 943d bd4f b7bc c237 98bd
000000d0: 84d9 a7bd 4630 84bd 7b8e 203c bd62 d5bb
000000e0: 0e3c 623d 0b40 81bd 4c29 c2bc ced1 8c3c
000000f0: 221b 053d e76c fbbc a54f d1bc 5d35 743d
00000100: 421f 903d 112c 0ebd e5e5 55bd cb4f b53c
00000110: 1dea 62bd c1cb 383d e5a1 503b bee9 f03c
00000120: 858f 573d 5347 5a3d d67f c1bc 264c 37bd
00000130: 33e4 283d 65d7 7a3d 4dfb 7abd 446d abbd
00000140: 509b a83d b7ca 7b3d 240d 543d 3c50 65bd
00000150: 771a 52bd b99b 9c3d 5716 b43d e027 ab3d
00000160: 4e8a 9e3d 48a2 e3bc a078 9c3b 6259 9dbd
00000170: 3b62 813c d830 1a3d be21 393d 6cb4 633c
00000180: 6ade 79bd ba0b 103d 6747 85bc f041 b03d
00000190: fbd4 dd3b e0a2 1a3d 8358 e53c 87d3 c73c
000001a0: bbe4 15bd 42b1 6fbd 0f27 063d 0d14 bcbb
000001b0: dc6a 983a 87d5 0a3c 89cb b1bd 11c4 a4bd
000001c0: 992f 8fbc c30f 7b3a b6cf adbd 1b7f 45bc
000001d0: d1ad 52bd 09ad dc3c 7fb0 913d b051 a8bd
000001e0: 171c 90bd f535 803d 8f14 6abd 618b 2e3d
000001f0: 087e 0b3d 510f 04bd 9dc2 563b b08f 3f3d

actor.0.weight f4 [128, 128]
0.06674002 0.009336127 -0.02391706 -0.079093695 0.025544668 0.0021516809 -0.031080382 0.037150886
0.06354412 -0.042454384 -3.1262425e-05 0.017547892 0.028957192 -0.04055826 -0.050716303 -0.067926764
-0.050034747 0.07199152 0.013226007 -0.06818507 -0.04745457 0.018186828 -0.08579705 0.043365303
-0.08310271 0.08515253 0.025613893 -0.08200495 -0.01185046 0.03515458 -0.06650511 0.057697803
0.009508044 -0.07120244 -0.02150542 -0.0040692044 0.01878645 0.07500126 0.08177834 -0.026031485
-0.0631396 0.008483117 -0.0116166305 -0.05116857 -0.050677106 0.047314387 -0.048399817 0.015035593
0.04073907 -0.016452506 0.053740688 0.0039460408 0.068782 -0.00960082 -0.015008314 0.084060036
-0.0051365523 0.0122957425 -0.0632411 -0.08305176 -0.07877159 0.014399818 -0.03150051 0.055003524
-0.0076466603 0.024299586 -0.0030504097 0.007349757 -0.012470536 -0.009760609 -0.045998257 0.07839929
-0.017492965 -0.0502948 -0.030451773 0.0115780765 0.011414178 -0.053318743 0.01799327 -0.039248124
-0.085878186 0.010522877 -0.041410375 0.044176355 0.016758472 0.040493228 0.08349692 0.042659618
0.08782619 -0.040693402 0.06092959 -0.086924344 -0.07943128 -0.011036658 -0.028854027 0.009188245
-0.028263487 -0.0050246944 -0.025856206 -0.079224065 0.033358354 0.047625147 -0.014570935 -0.058284245
0.022466809 -0.088367924 -0.07294384 -0.08455804 -0.05792572 0.0801062 -0.08540817 0.013398599
-0.043721728 -0.084791236 -0.061225895 0.07600361 0.028489498 -0.044176694 0.07779175 -0.051159687
0.024394818 0.061982144 0.0026936894 0.0720408 0.03787263 -0.05027826 -0.074388415 0.036153134
0.043194417 -0.0028163367 0.00064651156 0.079340726 -0.015027016 -0.07685654 0.06155427 0.064850524
0.024474675 -0.086873375 -0.029015271 -0.07503504 0.012543776 -0.030233314 0.050920304 -0.02557101
-0.059271723 0.08227275 0.002626718 -0.03948682 0.07613534 -0.0062425383 -0.034504857 0.009339489
-0.0025676703 0.08353666 0.03880693 0.0018628802 -0.050273288 -0.010289837 0.031884186 -0.06831459
0.01019763 0.010751219 0.07526189 -0.05116072 -0.021137781 -0.015860375 0.08023371 0.0023072765
-0.019381996 0.00015588012 0.003394286 -0.045292098 -0.07722535 0.006026662 -0.0823732 0.058376484
0.020214219 0.041775282 0.033486787 -0.06995228 -0.06811769 -0.009186896 0.0450837 -0.06313087
-0.06780898 -0.005057569 -0.0621273 -0.06948696 -0.07028841 -0.030657934 0.040251262 -0.036592864
-0.058800407 -0.071970545 -0.039724533 -0.025284378 0.07892981 0.012455816 0.046682976 0.07802241
-0.053319734 0.08344699 0.04293745 -0.010633639 -0.058341153 0.03127682 0.00459408 -0.0003273651
-0.041556455 -0.04696993 0.0079079075 0.07495969 -0.06866601 0.057690658 -0.046276554 0.03834496
-0.028856767 0.017599681 -0.020393163 -0.015237919 -0.027441623 -0.045066677 -0.024910873 0.06727671
-0.040989507 -0.030672831 0.011276231 -0.0356234 -0.009543395 -0.06481782 -0.08660624 -0.03542883
-0.06419466 0.020379888 -0.044837546 -0.0034180146 -0.014306589 -0.00624964 -0.059820782 -0.07851099
0.022734495 0.051264614 0.08184292 -0.037658207 0.07665839 0.055646516 -0.064159386 0.024475675
-0.05300608 -0.07576587 -0.058593865 -0.066822566 -0.04910172 0.04237068 0.082825646 -0.051468793
00000000: feae 883d 8ef6 183c b6ed c3bc e0fb a1bd
00000010: 0d43 d13c 3703 0d3b 499c febc 872b 183d
00000020: 6b23 823d a6e4 2dbd c61f 03b8 99c0 8f3c
00000030: a237 ed3c 6b20 26bd e6bb 4fbd 301d 8bbd
00000040: 3cf1 4cbd 4a70 933d e5b1 583c 9da4 8bbd
00000050: b95f 42bd 8bfc 943c 5db6 afbd d19f 313d
00000060: c131 aabd 7364 ae3d 3ad4 d13c 36f2 a7bd
00000070: 6f28 42bc 40fe 0f3d d533 88bd 8854 6c3d
00000080: a1c7 1b3c 96d2 91bd 222c b0bc f656 85bb
00000090: 0be6 993c 439a 993d 677b a73d fb3f d5bc
000000a0: 564f 81bd c6fc 0a3c ae53 3ebc 2296 51bd
000000b0: cc92 4fbd bbcc 413d e33e 46bd d957 763c
000000c0: 03de 263d 68c7 86bc 321f 5c3d ca4d 813b
000000d0: 94dd 8c3d c24c 1dbc 6ee5 75bc ab27 ac3d
000000e0: 8650 a8bb 1574 493c 8d84 81bd 0b17 aabd
000000f0: 0053 a1bd 37ed 6b3c ae06 01bd 604b 613d
00000100: d690 fabb ed0f c73c 62e9 47bb 3bd6 f03b
00000110: 3851 4cbc f6ea 1fbc ab68 3cbd cf8f a03d
00000120: 684d 8fbc ec01 4ebd ff75 f9bc f9b1 3d3c
00000130: 8802 3b3c c164 5abd 9f66 933c a4c2 20bd
00000140: e7e0 afbd 2568 2c3c ed9d 29bd 44f2 343d
00000150: 1049 893c 3adc 253d 6f00 ab3d dabb 2e3d
00000160: 38de b33d 20ae 26bd 4e91 793d 6405 b2bd
00000170: deac a2bd 19d3 34bc 485f ecbc 4b8a 163c
00000180: d488 e7bc 31a6 a4bb 65d0 d3bc 3a40 a2bd
00000190: c5a2 083d 9612 433d eeba 6ebc 76bb 6ebd
000001a0: 500c b83c 3efa b4bd 9463 95bd c42c adbd
000001b0: 8543 6dbd b80e a43d 7bea aebd cc85 5b3c
000001c0: 8e15 33bd 07a7 adbd 01c8 7abd c8a7 9b3d
000001d0: cf62 e93c 9ff2 34bd 4851 9f3d d28c 51bd
000001e0: a4d7 c73c fde0 7d3d 9c88 303b 208a 933d
000001f0: 5520 1b3d 94f0 4dbd f458 98bd 4f15 143d
00000200: a1ec 303d 4a92 38bb a87a 293a 647d a23d
00000210: e033 76bc f666 9dbd 5520 7c3d 5ad0 843d
00000220: 1d7f c83c abea b1bd 6fb1 edbc f9ab 99bd
00000230: 6984 4d3c dbab f7bc cf91 503d 4b7a d1bc
00000240: e8c6 72bd 9e7e a83d 0425 2c3b efbc 21bd
00000250: d8ec 9b3d 358e ccbb f754 0dbd a804 193c
00000260: 5c46 28bb 4515 ab3d 04f4 1e3d e32b f43a
00000270: 5deb 4dbd b496 28bc fe98 023d 85e8 8bbd
00000280: f613 273c e125 303c e822 9a3d e78d 51bd
00000290: 2429 adbc 9eed 81bc 9251 a43d ad35 173b
000002a0: fec6 9ebc c073 2339 ab72 5e3b 3584 39bd
000002b0: 5328 9ebd 4e7b c53b 48b3 a8bd 2e1c 6f3d
000002c0: 4a98 a53c 8f1c 2b3d 7129 093d 2443 8fbd
000002d0: 4a81 8bbd a284 16bc b0a9 383d c24a 81bd
000002e0: 6fdf 8abd f7b9 a5bb 3279 7ebd 2e4f 8ebd
000002f0: 5ff3 8fbd 5926 fbbc 82de 243d 66e2 15bd
00000300: b2d8 70bd 4b65 93bd 31b6 22bd 2f21 cfbc
00000310: f4a5 a13d 7b13 4c3c a636 3f3d 37ca 9f3d
00000320: cb65 5abd 41e6 aa3d 2edf 2f3d b738 2ebc
00000330: 22f7 6ebd 1f1c 003d f089 963b 33a2 abb9
00000340: 1a37 2abd 8b63 40bd 2b90 013c 7784 993d
00000350: c4a0 8cbd 0a4d 6c3d 7c8c 3dbd 9b0f 1d3d
00000360: 0765 ecbc 352d 903c 900f a7bc 77a8 79bc
00000370: 41cd e0bc d697 38bd e311 ccbc 5fc8 893d
00000380: 9de4 27bd 9745 fbbc f1bf 383c d8e9 11bd
00000390: e65b 1cbc 35bf 84bd 9d5e b1bd d21d 11bd
000003a0: 7d78 83bd b9f3 a63c 93a7 37bd c500 60bb
000003b0: 2f66 6abc c8c9 ccbb a306 75bd 5fca a0bd
000003c0: b13d ba3c d8fa 513d 439d a73d 7e3f 1abd
000003d0: 13ff 9c3d 9aed 633d ff65 83bd 3681 c83c
000003e0: e71c 59bd 232b 9bbd 1f00 70bd 45da 88bd
000003f0: e31e 49bd e18c 2d3d 7ea0 a93d f1d0 52bd

actor.0.bias f4 [128]
0.045635596 0.077101745 0.061484516 -0.06305204 -0.05181666 -0.06749004 -0.031124257 -0.037170213
0.08549906 0.05578268 -0.0048462446 0.009746037 0.051155716 -0.040164627 -0.035349276 -0.034420382
0.084887125 -0.021714382 -0.08525804 -0.08729395 -0.014660139 0.011344014 0.053988058 -0.07501515
-0.047333546 -0.03032061 -0.012312116 0.08227652 0.034637332 0.0454464 0.03923314 -0.05618359
-0.08014576 -0.07488724 0.027291559 -0.04917983 -0.005867368 0.02343153 -0.08289961 -0.014632448
0.013351257 0.03721492 -0.0070258267 0.07294389 -0.08558588 0.051053572 -0.07870966 0.016603867
0.065999225 -0.027653031 0.0658621 -0.08174828 -0.03392264 -0.03429785 -0.08536374 -0.0712346
0.07269739 0.073081635 0.035405565 0.06393082 -0.041054823 0.016173841 0.046681754 -0.012412089
-0.0054990044 -0.06789914 0.03201814 0.04106534 0.012884923 -0.037731342 0.08736466 -0.06691954
0.08102398 0.014358156 0.08311014 -0.052436557 -0.0648776 -0.0024253826 0.028011143 -0.056859102
0.06451287 0.054031987 -0.04734327 0.023517488 0.07522362 -0.0066293515 -0.048926104 0.0038869297
-0.009482314 -0.05366972 -0.049183685 -0.080818765 -0.050627217 0.007527743 -0.04239583 0.071250744
0.07088118 0.082943186 -0.06360911 -0.00062251947 -0.03299074 -0.016193831 -0.06668846 -0.08110818
0.06501346 0.00938429 0.056010507 0.029758489 -0.022463143 -0.038198426 -0.06918679 -0.0033273145
-0.0095849205 0.02921669 0.043782853 -0.06308407 -0.05637278 -0.06143964 -0.015325932 0.066894405
0.08196978 0.062493514 -0.07499516 -0.0012858793 0.06067275 -0.07468366 -0.06613252 0.04237425
00000000: 64ec 3a3d 85e7 9d3d 30d7 7b3d 6e21 81bd
00000010: b53d 54bd 3838 8abd 4cf8 febc cb3f 18bd
00000020: 221a af3d 617c 643d 3fcd 9ebb d8ad 1f3c
00000030: a888 513d aa83 24bd 67ca 10bd 63fc 0cbd
00000040: 4dd9 ad3d 5ce2 b1bc c49b aebd 2cc7 b2bd
00000050: 1431 70bc 3edc 393c 9522 5d3d 8ba1 99bd
00000060: d2e0 41bd ee62 f8bc c2b8 49bc 9880 a83d
00000070: e0df 0d3d 0126 3a3d eeb2 203d c420 66bd
00000080: 7623 a4bd 7b5e 99bd 8c92 df3c ca70 49bd
00000090: 0d43 c0bb 7bf3 bf3c 45c7 a9bd efbc 6fbc
000000a0: 3bbf 5a3c ac6e 183d e838 e6bb 9b63 953d
000000b0: a647 afbd 8d1d 513d 8832 a1bd d504 883c
000000c0: 9a2a 873d 9c88 e2bc b5e2 863d a46b a7bd
000000d0: 77f2 0abd e77b 0cbd 2fd3 aebd 72e3 91bd
000000e0: 5fe2 943d d3ab 953d 6d05 113d 29ee 823d
000000f0: 1a29 28bd 017f 843c 5e35 3f3d 135c 4bbc
00000100: fe30 b4bb b40e 8bbd 7425 033d 2134 283d
00000110: 491b 533c 2e8c 1abd 3eec b23d 1d0d 89bd
00000120: e7ef a53d 793e 6b3c a635 aa3d b7c7 56bd
00000130: 8cde 84bd 2bf3 1ebb a077 e53c 17e5 68bd
00000140: 531f 843d a550 5d3d 04eb 41bd bfa7 c03c
00000150: d70e 9a3d 083b d9bb bd66 48bd dcbb 7e3b
00000160: b55b 1bbc c8d4 5bbd d574 49bd 4f84 a5bd
00000170: 7c5e 4fbd 49ab f63b 40a7 2dbd e9eb 913d
00000180: 272a 913d 1ede a93d 7e45 82bd 9330 23ba
00000190: 4c21 07bd eda8 84bc f693 88bd 0c1c a6bd
000001a0: c725 853d 91c0 193c 466b 653d 13c8 f33c
000001b0: a004 b8bc f475 1cbd ceb1 8dbd 130f 5abb
000001c0: 120a 1dbc d757 ef3c a655 333d 3932 81bd
000001d0: 25e7 66bd 22a8 7bbd 9e19 7bbc efff 883d
000001e0: c6df a73d 33f9 7f3d 1097 99bd f38a a8ba
000001f0: fd83 783d bff3 98bd 7d70 87bd 9f90 2d3d

actor.2.weight f4 [5, 128]
0.075542755 0.06508537 -0.0037326617 -0.006703309 0.03002022 -0.07233694 0.019367782 0.019011917
0.013845429 -0.07463495 0.0755873 0.06431227 0.06364419 -0.004317713 0.010895497 0.07966105
0.032810804 0.07182822 -0.06255178 0.081137486 -0.028233362 -0.032545123 0.007454429 -0.045376636
-0.035798088 -0.04852393 -0.06498967 0.034372747 0.02279193 0.08791383 0.021699652 -0.009886449
0.049332518 -0.04941386 -0.048354194 0.081263825 0.022107359 -0.08830552 -0.07895214 -0.04273564
-0.0065244585 0.051870875 -0.027179154 0.03927571 0.033605885 0.0407216 -0.0012268842 -0.06133185
-0.057313927 -0.0328447 0.024839075 -0.006568186 0.054323558 -0.010442314 -0.08006952 -0.07758839
-0.010119142 -0.08643202 -0.027849035 -0.013329783 -0.029875847 -0.023164613 0.070659444 0.06540327
0.04414383 -0.07615118 0.030772278 -0.063341886 -0.014088332 -0.027216865 -0.07096993 -0.0034293942
-0.018350728 0.08043728 0.049605522 -0.044121016 0.026866477 -0.077187695 -0.04005038 0.024218949
-0.006800668 0.059533264 -0.009863352 0.0026336722 0.07011492 0.06667885 0.04910976 0.026966702
-0.02152547 0.003721514 -0.07532496 -0.0027929242 0.05778693 -0.077704996 -0.049062576 0.08610249
-0.0805476 0.006183227 -0.07476345 -0.037265852 -0.057316467 -0.0738112 -0.03948043 0.031143855
0.0602291 -0.028245268 0.08597623 0.055860303 -0.022191506 0.033088006 0.08739427 0.074425414
0.002310427 -0.0672697 -0.041955985 0.053733703 -0.029171087 -0.052964985 -0.08415913 -0.07118581
-0.05324639 -0.03841721 0.024024535 -0.062073372 0.010807969 0.048843097 -0.04658764 -0.0105355
0.013584614 0.068858564 -0.010981456 -0.02070386 -0.018762775 -0.0021920153 0.064431906 0.012666023
-0.025665238 -0.031051217 0.044672046 -0.035664864 -0.06693569 0.08765594 -0.07877656 0.08070577
-0.04852903 -0.08032032 -0.054171406 -0.051261682 0.06887945 -0.021251367 0.057654295 -0.0056107463
0.062590115 -0.08338354 -0.08115817 0.065600075 0.06811584 -0.0378903 0.011511105 -0.037197586
-0.08644168 0.04028652 0.040946443 -0.059638128 -0.0028423097 0.06544969 0.016936067 -0.017206114
-0.060709227 0.0092973625 -0.044034753 -0.019898906 -0.0009918733 -0.062557764 -0.026020315 0.04223135
0.047118172 0.033437327 -0.040777486 0.028842067 0.010981414 -0.05042336 -0.008269032 0.0037286684
-0.07284464 0.02829435 -0.06890357 -0.08385786 0.06170643 -0.088321224 0.046548832 -0.013882444
0.049385644 -0.06823773 0.08386544 0.068057984 0.037597686 -0.04039044 -0.07313644 0.03583718
0.021236407 0.006021636 -0.05538274 -0.032624293 0.021869367 0.03393114 -0.057437524 -0.026042907
0.0121243205 0.008791822 -0.024450619 -0.08186839 -0.018932385 0.01373885 0.004399994 -0.015685434
-0.06199655 -0.050385196 -0.04960532 0.027650323 0.07190329 -0.029836902 -0.014250819 -0.016555903
-0.08647346 0.011238046 -0.044346575 -0.06829932 0.009805517 -0.06356294 -0.0034727526 0.021883834
0.02943674 0.03688398 0.06938684 0.073749036 -0.06351058 0.030488672 0.084818974 0.08669532
0.064386055 -0.04201555 -0.0047459984 -0.081823334 0.032351427 0.065156415 0.028239926 0.06800648
-0.06717344 -0.079948895 -0.07582417 0.0057157027 0.029034974 -0.017736932 0.073452145 -0.01622797
00000000: 29b6 9a3d 7a4b 853d ac9f 74bb 6ea7 dbbb
00000010: f7ec f53c 6425 94bd 2fa9 9e3c e1be 9b3c
00000020: f0d7 623c 35da 98bd 84cd 9a3d 27b6 833d
00000030: e357 823d 9a7b 8dbb 0783 323c 5525 a33d
00000040: 9f64 063d ac1a 933d 261b 80bd 692b a63d
00000050: a749 e7bc 094e 05bd 4844 f43b dadc 39bd
00000060: 04a1 12bd 07c1 46bd 4e19 85bd 70ca 0c3d
00000070: 24b6 ba3c 2b0c b43d 78c3 b13c c6fa 21bc
00000080: e510 4a3d 3066 4abd 0c0f 46bd a66d a63d
00000090: 7e1a b53c 86d9 b4bd a9b1 a1bd 910b 2fbd
000000a0: 20cb d5bb 8e76 543d d1a6 debc 91df 203d
000000b0: 53a6 093d b1cb 263d 67cf a0ba 1b37 7bbd
000000c0: 02c2 6abd 2a88 06bd 517b cb3c f039 d7bb
000000d0: 6182 5e3d 3d16 2bbc 7dfb a3bd a9e6 9ebd
000000e0: c2ca 25bc 4503 b1bd a923 e4bc 2a65 5abc
000000f0: 31be f4bc b7c3 bdbc e6b5 903d 26f2 853d
00000100: 29d0 343d 26f5 9bbd 2516 fc3c 64b9 81bd
00000110: bfd2 66bc e7f5 debc af58 91bd b0bf 60bb
00000120: 4454 96bc 4dbc a43d 292f 4b3d 3db8 34bd
00000130: 1617 dc3c 9514 9ebd de0b 24bd d166 c63c
00000140: 23d8 debb 27d9 733d e699 21bc b099 2c3b
00000150: 6998 8f3d ec8e 883d 5127 493d 46e9 dc3c
00000160: 2f56 b0bc a5e4 733b f943 9abd 7e09 37bb
00000170: fdb1 6c3d cc23 9fbd d7f5 48bd 8156 b03d
00000180: 24f6 a4bd ab9c ca3b 941d 99bd 14a4 18bd
00000190: acc4 6abd 542a 97bd 3bb6 21bd 6621 ff3c
000001a0: cab2 763d 9f62 e7bc 4e14 b03d c6cd 643d
000001b0: f6ca b5bc 4a87 073d c4fb b23d 5a6c 983d
000001c0: 886a 173b b2c4 89bd 0ada 2bbd df17 5c3d
000001d0: 34f8 eebc d0f1 58bd 9f5b acbd dec9 91bd
000001e0: e318 5abd 5d5b 1dbd 1acf c43c a640 7ebd
000001f0: e813 313c b30f 483d aed2 3ebd 179d 2cbc
00000200: 0092 5e3c b805 8d3d 91eb 33bc 249b a9bc
00000210: 64b4 99bc eaa7 0fbb e0f4 833d 2785 4f3c
00000220: e83f d2bc 1f5f febc 09fa 363d 5215 12bd
00000230: 9415 89bd f584 b33d 9b55 a1bd 1149 a53d
00000240: 60c6 46bd fb7e a4bd d6e2 5dbd c5f7 51bd
00000250: ab10 8d3d 5917 aebc e926 6c3d 5ada b7bb
00000260: 3f2f 803d fdc4 aabd 4136 a6bd 5559 863d
00000270: 5180 8b3d dc32 1bbd 1399 3c3c 7f5c 18bd
00000280: 5608 b1bd 7a03 253d 75b7 273d 1c47 74bd
00000290: 0b46 3abb 7d0a 863d 82bd 8a3c d6f3 8cbc
000002a0: 3daa 78bd f753 183c c95d 34bd 0803 a3bc
000002b0: bf01 82ba 491e 80bd 8e28 d5bc c8fa 2c3d
000002c0: fcfe 403d 94f5 083d 4b06 27bd 3346 ec3c
000002d0: 63eb 333c ba88 4ebd d67a 07bc ad5c 743b
000002e0: 922f 95bd 8dc9 e73c 511d 8dbd abbd abbd
000002f0: e2bf 7c3d c2e1 b4bd fda9 3e3d 3173 63bc
00000300: 9a48 4a3d 39c0 8bbd a5c1 ab3d fc61 8b3d
00000310: 0800 1a3d 7270 25bd 8fc8 95bd 02ca 123d
00000320: f9f7 ad3c 2551 c53b 03d9 62bd 0da1 05bd
00000330: 6327 b33c 61fb 0a3d 9c43 6bbd ef57 d5bc
00000340: 16a5 463c 930b 103c aa4c c8bc 9daa a7bd
00000350: 1718 9bbc ea18 613c d32d 903b bd7e 80bc
00000360: 18f0 7dbd b560 4ebd f32e 4bbd ee82 e23c
00000370: 0842 933d 856c f4bc 447c 69bc 3fa0 87bc
00000380: ff18 b1bd c81f 383c c1a4 35bd 84e0 8bbd
00000390: 52a7 203c 492d 82bd 1f97 63bb ba45 b33c
000003a0: 5125 f13c a813 173d b01a 8e3d bc09 973d
000003b0: d611 82bd 61c3 f93c 92b5 ad3d 518d b13d
000003c0: d6dc 833d 7f18 2cbd 5284 9bbb fe92 a7bd
000003d0: ee82 043d ba70 853d 6b57 e73c fb46 8b3d
000003e0: 3a92 89bd 3fbc a3bd b449 9bbd ca4a bb3b
000003f0: c1da ed3c 0b4d 91bc 146e 963d 85f0 84bc

actor.2.bias f4 [5]
-0.014446506 -0.08344294 0.086290225 0.06764435 0.014299246
00000000: 0ab1 6cbc 22e4 aabd eeb8 b03d 1f89 8a3d
00000010: 6247 6a3c

critic.0.weight f4 [128, 128]
-0.07632186 0.011311539 -0.05844573 -4.882712e-05 0.06122388 -0.0045510377 0.06241872 0.012312833
0.06916364 0.078704 0.05833307 -0.027624298 -0.08144561 -0.08823104 -0.075798586 -0.059265886
-0.037320875 0.011956481 -0.04192618 -0.06559568 -0.037667777 0.03092114 -0.027613424 -0.07591097
0.0021912989 -0.037638526 -0.012903089 0.071483076 0.07829989 0.04516514 -0.054872952 0.053854104
-0.03877747 0.003700999 0.0012441855 0.06698348 -0.028023565 0.032386124 -0.07396514 0.008245209
-0.02453644 0.085085034 0.030787567 -0.051648516 0.052092303 0.079217 -0.022357922 -0.058521423
-0.02151763 -0.07703834 0.056972034 -0.053795394 0.025533183 0.0384896 -0.046701152 0.04327907
-0.019145248 -0.014676417 -0.080140956 -0.0025375248 0.024045851 -0.016951462 -0.057374313 0.00989079
-0.022332381 -0.032936793 0.045118697 -0.02234176 0.026359629 0.017940817 -0.06980695 -0.021925949
0.0700404 -0.085093334 0.025165366 0.064742975 0.05398611 -0.03754807 -0.024945328 -0.073115885
0.062227502 -0.019158777 -0.021561168 -0.06519378 0.06819568 0.027954318 0.027088275 -0.07424998
-0.087133974 0.0021226523 -0.006900282 -0.049509387 0.041530933 0.061328847 -0.008966784 -0.050260138
0.052371576 0.061077673 -0.07008821 -0.020957647 -0.061910316 0.0074158222 0.010956821 -0.07368802
0.07287775 -0.06507265 0.005260064 0.0011289981 0.043341175 -0.011000928 0.04762834 0.047824208
-0.006902326 -0.053422637 0.04021178 0.05503744 -0.06606331 0.0099025285 0.08303713 -0.026661074
-0.08363106 -0.038205083 -0.07988625 -0.078748696 0.07333862 0.058624968 0.046425175 0.026820116
0.056488905 -0.06989985 0.06420321 -0.002713825 -0.021639066 -0.073982425 -0.074063435 0.08560676
-0.068136185 -0.052778717 0.057954025 -0.008828669 0.051035997 0.014147296 -0.010407627 -0.07914262
0.07585719 -0.018472563 -0.05876322 -0.06387643 0.018479854 -0.0401723 0.00039396767 -0.032416593
0.07391442 -0.027964981 -0.04073102 0.006452619 0.07039837 0.06831506 -0.02698865 0.015107053
0.07092453 0.018260406 0.08751494 -0.067060605 -0.04852024 0.061553217 0.044140257 -0.055601712
0.011474353 -0.06430453 -0.06350975 -0.040931974 -0.0017743085 0.012231173 0.02755465 -0.039936457
-0.07111223 -0.00070985826 -0.01651521 0.041823868 0.07890368 -0.05373195 0.07642344 0.07643046
0.076304086 -0.060815666 -0.074331425 -0.04629413 -0.08677248 -0.0047638267 -0.052761607 -0.01988364
0.055856954 0.08693648 0.08368105 -0.010977578 0.019608695 -0.08511708 0.012847592 0.009124929
0.05643542 0.03744131 0.0779593 -0.08345462 -0.057283908 -0.058755066 0.041673906 0.049318325
-0.021462344 0.021884045 -0.08419168 0.06585189 -0.02311663 -0.046227653 0.04567099 0.013867915
-0.07931463 -0.010241927 -0.05605162 0.029177567 -0.08707275 0.06507155 -0.044038408 -0.08085769
-0.06164228 -0.08203094 0.07593622 -0.033439647 -0.012581624 0.014249734 -0.039482273 -0.0739258
-0.0059526735 -0.059536174 -0.058446478 0.053509817 0.0034892112 0.07767038 -0.0052839397 -0.022391556
0.004899413 0.07135334 -0.009833302 0.020849666 -0.053365063 -0.05356489 0.07233982 0.041018736
-0.06313761 0.04978824 -0.079871416 0.018802226 0.043328963 -0.07860718 -0.0026948377 0.010488612
00000000: a34e 9cbd 0954 393c ca64 6fbd b9cb 4cb8
00000010: e4c5 7a3d df20 95bb c6aa 7f3d c4bb 493c
00000020: aba5 8d3d 902f a13d a8ee 6e3d 5a4c e2bc
00000030: f5cc a6bd 7ab2 b4bd 4a3c 9bbd c9c0 72bd
00000040: c6dd 18bd 1ee5 433c c9ba 2bbd 0757 86bd
00000050: 8749 1abd 554e fd3c 8c35 e2bc 3677 9bbd
00000060: e59b 0f3b db2a 1abd 7a67 53bc b865 923d
00000070: b15b a03d 15ff 383d 76c2 60bd 1f96 5c3d
00000080: 20d5 1ebd 768c 723b f013 a33a a22e 893d
00000090: ad91 e5bc 50a7 043d 097b 97bd ea16 073c
000000a0: a500 c9bc 1041 ae3d 3536 fc3c 658d 53bd
000000b0: bd5e 553d 863c a23d f627 b7bc 29b4 6fbd
000000c0: be45 b0bc 47c6 9dbd 825b 693d 8f58 5cbd
000000d0: f72a d13c 45a7 1d3d b549 3fbd 6545 313d
000000e0: 7fd6 9cbc 5b75 70bc f120 a4bd 9a4c 26bb
000000f0: cefb c43c cbdd 8abc 5401 6bbd fb0c 223c
00000100: 66f2 b6bc bbe8 06bd 62ce 383d 1106 b7bc
00000110: 26f0 d73c 9ff8 923c f2f6 8ebd 0c9e b3bc
00000120: 5771 8f3d 6a45 aebd 9927 ce3c f797 843d
00000130: 8a20 5d3d 01cc 19bd 255a ccbc c8bd 95bd
00000140: 44e2 7e3d def2 9cbc 0ca1 b0bc 5184 85bd
00000150: 2daa 8b3d 7400 e53c 3be8 dd3c 6010 98bd
00000160: 4c73 b2bd 321c 0b3b c31b e2bb 5bca 4abd
00000170: 571c 2a3d f533 7b3d 6be9 12bc 93dd 4dbd
00000180: 9483 563d 952c 7a3d 688a 8fbd 5faf abbc
00000190: ac95 7dbd 6d00 f33b 3d84 333c bfe9 96bd
000001a0: ee40 953d cf44 85bd 9d5c ac3b e4fa 933a
000001b0: 8486 313d 3c3d 34bc ef15 433d 51e3 433d
000001c0: e82c e2bb b2d1 5abd 1cb5 243d f06e 613d
000001d0: 334c 87bd 373e 223c 5f0f aa3d 5368 dabc
000001e0: c346 abbd ef7c 1cbd 679b a3bd ff46 a1bd
000001f0: 8f32 963d bc20 703d 5328 3e3d dcb5 db3c
00000200: e960 673d a727 8fbd f97c 833d 6eda 31bb
00000210: 6944 b1bc 1984 97bd 92ae 97bd 9952 af3d
00000220: fc8a 8bbd 7f2e 58bd 3361 6d3d 1fa6 10bc
00000230: 1f0b 513d 0fca 673c c084 2abc 8715 a2bd
00000240: 045b 9b3d c653 97bc b4b1 70bd a5d1 82bd
00000250: 1063 973c b68b 24bd 728d ce39 43c7 04bd
00000260: 7260 973d d116 e5bc 92d5 26bd 7e70 d33b
00000270: 052d 903d c4e8 8b3d 4d17 ddbc 9383 773c
00000280: e140 913d d996 953c 083b b33d 1257 89bd
00000290: 29bd 46bd 3a1f 7c3d 6acc 343d 9fbe 63bd
000002a0: edfe 3b3c 18b2 83bd 6611 82bd 49a8 27bd
000002b0: ea8f e8ba 4265 483c 4aba e13c 6994 23bd
000002c0: 4aa3 91bd c815 3aba e84a 87bc 814f 2b3d
000002d0: 4198 a13d 0916 5cbd e483 9c3d 9387 9c3d
000002e0: 5145 9c3d d919 79bd 133b 98bd ea9e 3dbd
000002f0: c5b5 b1bd e019 9cbb 8e1c 58bd 04e3 a2bc
00000300: 43ca 643d c10b b23d f860 ab3d 4ddb 33bc
00000310: 6aa2 a03c dd51 aebd b57e 523c ba80 153c
00000320: d428 673d 0f5c 193d 20a9 9f3d 41ea aabd
00000330: 88a2 6abd 27a9 70bd 42b2 2a3d 0302 4a3d
00000340: ccd1 afbc 2b46 b33c b06c acbd 5bdd 863d
00000350: 165f bdbc 3559 3dbd 8111 3b3d 4036 633c
00000360: b56f a2bd c1cd 27bc 6296 65bd cb05 ef3c
00000370: 3353 b2bd 3c44 853d 9e61 34bd b798 a5bd
00000380: 9e7c 7cbd d6ff a7bd 7384 9b3d 03f8 08bd
00000390: 2823 4ebc b777 693c 2ab8 21bd 6966 97bd
000003a0: a50e c3bb 34dc 73bd 9365 6fbd 1c2d 5b3d
000003b0: 40ab 643b a611 9f3d e624 adbb 7f6e b7bc
000003c0: 418b a03b b321 923d dc1b 21bc ebcc aa3c
000003d0: 5395 5abd dc66 5bbd e626 943d 4303 283d
000003e0: 4b4e 81bd c1ee 4b3d a093 a3bd 2007 9a3c
000003f0: b679 313d cdfc a0bd e09b 30bb 6dd8 2b3c

critic.0.bias f4 [128]
-0.020293234 0.07220627 0.031746723 -0.0069922465 -0.0651086 -0.05607697 0.04198217 -0.0369295
0.019252386 -0.011297231 -0.021215817 -0.008707381 0.043958362 -0.054859653 0.08084199 -0.06803973
0.057781454 -0.005965191 0.0023100793 0.033636734 0.0053340523 -0.014655059 -0.05468781 -0.06047551
-0.05102801 0.028498434 0.047612842 -0.08574636 -0.027070383 -0.036623094 -0.022382347 0.007087867
0.01883139 -0.004313814 0.011030937 -0.087065354 0.030710902 0.010214521 -0.025801994 -0.010910228
-0.07055339 0.08460441 -0.03405989 0.03938979 -0.00136933 0.025612976 0.08680285 -0.028093014
0.02723934 0.0025691031 -0.019151254 -0.0012656277 -0.0751216 0.06156336 0.022015354 0.054768912
-0.06466738 0.06574681 -0.056749403 0.06595342 -0.024932558 -0.07005255 0.034737475 -0.05055981
0.032653555 0.06574299 -0.07182315 -0.008876747 0.033469707 0.044924956 0.044086542 0.04481035
0.036465928 -0.02063813 0.0825057 0.08563381 -0.02768419 0.052479178 0.015131635 0.008386032
-0.017782029 0.057699267 0.053298745 0.03214986 0.043106835 0.020536156 -0.004729403 -0.0108824
-0.03202897 -0.0805964 -0.008712207 0.0046514105 0.02331315 -0.013933274 0.016215473 0.03827604
-0.08744122 0.07091772 -0.048048533 -0.048769087 -0.0749966 -0.06357784 -0.0054485654 -0.075341
-0.08763088 0.044493638 -0.017873488 0.008184591 0.012497246 0.06751807 -0.085552685 0.014530684
-0.00049140066 0.0013831331 0.08541687 -0.014978273 -0.023957996 -0.021314451 0.053046666 -0.08212264
-0.022941772 0.027956204 -0.042491157 0.08392222 0.013227462 0.056010947 0.04435138 -0.004173202
00000000: ff3d a6bc e2e0 933d da08 023d 371f e5bb
00000010: a857 85bd f7b0 65bd 7ff5 2b3d 6343 17bd
00000020: 2eb7 9d3c 0518 39bc cbcc adbc 67a9 0ebc
00000030: af0d 343d 84b4 60bd 7c90 a53d 6a58 8bbd
00000040: 3fac 6c3d a677 c3bb b364 173b acc6 093d
00000050: 46c9 ae3b c61b 70bc 5300 60bd 2bb5 77bd
00000060: bf02 51bd 8c75 e93c af05 433d ca9b afbd
00000070: b5c2 ddbc 1902 16bd 2f5b b7bc 5641 e83b
00000080: 4a44 9a3c e55a 8dbb 1abb 343c 524f b2bd
00000090: 6e95 fb3c ce5a 273c b45e d3bc d0c0 32bc
000000a0: 4c7e 90bd 1445 ad3d 6282 0bbd 3057 213d
000000b0: 177b b3ba 4ed2 d13c b1c5 b13d 5223 e6bc
000000c0: 0925 df3c 665e 283b 17e3 9cbc 6be3 a5ba
000000d0: 5ad9 99bd dd29 7c3d 8b59 b43c 5e55 603d
000000e0: 5570 84bd 43a6 863d 1072 68bd 9612 873d
000000f0: 5d3f ccbc b677 8fbd e248 0e3d ce17 4fbd
00000100: bcbf 053d 43a4 863d 0418 93bd c76f 11bc
00000110: 8817 093d 3b03 383d 1794 343d 0f8b 373d
00000120: 4c5d 153d 4c11 a9bc c0f8 a83d c760 af3d
00000130: f4c9 e2bc 68f4 563d adea 773c 9165 093c
00000140: 9eab 91bc 1156 6c3d c94f 5a3d 92af 033d
00000150: cb90 303d 713b a83c 1cf9 9abb 184c 32bc
00000160: cf30 03bd ba0f a5bd a5bd 0ebc dc6a 983b
00000170: 38fb be3c 6348 64bc 50d6 843c 56c7 1c3d
00000180: 6214 b3bd 4f3d 913d 8ace 44bd 18c2 47bd
00000190: d197 99bd 1935 82bd e189 b2bb 624c 9abd
000001a0: d277 b3bd f63e 363d 6c6b 92bc aa18 063c
000001b0: 40c1 4c3c ea46 8a3d 3f36 afbd 1b12 6e3c
000001c0: 57d1 00ba 3f4a b53a 0aef ae3d 6e67 75bc
000001d0: 8f43 c4bc a59b aebc 7647 593d ea2f a8bd
000001e0: 62f0 bbbc 6904 e53c 350b 2ebd 6adf ab3d
000001f0: ffb7 583c bc6b 653d cba9 353d 5bbf 88bb

critic.2.weight f4 [1, 128]
-0.059316274 0.078802645 0.023173148 -0.018403664 -0.06157941 0.0048620184 -0.057723608 -0.008980977
0.054163378 0.0045411014 -0.003351939 0.07508871 0.03151087 -0.04750841 0.0071201725 -0.015626734
-0.04966455 -0.0102998465 -0.014770763 0.015043432 -0.008749717 -0.027225135 -0.019393872 0.004941402
-0.00033013624 -0.0046458156 0.04149726 -0.0090322485 0.02436093 0.06955623 -0.03278287 -0.0881463
-0.06380183 -0.0866585 0.016599156 0.05334911 0.05331651 -0.060889825 0.0110426955 -0.008410962
-0.029816967 -0.05985943 0.0061508054 -0.0285488 0.041546393 0.08420997 0.07158348 -0.011636365
0.030248845 0.0047766813 0.050826423 -0.08805483 -0.057165656 0.019019092 0.07081695 0.03201306
0.035750285 0.058450375 -0.06180969 0.042427756 -0.058717724 -0.052161414 0.013072962 0.08104258
0.08327451 0.08487146 0.07186598 0.058395006 0.015910646 -0.064888455 -0.0218753 -0.0018392041
0.047351446 -0.021190561 0.0064843977 0.010109975 -0.013385839 0.059392665 -0.029205374 0.004284743
-0.07893957 0.05420802 0.07774199 -0.06996606 0.018638622 0.028510489 -0.05059686 0.009956361
-0.04650051 -0.025901556 0.012092415 -0.022045309 -0.060877245 0.008782308 -0.04738605 0.018050779
0.058164053 0.06433974 0.085532114 -0.063969836 0.024011903 0.083975 -0.058465663 -0.08495713
-0.006942155 -0.025267078 0.009225124 0.06878976 -0.067635335 0.060256686 0.07371745 0.08322796
-0.02726348 -0.009412856 0.05428511 -0.08490738 0.018620698 -0.084945455 0.060310274 -0.04555776
0.04240919 -0.05296861 -0.011281183 -0.08363672 0.038186602 0.07333844 0.05903154 -0.034727644
00000000: 9ff5 72bd 4863 a13d 9dd5 bd3c 48c3 96bc
00000010: b13a 7cbd 9151 9f3b 976f 6cbd f324 13bc
00000020: 6bda 5d3d 85cd 943b 34ac 5bbb 1cc8 993d
00000030: 8b11 013d 2e98 42bd 5650 e93b a303 80bc
00000040: 0e6d 4bbd b0c0 28bc 1201 72bc ba78 763c
00000050: f95a 0fbc 3f07 dfbc e6df 9ebc 7ceb a13b
00000060: 2316 adb9 ed3b 98bb 08f9 293d fffb 13bc
00000070: 9390 c73c 7f73 8e3d 5547 06bd 0c86 b4bd
00000080: 89aa 82bd 037a b1bd f4fa 873c 9984 5a3d
00000090: 6a62 5a3d 9c67 79bd 6cec 343c 22ce 09bc
000000a0: b642 f4bc 292f 75bd b28c c93b 2cdf e9bc
000000b0: 8d2c 2a3d 4776 ac3d 5c9a 923d 74a6 3ebc
000000c0: 6dcc f73c b585 9c3b 5e2f 503d 1756 b4bd
000000d0: 8926 6abd edcd 9b3c 7a08 913d 2020 033d
000000e0: e46e 123d a969 6f3d 282c 7dbd bac8 2d3d
000000f0: ff81 70bd 35a7 55bd fa2f 563c a7f9 a53d
00000100: d48b aa3d 17d1 ad3d 792e 933d 9a2f 6f3d
00000110: 0b57 823c 3de4 84bd d433 b3bc 7311 f1ba
00000120: 97f3 413d d497 adbc 127b d43b 4fa4 253c
00000130: 4750 5bbc b945 733d 1c40 efbc 0867 8c3b
00000140: 12ab a1bd 3b09 5e3d 3137 9f3d 5e4a 8fbd
00000150: 06b0 983c d48e e93c a73e 4fbd 0120 233c
00000160: 5277 3ebd 802f d4bc 441f 463c 5d98 b4bc
00000170: 6b5a 79bd abe3 0f3c e017 42bd 3adf 933c
00000180: 6e3d 6e3d 8ec4 833d 762b af3d 9e02 83bd
00000190: 9cb4 c43c 16fb ab3d b179 6fbd 01fe adbd
000001a0: 047b e3bb e7fc cebc f924 173c a5e1 8c3d
000001b0: 6584 8abd b7cf 763d 2df9 963d 6c73 aa3d
000001c0: a957 dfbc 6138 1abc 105a 5e3d ece3 adbd
000001d0: 6f8a 983c e2f7 adbd e807 773d c69a 3abd
000001e0: 42b5 2d3d 9df5 58bd b6d4 38bc bb49 abbd
000001f0: 8e69 1c3d 7732 963d 0ecb 713d 933e 0ebd
