models/best_frl_agent2.pt (torch, 318160 bytes, 17 tensors)

input_layer.weight f4 [128, 20]
00000000: aa98 403e 0f2d f5bd 22d4 92bd d9fc 22be
00000010: 3599 95bd be20 64be f14f 57be b4e4 e33d
00000020: 229f 793d 984d aabd 03f3 533e fef7 dc3d
00000030: 0e57 393e fe76 02be 7c63 47be 83f4 8fbd
00000040: 1adf d4bd ec77 24be e05d 8bbd 678d 493e
00000050: 0e2a f63d 6e45 89bc 8c60 f8bd 0707 f33d
00000060: 130a fabd bd72 33be fdd3 34be fd8b 4cbd
00000070: 6cee 16be e7ab 2bbd 80c1 2abe e544 133e
00000080: 9fe9 c33d 1876 b03d 4d95 6dbd 7a04 abbc
00000090: 3f17 b23c ba42 56be 8bba 1cbe b107 e73d
000000a0: da62 d0bd 8210 b93d 6781 553e 5bbb 9a3d
000000b0: 9ca8 0f3e b746 183b 2fd3 223d d9f6 15be
000000c0: 785f 2ebe dc0e 833b 38db 99bb fc78 023e
000000d0: a0ef b13d 90dc 0bbe 1ada 21be e4b5 a9bd
000000e0: 42c7 633e 2ca5 873d 42ed 1fbd aecf c9bd
000000f0: 354f 223e a3d5 0b3e 82d6 8239 d8cd 2b3e
00000100: 03eb a23d 1820 1dbe 1f47 52be 2157 213e
00000110: 5844 f7bc 5c4e debd cff7 63be a49f 473e
00000120: 588d 35bc 68b8 05be cedd 1d3e e186 b03c
00000130: 0b56 07be 2fe9 833d 773c bcbd a6dc 143e
00000140: fcbf 1a3e fcdf 46be 81e7 03bd cc8c a6bd
00000150: 1a49 36be 8f11 bbbd 4814 f63d 14c4 2abe
00000160: 96a8 59be 18c7 753d 2024 be3d dbad d6bd
00000170: a718 823d 3f5e 363e 1fbf ac3d 09c2 383d
00000180: cf23 93bd 76ba f5bc c049 56be 8c3e b43c
00000190: bbfb 27be 1db2 513e b39e fabd 9677 f4bd
000001a0: c9ed bbbc e295 2dbe 5636 e53d 7499 583d
000001b0: 4b49 51be 3e07 1b3e 321b 643d 4398 55be
000001c0: ae4b b2bd 3bc0 1cbe 4827 4dbe 705b 88bd
000001d0: 40fe 4f3e 9bb1 95bd 6d20 63be c17e 883d
000001e0: fda0 323e 4af0 d33d d0b1 8c3d 5fd2 e5bd
000001f0: 0b54 87bd f3fa 513e b6fb 333e df63 fe3d
00000200: f987 513d a002 cc3d c341 713d 06d1 0e3e
00000210: 86bb 663c 624b e53d 1e29 cf3d 8632 6f3d
00000220: 1a0b 9bbd 1417 37be 24df 383e 5384 d83b
00000230: ead8 5f3d 8a8b 35be c23d debd 85b3 b33d
00000240: e040 66bd 526d 2ebe 7436 0cbe 86a3 1fbd
00000250: ab70 09bd 4f3c 1f3e ac21 0dbe ff62 63bd
00000260: d82d 2fbe a275 113e 3f7b 4dbe 8819 58be
00000270: 88ca 10be f025 5a3d 0b5a 913d 7726 3abe
00000280: d91c 31be 647d 51be bb9a 2cbe 8e2a 30bd
00000290: 9619 7b3b ff27 3a3e a6fa 06be ca70 c33d
000002a0: dcad 58be c936 0abe adc9 123e fee4 273e
000002b0: 3b65 85bc 4d7c 10be 4f7f 47be 5b79 71bd
000002c0: 51d3 2c3e 6f7b ee3d 1233 63be a34d 2ebe
000002d0: 30a1 f23d 5a10 f43d 8444 313e a07e 4b3d
000002e0: fa97 0d3e 920f 1abd f37c 0b3e 350d 123d
000002f0: 9884 173d c14d 0ebe 47b5 92bd 3c0d 4fbd
00000300: 30b4 843d 0e0b 4b3e 1e0f 413e a5e4 693c
00000310: 94f5 5ebe 510f 74ba 15fa ab3d 5d8d 3cbe
00000320: 75cc 44be 0038 923c bc4d 1e3e be33 e03d
00000330: dd02 883d 566f 9cbd 4f2b dcbd 8692 33be
00000340: 1ce9 893c d1d6 2fbd 9dea 073e 75bb 20be
00000350: b454 7abc f360 c73d 6549 31be b63d d43d
00000360: 42ba 253b 884b 403e e276 1ebd e8f0 e3bd
00000370: c335 e5bd 8d41 3b3e 49ed 4d3e 7e53 103e
00000380: fe74 423d 2e2a 0abd ae2b e23c 04ca 16be
00000390: 0f06 d3bd 71d2 24be 2510 c13d b499 43be
000003a0: 72b8 e4bd aba4 9d3c 89c5 2cbc 6e4c 503e
000003b0: 6c06 4b3e 8b3b 8ebd 9510 1c3e dbc5 b3bb
000003c0: 5089 4c3e cdec 02be 76a0 b53c 292e 1f3e
000003d0: 5069 cb3d f0b5 15be 3f62 cebd f08a 07bd
000003e0: 5173 c13c ec06 413d 38a5 a9bd 3b4f 423d
000003f0: 51d3 4cbd 2a48 0b3e 1d93 5f3e 7a64 423c
0.18808237 -0.11971485 -0.071693674 -0.15916766 -0.073046125 -0.22278115 -0.21026589 0.11127606
0.060942777 -0.08315581 0.2069817 0.10789488 0.18099615 -0.12740704 -0.19471544 -0.07029059
-0.10394116 -0.16061372 -0.068050146 0.19682847 0.1201974 -0.01675674 -0.1212779 0.11866575
-0.12208953 -0.17524238 -0.17658992 -0.04993819 -0.14739388 -0.041911986 -0.16675377 0.1438175
0.09566044 0.086162746 -0.058003712 -0.020876158 0.0217396 -0.20923892 -0.15305535 0.11280764
-0.101751044 0.09036352 0.20850144 0.075552665 0.14029163 0.0023235509 0.03975218 -0.14644946
-0.17028606 0.003999574 -0.0046953224 0.12741464 0.08688283 -0.13658357 -0.15805855 -0.08286646
0.2224398 0.06623301 -0.039044626 -0.09854065 0.15850528 0.13655715 0.00024955353 0.16777742
0.07954981 -0.15344274 -0.20534943 0.15755893 -0.030183956 -0.108547896 -0.222625 0.19494492
-0.011081062 -0.13058627 0.15416643 0.02154869 -0.13216417 0.064409606 -0.0919122 0.14537296
0.15112299 -0.19421381 -0.0322032 -0.081323236 -0.17801324 -0.091342084 0.12015587 -0.1667636
-0.21255717 0.060004324 0.09284234 -0.10482379 0.06352358 0.1780939 0.08434891 0.04510692
-0.07184564 -0.029996138 -0.20926571 0.02200248 -0.16404621 0.20478101 -0.12237301 -0.11936872
-0.022940533 -0.16951707 0.111920044 0.05288072 -0.20438115 0.15139481 0.055689998 -0.20858864
-0.08705841 -0.15307705 -0.20034516 -0.06658065 0.20311832 -0.07309266 -0.22180338 0.066648014
0.17444225 0.10348566 0.068698525 -0.11221766 -0.06607827 0.20505886 0.17576489 0.12421393
0.051155064 0.09961438 0.058900606 0.13946924 0.014082795 0.11196019 0.10115264 0.058397792
-0.07570477 -0.17879897 0.18053871 0.006607571 0.054650225 -0.17729011 -0.10851623 0.08774475
-0.056214213 -0.1703389 -0.13692647 -0.038974307 -0.033554714 0.1555035 -0.13782376 -0.055514332
-0.17107332 0.1420503 -0.20066546 -0.2110349 -0.1413976 0.053258836 0.070972525 -0.18178736
-0.17296161 -0.20457989 -0.168559 -0.043009333 0.003831481 0.1817932 -0.13181552 0.09542997
-0.21160072 -0.13497461 0.14334746 0.16395947 -0.016283622 -0.14109917 -0.19482158 -0.058953624
0.16877486 0.11644637 -0.2218745 -0.17021804 0.1184715 0.11917181 0.17311293 0.049681306
0.13827506 -0.037612505 0.13621883 0.035657126 0.036991686 -0.13896848 -0.07163482 -0.05054973
0.064796805 0.19828436 0.18853423 0.0142757045 -0.21773368 -0.00093101437 0.08397309 -0.18413301
-0.19218619 0.017848969 0.15459341 0.10947369 0.06641171 -0.07638423 -0.10750448 -0.17536363
0.016834788 -0.042929474 0.13273092 -0.15696509 -0.015278984 0.097352885 -0.17313154 0.10363333
0.002528802 0.18778813 -0.038687594 -0.111299336 -0.11191895 0.18286724 0.20110048 0.1409435
0.047474854 -0.033731632 0.027608719 -0.147255 -0.1030389 -0.16095902 0.094269074 -0.19101602
-0.11167993 0.019243559 -0.010545143 0.20341656 0.19826669 -0.06944951 0.152407 -0.0054862327
0.19974256 -0.12785645 0.02217124 0.15544952 0.09932196 -0.14620185 -0.10077333 -0.033091486
0.023614557 0.04712574 -0.08283466 0.04743884 -0.050006215 0.13601747 0.21833463 0.011864776

input_layer.bias f4 [128]
00000000: fd06 e63d fcd8 293e 2b6d 053e 5df6 e73c
00000010: ce9b 4b3d f4b1 13bd e8d6 f8bd cd47 023e
00000020: 57ac 21be c758 093e fd1f 183e 5cd6 143e
00000030: 5633 d9bd 09a7 62be 7f9f fa3d f6a5 08be
00000040: facf 0d3e 4462 ca3d a171 c33d 4a78 a23d
00000050: 6489 ebbd c0f5 013e 7720 81bb b90e 953d
00000060: eeea 57bd 8d71 19be b415 473e ffaa 14be
00000070: 0c00 94bd f261 e83d f5c8 33bd 1c97 37be
00000080: 17c9 4cbd 3329 3c3e ae9a 21be 7165 6a3c
00000090: 6c3f d7bb 0124 32be beba 08be f8c6 24be
000000a0: 4c99 6d3c 768b 19be b05b 63be 186f 45be
000000b0: f6d6 13bd 8101 22be ed4d 063e f391 a3bc
000000c0: 8173 4c3d 2a43 91bd 8177 e53d a9e5 6dbd
000000d0: f1aa 0a3e 1b65 ac3d 5e7d 033e b46d 233e
000000e0: 3679 0fbe 9699 07bd 68f7 0dbe 0dea 223e
000000f0: 963a bf3d 3ecf 06be 4a6d d7bd c5ba ed3d
00000100: 7eca 07be 9cbf 103e bcce fa3d c4d1 243d
00000110: 3a5b 3d3e b21d 0cbe 76bb c43d 11ea c33d
00000120: 7b48 a33d 1a53 e83c 7dac 77bc 586a 513e
00000130: 6414 37be a424 233e 5b78 43be a99d 04be
00000140: 8d57 2dbe 425c b3bc c995 723d 0e42 5d3e
00000150: 48c5 5fbe 9b27 61be 2eb8 1f3c 6578 133e
00000160: 45cd 3b3e fcaf 843d 6acc 213e 598d 11be
00000170: c593 b33b 2e22 b5bd 8d0a 0c3e a861 17be
00000180: 5f50 3abe 6018 1a3c 6339 44be ab3b 8dbd
00000190: 339e 5fbe de51 bfbd 397b 43be bfa6 60be
000001a0: 0f23 3cbe 8209 60be f18b 95bd 65b1 b33d
000001b0: 010b 15bd fb75 923d 6674 323e ff85 273a
000001c0: dfbd a8bd 0dea 583e 495b 13be e1ba 56bd
000001d0: 295c 593d 8603 213e 2461 ae3c bd69 373e
000001e0: e1a7 783d 4268 fc3d 71ea 3abe af6a 4cbe
000001f0: fd61 713d 2e66 42be dd86 a8bd 79af 41be
0.11231802 0.16586679 0.13029926 0.028315717 0.049709134 -0.03605838 -0.12150365 0.12722702
-0.15788399 0.13412772 0.14855953 0.14534897 -0.10605495 -0.22134031 0.12237453 -0.13344559
0.13848868 0.09882024 0.09543157 0.079330996 -0.115008146 0.12691402 -0.0039406377 0.07278199
-0.05271428 -0.14984722 0.19441873 -0.14518355 -0.072265714 0.113468066 -0.04389282 -0.17928737
-0.04999646 0.18375091 -0.15781662 0.014306412 -0.00656884 -0.17396547 -0.13352486 -0.16091526
0.014501881 -0.14994606 -0.22202945 -0.1928066 -0.036093675 -0.15820886 0.13115664 -0.019967055
0.04991484 -0.07092889 0.11204434 -0.05808035 0.13541771 0.08417722 0.12840793 0.15959817
-0.14011082 -0.033105455 -0.13863909 0.15909596 0.09337346 -0.13164994 -0.10518892 0.11607889
-0.13260838 0.14135593 0.12246463 0.04023911 0.18491831 -0.13683203 0.09606068 0.09566129
0.07972809 0.028359938 -0.015116808 0.20450723 -0.17878872 0.15931946 -0.1908888 -0.12950768
-0.16927929 -0.021894578 0.059224878 0.21607229 -0.218526 -0.21987765 0.009748502 0.14401396
0.18340023 0.06478879 0.15800634 -0.14214076 0.005480262 -0.0884441 0.136759 -0.14783347
-0.18194722 0.0094052255 -0.19162516 -0.068961464 -0.21837692 -0.09341787 -0.19089974 -0.21938609
-0.18372749 -0.21878627 -0.07302082 0.0877407 -0.036387447 0.07151409 0.17427215 0.00063905114
-0.0823934 0.21183033 -0.14390291 -0.052424315 0.053066406 0.15724 0.021286555 0.1791143
0.060706977 0.12324573 -0.18253495 -0.19962572 0.05893134 -0.18984291 -0.08228848 -0.18914594

embedding.1.weight f4 [128, 128]
00000000: 1171 93bd 2538 be3c c67a 87bd 9a1d 823d
00000010: 679b 6f3d 76ac b6bc 1ac2 81bd e639 233d
00000020: 95c3 ac3d f897 823d 7dc5 5e3d dfde 5fbd
00000030: 4a42 423c 176d 05bd fb82 f6bb bfab a6bd
00000040: b218 003d 70cb ccbc 15f0 88bd cb8d 36bc
00000050: a808 80bd c2bc 9d3d a5d1 0b3d 4088 243d
00000060: 8b59 9f3c b0b3 8f3d 087c a43d 044d 85bd
00000070: b323 84bc 6330 233d b0e1 44bc e51d d3bc
00000080: 8383 67bd 69fa 9ebd b6ff 5cbd b4d5 2c3d
00000090: f3cf ed3b 8afa 67bb 44ee a2bd 2585 b03d
000000a0: 15af 97bd 1877 15bd 9c3f 30bd fdcf b4bd
000000b0: 81a1 873b 1ac1 473d 5253 c73c f736 03bd
000000c0: 15c7 c83c f738 abbd 75ec 2dbd 4bc0 5abd
000000d0: 1cb8 3c3d bcb4 15bd beee 873d f0c4 33bd
000000e0: e2c0 9cbd ffa7 1b3d 7b73 523d daac afbd
000000f0: cb63 3b3d 71e3 803d 66d5 a53d c3d0 c4bc
00000100: 49a9 313b 700a a73c db81 873d 58be 863d
00000110: ba1f 03bd 77de 263d 23f6 a93b 96fc 213d
00000120: 6ac2 b3bd ae62 4fbc ebb9 32bc 7be8 143c
00000130: 2963 9f3d 8894 a1bc a8b8 653b 0383 7bbd
00000140: 1c62 4abd 58f9 a6bd 1f61 623d 9d23 ad3d
00000150: 3c2c 73bd 7efd 25bc 59b3 b1bd a4c4 d7bc
00000160: 7db8 7a3d 5b37 17bc 1c9c 6dbc 5e2f 883d
00000170: 7421 adbb 4b16 29bc 7720 543d fcac d53c
00000180: 0cdf 87bd cb3d a03d 31fb 54bc d248 853b
00000190: 5a83 683d 3983 a6bb 9fc9 abbd 1f25 cabc
000001a0: 255c 613d 6f37 50bd 64dd 46bc e846 c23c
000001b0: 577d 733d 5520 583d 6d79 433d c3ce 0f3c
000001c0: bfa2 113d b010 49bc 4570 4b3c f7cb 9cbd
000001d0: 4f06 0d3c 661b 4abd 3b34 60bd 443e 98bd
000001e0: 5c0f 81bd c7c1 1abc 4601 aabc 736b d038
000001f0: 988f 753d 7d5c 2c3d ee9c aa3d 4ed4 273d
00000200: d43f 723c ac81 8cbd e41b 0c3d bd1d 23bd
00000210: 77e6 1d3d 0999 873d 2416 a73d f3a0 903d
00000220: b815 53bd 589c f73c 5fa2 65bd 7032 043c
00000230: 82be 463d 8ff0 9ebc 3cdb 8e3d 8ec7 663d
00000240: 32fd 033d ce38 843d d6c4 713d f163 443d
00000250: c80a 6abd 6876 31bd 3aec b33b a463 563d
00000260: 66dd c4bc 262c 22bd 76e0 6cbd 3e4d 763d
00000270: d7d7 a93d 016a 5e3c 1d03 3e3b de44 583d
00000280: 6082 9b3c dd3c 14bd 7bcf b73c 0ba3 48bd
00000290: 9a85 65bd ee62 8bbc 0cba 80bd b2ae 92bd
000002a0: 3369 97bd 4f8b 7fbc e67b 5dbd 5138 983d
000002b0: b50b e03c d852 263d c968 d2bc 264b 8fbd
000002c0: 91af cd3c feb6 a7bc 3f0a 023d e2ae b8bc
000002d0: ede9 96bb f39f 6e3d 3221 5abc 4212 753d
000002e0: c4c0 acbd 205d 293d 86c3 5dbc eb09 40bd
000002f0: 1861 c63c da18 aebc fcf9 db3a cab1 3ebd
00000300: a246 72bd fe78 65bd eed2 173d 6b2a 9ebd
00000310: 1f8b ecbc c220 03bd cc76 2cbd 1368 2f3d
00000320: 8100 38bd 72db 873d 94f1 aebd 6e47 61bd
00000330: c37b 86bd 09c3 a23d 40b6 2cbd 04f7 7aba
00000340: 4c00 2f3d 0ef6 43bd 786c a73d 5992 55bd
00000350: e0c7 81bc d459 173c e7b8 dc3a 6a76 4f3d
00000360: 8fca 343d 8c91 8d3d 486c 893d 4fab a7bd
00000370: a384 a23c fb3c 003d 0f7e e4bc 1ed0 84bd
00000380: 0c92 3c3d 5dc9 b4bd 33be 85bd 3a07 283d
00000390: 9deb 65bc 89b3 1abd 4820 443d 64ed 783c
000003a0: 4f13 e0bc 487a d3bc 61f9 b23c 04c1 863d
000003b0: b90d e33c d727 55bd 2dbb 8a3d f36f 383d
000003c0: 1f56 20bd 2eec 0cbd 0577 cdbb ad91 c83c
000003d0: 3b14 243d f40b 463c 25c2 07bd 6fa6 42bc
000003e0: 8d15 b23d 39f4 9e3d fc19 013d 78fb 45bd
000003f0: 97f3 7ebd 1f54 703c d1d5 b2bd 86e5 3bbd
-0.071993 0.023220131 -0.06615214 0.06353302 0.058497813 -0.022299033 -0.0633585 0.039850138
0.08435742 0.06376642 0.05438756 -0.054655906 0.011856625 -0.03257474 -0.0075229383 -0.08138227
0.03127355 -0.02499935 -0.06686417 -0.0111422045 -0.06251651 0.07702018 0.03413548 0.040169
0.019451877 0.070166945 0.080314696 -0.0650883 -0.016130304 0.039841067 -0.012016699 -0.02577109
-0.056521904 -0.07762606 -0.053954802 0.04219599 0.0072574555 -0.0035397136 -0.07955602 0.08619145
-0.07406441 -0.03649053 -0.043029413 -0.08828733 0.004139126 0.04876814 0.024331722 -0.03203484
0.024508992 -0.083604746 -0.04246183 -0.05340604 0.046074018 -0.036549315 0.06637333 -0.043888986
-0.07653977 0.03800201 0.051379662 -0.08577891 0.045749467 0.06293381 0.08097343 -0.024025327
0.0027108958 0.02039072 0.06616565 0.06579274 -0.03201268 0.040739503 0.0051868125 0.039547525
-0.08777316 -0.012657804 -0.010908584 0.009088631 0.07782585 -0.019724146 0.003505269 -0.06140424
-0.04940997 -0.08153027 0.055268403 0.08454058 -0.059368357 -0.010131238 -0.08676786 -0.026338883
0.061211098 -0.009229506 -0.014502551 0.066496596 -0.005283529 -0.010320256 0.051788773 0.026083462
-0.0663434 0.07824286 -0.012999342 0.0040675187 0.05676589 -0.005081561 -0.083880655 -0.024675904
0.055019516 -0.050834116 -0.012137745 0.023715451 0.059445705 0.05276521 0.047723223 0.008777323
0.035555597 -0.012272045 0.012416904 -0.07656091 0.008607461 -0.049342535 -0.05473731 -0.07433751
-0.06301758 -0.009445614 -0.02075256 9.938227e-05 0.059951395 0.04208039 0.08330713 0.040973954
0.014785726 -0.068606704 0.034206286 -0.039823283 0.038549867 0.06620986 0.0815852 0.070619486
-0.051534384 0.030225918 -0.056063052 0.008068666 0.048521526 -0.019401817 0.069754094 0.056342654
0.032223888 0.06456147 0.059025608 0.047946874 -0.057139188 -0.04332581 0.005490807 0.05234112
-0.024031352 -0.039592884 -0.05783125 0.060132258 0.08293121 0.013575078 0.0028993555 0.052800052
0.018983066 -0.036190856 0.022437802 -0.048983615 -0.056035616 -0.017014947 -0.062854856 -0.07162227
-0.07393112 -0.015597179 -0.054073237 0.074326165 0.027349332 0.04060635 -0.025684731 -0.06996755
0.02510813 -0.020473 0.031748053 -0.022544328 -0.004605523 0.05825801 -0.013313578 0.059831865
-0.084352046 0.041348577 -0.013535386 -0.04688446 0.02421622 -0.021252085 0.0016782875 -0.04655627
-0.059149392 -0.05602359 0.037066393 -0.07722934 -0.028874932 -0.032013662 -0.04210548 0.042823862
-0.044922356 0.06633653 -0.08542171 -0.05499976 -0.065665744 0.07947356 -0.042165995 -0.00095735514
0.042724892 -0.047842078 0.08174986 -0.05214152 -0.015842378 0.009237725 0.0016839773 0.050650038
0.044138487 0.069125265 0.06710106 -0.081869714 0.019838637 0.031308156 -0.02789214 -0.06485008
0.04603772 -0.088274695 -0.06530418 0.041022517 -0.014033225 -0.037768874 0.04788235 0.015193317
-0.027352957 -0.025815144 0.021847429 0.065797836 0.027716504 -0.052039947 0.06773982 0.045028638
-0.03914463 -0.034404926 -0.0062702917 0.024483526 0.040058356 0.012087811 -0.033144135 -0.011880501
0.08695517 0.077614255 0.03151892 -0.048335522 -0.062244024 0.0146684935 -0.087321885 -0.045873187

embedding.1.bias f4 [128]
00000000: 46a5 aa3d db9b 903d 01a0 98bc 8d6d 4dbd
00000010: 4029 a43d 634b c33c f79e acbd f6fd 8d3d
00000020: 505f 46bd ddea 433c 98e8 113d e6ff 583d
00000030: 8625 efbc 76d5 973c 1fff 6e3c 0165 533c
00000040: 1e52 893d 9580 1c3d bd84 8fbc 25e3 aa3d
00000050: 7632 543c 2922 09bd 0fa4 5fbd 6c52 913d
00000060: 07b8 56bd ca2f 83bd cb4e 793d bf84 d5bc
00000070: 2d6b 8a3d ee5b 8ebc 2301 743d 3c6c 81bd
00000080: b279 23bd f36d b33d 8dad 3bbd c360 adbd
00000090: f4b4 723d 674a 563b 2f86 91bc b0f3 8f3d
000000a0: ce9b 703c efbd 59bb 3da2 86bb d5ad b23c
000000b0: b014 1fbd 4028 763d 3d7d aebd 1d77 113d
000000c0: dda1 f8bc f3c2 983d e159 903d 5de1 033d
000000d0: d5a4 afbc a660 97bd 035e 89bd f3cd 62bd
000000e0: 0628 da3c 2d80 11bd 9ac3 9abd 5204 22bc
000000f0: cd03 e73c 47f3 b13d 84ab 8d3d 4edb 89bd
00000100: 68d0 68bd e86f 4d3c 0561 953d 5e8e 0e3d
00000110: 36bb adbd cf3f 95ba 0a13 85bd 633e 92bd
00000120: 572c 96bd bd38 8dbd d19c a2bd e019 b2bd
00000130: 18aa 153d a78f a4ba d58e a53b 181d 5abd
00000140: e321 b3bc d5a7 c93b 4255 4dbd 3cd9 f0bb
00000150: 7e7a bc3c d9f7 0c3d fa3b 8abd 7493 b43d
00000160: bda4 1bbd 6e06 8fbc e228 17bd 9fbd 4f3d
00000170: 8ad3 ab3d 0322 2e3d 1bb9 aa3d 92c5 0dbd
00000180: 6c74 993d ae9c 503d 50c9 6cbd 5228 9ebd
00000190: 982d 1abc 297e aabd 4f97 613d a19c 38bd
000001a0: 177c 89bd b8dd 59bd 2b86 88bd 72e1 a73d
000001b0: bde5 b6bc 8ed1 12bc 0a63 3d3c 0ffb b2bc
000001c0: 0ba5 87bc 6af0 53bd 0c02 e9bc 37b3 ea3c
000001d0: 6d65 353d 7da6 c8bc 0528 86bd 4299 d83c
000001e0: bd6a 813c dd39 9c3d e81d 96bd 4487 b4bd
000001f0: 3319 9f3d 1c28 aa3d 811c 833b 74c5 5cbc
0.08332305 0.07060977 -0.018630983 -0.050153304 0.0801568 0.023839658 -0.08428758 0.06933205
-0.04843074 0.011957851 0.03562221 0.05297842 -0.029192697 0.018534403 0.014587193 0.012902499
0.06705116 0.038208563 -0.01751935 0.08344106 0.012951484 -0.033479843 -0.054599818 0.07095799
-0.052421596 -0.064055994 0.06086616 -0.026064275 0.067587234 -0.01737782 0.059571397 -0.06319472
-0.03991098 0.087612055 -0.045819808 -0.084657215 0.0592546 0.0032698156 -0.017764179 0.070289016
0.014685584 -0.0033224782 -0.004108696 0.021811405 -0.03883809 0.06009698 -0.08519981 0.035513986
-0.03035062 0.074590586 0.07048393 0.032197345 -0.021440903 -0.07391481 -0.067073844 -0.05537219
0.026630413 -0.03552263 -0.07556839 -0.009888725 0.028200055 0.086889796 0.0691748 -0.06731282
-0.056839377 0.012538888 0.07293896 0.03480374 -0.08482973 -0.0011386814 -0.06497772 -0.071408056
-0.07332676 -0.068955876 -0.079400666 -0.086963415 0.036539167 -0.0012555019 0.0050524273 -0.053250402
-0.021866744 0.0061540403 -0.050130136 -0.007350115 0.023007628 0.034416053 -0.06749721 0.08817187
-0.037998904 -0.01745912 -0.036904223 0.050717946 0.08389957 0.042512905 0.08336087 -0.034612246
0.07492909 0.05093067 -0.057809174 -0.07722534 -0.009410284 -0.083248444 0.05507594 -0.045071248
-0.067131214 -0.053189963 -0.066662155 0.08197297 -0.022326345 -0.008961095 0.011559257 -0.02184823
-0.01655819 -0.05174295 -0.028443359 0.02864991 0.04428618 -0.02449345 -0.06550602 0.026440267
0.015797967 0.07628224 -0.07329923 -0.08814862 0.07768478 0.083084315 0.0040012007 -0.013474811

embedding.3.weight f4 [128, 128]
00000000: 84d8 33bd 5800 f63c 21a9 bebc 558e b0bc
00000010: 8c99 a13b 501f 223d 539b 81bd 1ae5 573c
00000020: 57d9 08bc 0624 473d a88c 943d 9064 1cbb
00000030: 66a6 62bd 38ed 75bd cd76 c0bc 27e8 09bd
00000040: 2a29 29bd 26d5 893d c385 25bd cd23 303d
00000050: 9cd3 7bbd 5374 cdbc b935 73bc ec3e a73d
00000060: 87c7 4e3d 9bbd 13bd a797 1cbb f7b2 aa3d
00000070: 751c ecbb 36b4 053b 8ead 063c 7611 a53d
00000080: d3ee 8e3d 7ece 363c 987c 78bd 0f85 abbd
00000090: f831 843d 1cfe e93b 8741 85bd 9109 073d
000000a0: 6bb4 cf3c c9f0 f1bc 500a f53c 0918 88bd
000000b0: 777c 19bd 7c4b 13bd 7eae aeba fb3b 07bd
000000c0: cf37 2cbd 237e 16bd b7f9 75bc 8b78 28bd
000000d0: 0896 aabb 39a8 7bbd 60f1 423d f38c 54bd
000000e0: 36b5 413d 8949 983c 7011 86bd 9390 f13c
000000f0: 50b5 a73d 9880 a5bd b12b b3bd 7937 18bd
00000100: 521d 29bd b733 77bc 51bf cabc 2b39 2c3c
00000110: e9ea bebc ba80 5bbd c4c0 8e3d 5f22 0d3c
00000120: 46af ecba 6bbe 84bd 8694 aebd 4f45 3bbb
00000130: f2d0 923d 78eb 15bd cd2f 23bd b3c0 153d
00000140: 3caa 423b 6abe 9e3d 9a0d 84bc 1687 ab3c
00000150: e4a7 d7bb a37e 46bb d45d c93c 5f18 a93b
00000160: a778 453c 5cfc 1ebc 0e8c 303c 85f3 1e3d
00000170: 1dfb 15bd a9db 883d 16c7 5abd cd3c b43d
00000180: b74e f7bc 13ac 83bd 34f8 3ebd 1af8 12bd
00000190: eb82 523d bb43 d23c e29a 9dbd 21c7 63bd
000001a0: 390b 57bc 82a2 943d 64d0 0cbc f297 45bb
000001b0: e34e f43a 23ae 13bd 8b80 98bd 7b1a 8a3d
000001c0: b81c dc3b 9905 4d3d 332c 0e39 0d0b c5bb
000001d0: d74b 92bd 8ea3 45bd 2757 74bc b43c 82bd
000001e0: e0b0 eabc dc93 ffbc 50b3 753c 184a 1dbd
000001f0: 7d7c 32bc 709b 643d a885 17bd 60e7 4fbd
00000200: df47 153d f071 9c3d 4b07 153d 440d 0e3b
00000210: 2c1b b3bd 56c4 83bd abf3 73b7 8ff2 333d
00000220: 084b 633d a5f4 3e3d 3c70 863d 7b27 7ebd
00000230: ce6e 8d3d 2c13 17bd 815f 15bd eebf b3bd
00000240: a787 8a3d 2edd 33bd 00a4 97bd ecae 9abd
00000250: 2618 a5bc c4d1 a13d debc 083d 3f33 453d
00000260: bff0 46bd 4edd 813d 9683 8bbc ae4c 6b3d
00000270: 4ec9 8c3d 8168 103d ad0b 33bd 5b95 17bc
00000280: e044 7d3d dbf1 c1bc 7d69 aa3d 0b6a 35bd
00000290: fc50 cabc 389c 47bd 1591 9d3d 2d3c 0abd
000002a0: c7ee a53c d808 8cbd 4f89 e43c ec9b 8abd
000002b0: 60ad ad3d c093 9a3c b95b f03b b45b 93bd
000002c0: 47d1 3e3d dc4e 9ebd f38c 6dbc 0f02 52bd
000002d0: 4ee9 153d 6f8e 123d cb5f abbd ce6c 2d3c
000002e0: 577a b3bd bf68 3a3d 2aa5 b3bc b079 8bbd
000002f0: 0a1d da3c e49e 50bd 6bc6 adbd 3601 a33d
00000300: 00d6 2cbd 5e67 b1bc 13c6 773d 54f6 763d
00000310: f17e f5ba 795c b03d 4408 a43d 5908 e83c
00000320: a7fe 60bd 1888 663d cc5a c63c 9f55 b33d
00000330: f283 8a3d 29d6 71bd 8b8a 21bd eead 343d
00000340: e0dc 813d e0f4 8c3d 97db b2bd 41f8 8dbd
00000350: 36de d63c d021 993d 0a15 86bc f469 05bd
00000360: 47dc 993c 2241 4cbb 8bc5 4f3c a474 7cbd
00000370: a51f 5f3c 10eb cbbc 7faf 133d d759 a33d
00000380: a048 b1bd 48e5 94bd 0db0 ad3d 2a11 49bd
00000390: c7b9 273d 3d64 4f3d 29a2 a63c 06b9 9a3d
000003a0: 4c49 d23c 8b65 97bd 6dc9 33bd 81cf 50bb
000003b0: 162e 923d ca06 79bd b029 86bd c8b1 99bd
000003c0: 589e e0bc fe23 a83d 3b52 ab3d 0f5b 383d
000003d0: 4320 b0bd ff0d 9bbd 8f7d 56bd f60c 7ab8
000003e0: 8b54 2f3d 2698 223c 1b3c 243d 30a2 a33d
000003f0: 3199 453d e2b4 acbd 7508 a73d 3da0 4c3d
-0.043907657 0.03002946 -0.023274006 -0.021552244 0.0049316343 0.039580643 -0.06328454 0.013177181
-0.008352599 0.04861834 0.072533906 -0.002386365 -0.05533447 -0.060040683 -0.023494149 -0.033668663
-0.041299023 0.06730108 -0.04041077 0.043002892 -0.061481103 -0.025079882 -0.014844351 0.08166298
0.050483253 -0.036069494 -0.0023894103 0.08334916 -0.007205541 0.0020401604 0.00822009 0.08059971
0.06979146 0.01115763 -0.060665697 -0.08374988 0.06454843 0.007140888 -0.06506639 0.032968108
0.025354585 -0.02953376 0.029912144 -0.06645209 -0.037472215 -0.03596066 -0.0013327149 -0.033016186
-0.04204541 -0.036741387 -0.01501315 -0.041130584 -0.0052058734 -0.061439727 0.047593474 -0.051892232
0.047291957 0.018589752 -0.06546295 0.029487884 0.081888795 -0.08081168 -0.08748568 -0.037162278
-0.041287728 -0.015088013 -0.02474943 0.010511677 -0.023305373 -0.05358956 0.06970361 0.008614152
-0.0018057607 -0.06481632 -0.08524422 -0.0028575247 0.071687594 -0.036601514 -0.03984051 0.036560725
0.0029703518 0.07751162 -0.016119767 0.020938437 -0.0065812934 -0.0030287884 0.024580874 0.005160376
0.012052692 -0.009703722 0.010775579 0.038806457 -0.036616433 0.06682522 -0.05341252 0.08800659
-0.030188901 -0.06429305 -0.046623424 -0.03588114 0.051394384 0.025667062 -0.07695557 -0.055609826
-0.013125234 0.072575584 -0.008594606 -0.003015038 0.0018639233 -0.03605474 -0.074463926 0.06743332
0.0067172907 0.050054166 0.00013558641 -0.0060132802 -0.071433716 -0.04825168 -0.014913357 -0.063592345
-0.028648794 -0.031198435 0.014996365 -0.03840074 -0.010893938 0.0558123 -0.0369927 -0.050757766
0.036445495 0.07638919 0.03638391 0.0021675387 -0.08745417 -0.064339325 -1.4540662e-05 0.043932494
0.055491477 0.04662003 0.06564376 -0.06204937 0.069059 -0.036883518 -0.036468033 -0.08776842
0.06764155 -0.043912105 -0.074043274 -0.07552895 -0.020153116 0.07901338 0.033383243 0.048144575
-0.048569437 0.06341039 -0.017030519 0.057446174 0.06874333 0.035255913 -0.043712307 -0.009251918
0.061833262 -0.023674896 0.083209015 -0.044290584 -0.02469682 -0.048732966 0.07693688 -0.033748794
0.02025546 -0.06837624 0.027897505 -0.06768021 0.08480334 0.01886928 0.007335153 -0.07195225
0.0465863 -0.07729885 -0.014498937 -0.051271494 0.03659945 0.035780367 -0.083678804 0.010585023
-0.08763569 0.04551005 -0.021929342 -0.068103194 0.026625175 -0.05093278 -0.08485111 0.07959215
-0.042196274 -0.021655735 0.060491633 0.06029351 -0.0018729848 0.08611388 0.08009389 0.028324293
-0.054930355 0.056282133 0.024213217 0.08756565 0.06763448 -0.05904213 -0.039438765 0.044111185
0.06340957 0.06882644 -0.0873329 -0.06932116 0.026229005 0.07477152 -0.016367454 -0.032571748
0.018781794 -0.0031166752 0.012681375 -0.061634675 0.0136183845 -0.02489236 0.036056038 0.0797612
-0.0865643 -0.072702944 0.08480845 -0.049088635 0.040948655 0.050632704 0.020340996 0.07554822
0.025669716 -0.07392415 -0.043893266 -0.0031861963 0.071376964 -0.06079749 -0.0655092 -0.07504612
-0.027419254 0.0820999 0.083652936 0.045008715 -0.085999034 -0.07571029 -0.052365836 -5.9616716e-05
0.042805236 0.00992397 0.040096384 0.07989919 0.048241798 -0.08432938 0.0815591 0.049957503

embedding.3.bias f4 [128]
00000000: e773 8abb 7c4f 52bd 647d 24bd 0f71 55bd
00000010: a706 02bd d9bc a23d c5d3 1dbd 3e52 513d
00000020: bb9e ae3d 4c4e 363d e8e9 87bd 15d7 4a3d
00000030: 9f3c b33d 4066 d1bc 9f85 b5bc 31f6 40bd
00000040: aba8 3d3d a3d1 673d 7783 09bd 76f4 393d
00000050: 086f f13c 2159 94bd 2db1 823c daa6 31bd
00000060: 27bf 843c 9aa4 003d d92c a23d a9ce 663d
00000070: 99f9 9c3d fb99 e2bc 3a92 5f3d 14bd b13d
00000080: 9562 923d bd82 65bb a56a 363d 52ac 18bd
00000090: 05b9 783c 8caa 92bd 0bab 92bd 312a 96bd
000000a0: 9672 a2bc e78d d33c 24f3 de3c 726b 6a3a
000000b0: 1d3d c7bb b046 1ebd fe35 663c 91d6 5ebd
000000c0: b15f a43d 63f7 05bb fe40 b0bd bd1a 41bd
000000d0: 8864 00bc b4df 88bc 4ff2 953c afd1 1fbc
000000e0: 3d06 0e3c 13d1 d43c 1db0 f43b 0738 e5bc
000000f0: c3bc 40bc 640f 913c a620 15bd fcfd ca3b
00000100: ebb4 adbd db8b 06bd c3a0 e2bc ffe2 d8bc
00000110: b26f 1f3d 552d 1c3d 8efd a63d 73ed 933d
00000120: 077e 963d 0b9c 87bd bab9 5f3d 2021 7e3d
00000130: ed02 55bc f31f 01bd a6d8 ab3b b0ab 543b
00000140: 8d01 2c3d b6f8 573d 4c58 9d3d fdd2 c5bb
00000150: aeef 0c3c ba91 a9bc c28d a33c 35b8 77bc
00000160: d6ef 4fbc 6137 b4bd 4e4d 0b3d 5197 a83d
00000170: 954a a53d 3a82 7fbd 8916 963d b3c9 8abd
00000180: 651f 90bd 49fa 6f3d eaa8 e73c f43a b4bd
00000190: 0ad1 00bd d594 813d 8992 8ebd da26 1fbd
000001a0: 77c6 fa3c e573 97bd 41aa 77bd 7b6d 0d3d
000001b0: dab2 033b 9ba7 b43d 81d6 143d 8947 ac3d
000001c0: 2e89 98bd 2080 a5bd 6aed 133c e4de 59bd
000001d0: 9377 81bc d60a 55bc 95c7 74bd f935 4c3d
000001e0: 4871 8a3d a06a 75bd 9f3e 5dbd 5bd1 d13c
000001f0: 833c a23d e2a4 e43c fcdf 6abd 9dce 93bd
-0.0042252424 -0.051345333 -0.040158644 -0.052109774 -0.031744625 0.07946176 -0.038532037 0.051103823
0.08526369 0.044508263 -0.06636411 0.049521524 0.08751797 -0.025561452 -0.022158442 -0.047109786
0.046303432 0.05659641 -0.03357264 0.04539915 0.02947189 -0.072435625 0.015953625 -0.043372013
0.01620443 0.031406976 0.0791871 0.05634943 0.076647945 -0.027661314 0.054582812 0.08678642
0.07147709 -0.0035020553 0.044535298 -0.037273712 0.015180831 -0.071614355 -0.0716153 -0.07332266
-0.01983003 0.0258245 0.027215548 0.0008942402 -0.0060802833 -0.03864163 0.014050959 -0.054403845
0.08026064 -0.0020441643 -0.08606146 -0.04714464 -0.0078364685 -0.016708232 0.018304018 -0.009754582
0.0086684795 0.0259786 0.0074672834 -0.027980817 -0.011763754 0.017707534 -0.03640809 0.006194828
-0.08481773 -0.03284822 -0.027664548 -0.026475428 0.03892488 0.03812917 0.081538305 0.07223024
0.073482566 -0.0662156 0.054620482 0.06204331 -0.013001186 -0.03152461 0.0052443324 0.0032450967
0.041993666 0.052727424 0.07682857 -0.0060371147 0.008602066 -0.02069937 0.019965056 -0.015119602
-0.012691459 -0.08799625 0.03400927 0.08231986 0.08070866 -0.062380053 0.07328517 -0.06776752
-0.07037238 0.0585883 0.028278787 -0.08800307 -0.031449355 0.063272156 -0.06961543 -0.03885541
0.030612214 -0.07395152 -0.0604651 0.034528237 0.0020095618 0.08821031 0.03633738 0.08412082
-0.0744804 -0.080810785 0.009028772 -0.05319108 -0.015804088 -0.013003072 -0.05976065 0.04985616
0.06759888 -0.05991614 -0.0540148 0.025612524 0.07921698 0.027910654 -0.057342514 -0.07217143

actor.0.weight f4 [128, 128]
00000000: 291f 213d af5d d4ba afce 74bd fae9 d53c
00000010: c69a 1b3d 9f76 1fbc 8d8f bd3c 7dd6 adbd
00000020: 41b2 6f3d f6a6 91bb 8073 9b3d 73fd 56bd
00000030: ae50 073d 92a7 8c3c 454b 2fbd f6d6 a8bd
00000040: d7fd 1f3d f132 57bc 8fb6 b3bc 16cc 4dbd
00000050: d3dd 43bd 8162 023c a37b cf3c aabd 85bd
00000060: 9375 97bd 88b0 1a3d 0265 753d 9531 2c3d
00000070: 3f38 af3d 94eb 603d b733 8c3d b3b6 cf3c
00000080: 60e3 2b3d df30 6bbd e0b1 be3b d2d6 38bd
00000090: 8d27 40bc bed3 a2bd cc78 803b 2f53 80bd
000000a0: 6393 9ebd 13fd aabd dea5 18bd 5818 2ebd
000000b0: 20ba 86bc 5d8c 593d 3bcb 22bd e977 06bb
000000c0: e6fc 713d 7015 8cbd 366e 91bd 29af 183c
000000d0: c11a c43c 1a79 b0bd a6a5 8abb 0582 533d
000000e0: b58d f1bc f62a a5bd f758 913d 0d36 083c
000000f0: c4f2 383c e312 81bd 551a 973c 76b3 8a3d
00000100: b1fd 843c 18ef 41bd c1ed 26bd 9b10 6c3d
00000110: 7bd9 40bd 3210 753d e394 74bc 7183 40bd
00000120: 46f5 3b3d 9986 31bd e276 45bd 0264 d4bc
00000130: 6eef 733d 47ed 5d3d 2241 96bd 4018 7ebc
00000140: 9118 5fbd fe8c 9f3d 0605 b3bd 7a41 8ebd
00000150: 51fa 0a3d 6dd6 7e3c 425d 89bd dc9d 0ebd
00000160: 15c5 aabd 69af a8bd f222 7bbd cc3f 093d
00000170: fc36 933d a6b3 9abc c4a0 6e3d dee5 593d
00000180: b1f7 0abd bb33 323c 2478 28bc 6a16 913c
00000190: 925a 9ebc cb2c e63b c750 1fbd a2d5 5bbd
000001a0: ea98 0b3d f191 72bd 2208 a4bc d822 44bd
000001b0: 0478 3dbd f021 6a3d f87b b1bd 7300 9fbd
000001c0: 175f a53c 6e84 db3c 26a8 35bd 8da1 783d
000001d0: 34a1 fb3c c280 f33c ae0d af3d 0c64 2ebc
000001e0: 0863 ea3c 6444 2c3d d927 e43c f72f 35bd
000001f0: 81b2 273d 3fcd cd3b 7f7b a73d 31d9 14bd
00000200: 9d37 10bd 520c 6bbd 7965 303c a701 8c3b
00000210: b287 ac3d 9c2e 123c 2c29 b33d 8760 e6bc
00000220: c75e 1f3c d7bf b23c 3504 b2bd ff34 e6bc
00000230: f554 4f3d 8e4d 10bd 48de 7fbd e42d a5bd
00000240: 44e6 aa3c 6650 18bd 07ea 1c3a 6207 6b3d
00000250: 1739 86bd 2feb 9abd 5530 debc 6497 73bd
00000260: 2734 28bb 1724 493c 62a9 8cbd e8f0 a3bb
00000270: 589c 53bd 50c9 0939 1ad7 c8bc de2a 763d
00000280: 8a39 8d3d e2f4 93bd 8f62 e23b 8611 15bd
00000290: 0868 be3c d875 bdbc 8cfb 493d e10c 163d
000002a0: c370 e33b 0e74 4abc 3cdd 573d 0822 973d
000002b0: 1dbd 55bd 4fb5 913d 2962 2e3d f497 6b3d
000002c0: b250 c23b 0136 b0bd bcce b6bc 2ca7 603d
000002d0: c955 87bd 9944 c43c 1b73 0f3c 8630 68bd
000002e0: b1a8 45bd 16c8 053d ac04 9a3c b5f9 11bd
000002f0: 0d81 673c 09b8 4a3d bfe3 2cbd 2763 e33a
00000300: c900 a6bc b452 45bd 32d3 7ebc cacc 10bc
00000310: 66e5 abbd dce8 70bd 8515 033c 3273 da3c
00000320: 765e b63b a8aa 11bd 008a 6dbd 0137 9cbd
00000330: 2563 363b e252 7fbd 29cc a13d 4a0e 95bc
00000340: d502 8bbd 5a16 803d 604a 683d 66e9 a13d
00000350: 9c69 23bd 8cc4 c7bc 1a82 b23b 2acb 733d
00000360: 70a9 253d aaf7 633d d4ff 8abd 8f84 59bd
00000370: 0173 61bd 536e 84bd 164f 1ebd f3ee 63bd
00000380: dd59 8b3d 414f 0abd 4b8f 60bc 79d6 57bc
00000390: cad1 afbd b9dd a83c dd03 753d 6b1e 7e3d
000003a0: 55a4 4b3d d310 51bd e2e7 903c de47 d13c
000003b0: 84cf 86bc b465 04bd c2a4 0fbd 6472 c7bc
000003c0: a839 a7b9 316a 0e3d e048 423c 1dc1 cdbc
000003d0: 2105 a5bd 4540 5dbc 3ead 113d c0fc afbd
000003e0: e624 42bc de94 f43c 0dfd 773d 845a 013b
000003f0: af61 d4bc 59f5 b3bd 5e7b 0b3d b6c6 6f3d
0.039336357 -0.0016202236 -0.05976742 0.026112545 0.0379894 -0.009732871 0.02313974 -0.08488176
0.058519606 -0.004444952 0.07590389 -0.0524878 0.033035927 0.017169748 -0.042796392 -0.082441255
0.03906044 -0.013134704 -0.021937637 -0.05024346 -0.04781897 0.0079580555 0.02532751 -0.06530316
-0.073954724 0.03776601 0.05991078 0.042039473 0.0855565 0.054912165 0.06845801 0.025355672
0.04196489 -0.057419654 0.005819544 -0.045126744 -0.01172818 -0.07950543 0.00392065 -0.06265866
-0.077429555 -0.08349051 -0.03726756 -0.042503685 -0.016446173 0.053112376 -0.039744597 -0.002051825
0.059079073 -0.068400264 -0.07101099 0.009319105 0.023938539 -0.08616848 -0.0042311726 0.05163767
-0.029486516 -0.08064835 0.07097047 0.008313668 0.011288349 -0.063024305 0.018445173 0.06772511
0.01623425 -0.04734716 -0.040754084 0.057633024 -0.047082406 0.0598299 -0.0149280755 -0.047000352
0.045888208 -0.043341253 -0.04820908 -0.025926594 0.05955451 0.054181363 -0.07336642 -0.015508711
-0.054466788 0.07790564 -0.087411925 -0.069460824 0.033930127 0.015554053 -0.06707241 -0.034818515
-0.08338372 -0.08236582 -0.061312623 0.033508107 0.07188222 -0.018884491 0.058258787 0.053197734
-0.033927623 0.010876591 -0.01028255 0.017710883 -0.019330297 0.0070243827 -0.038895395 -0.053670533
0.034081377 -0.05922121 -0.02002341 -0.047884792 -0.046257034 0.05716127 -0.08666223 -0.077637576
0.020186944 0.026796546 -0.044349812 0.06070094 0.030716516 0.029724482 0.08547531 -0.01064397
0.028611675 0.04205741 0.027851032 -0.044235196 0.04094172 0.0062805708 0.08177852 -0.036339942
-0.035209287 -0.057384796 0.0107663805 0.004272658 0.08424319 0.008922245 0.08748087 -0.0281222
0.0097271865 0.021819992 -0.08692209 -0.028101442 0.05061813 -0.035230212 -0.062467843 -0.080653936
0.020861752 -0.03718605 0.00059858005 0.057380088 -0.06553858 -0.07564389 -0.027122656 -0.05947055
-0.002566585 0.012276671 -0.06868245 -0.0050030835 -0.051662773 0.00013140333 -0.02451663 0.060099475
0.0689574 -0.07224442 0.0069087218 -0.036393665 0.023242965 -0.023127481 0.04931216 0.036633376
0.0069409325 -0.012356771 0.05270122 0.07379538 -0.052182306 0.0711466 0.04257408 0.05751796
0.00593003 -0.086040504 -0.022315376 0.054846928 -0.06608159 0.023958491 0.008755471 -0.0566869
-0.04825658 0.03266152 0.018801056 -0.03563853 0.014129889 0.049491916 -0.042209383 0.0017348275
-0.020264046 -0.048174575 -0.015553283 -0.008837888 -0.08393364 -0.058815822 0.008000736 0.026666258
0.00556546 -0.03556314 -0.057992935 -0.07627679 0.002783009 -0.062334903 0.079002686 -0.01819529
-0.067876495 0.06254263 0.056711555 0.07905845 -0.03989564 -0.024385713 0.005447638 0.059519924
0.04044479 0.055656113 -0.067870766 -0.053104933 -0.055041317 -0.06466355 -0.03864964 -0.0556478
0.068042494 -0.03376699 -0.013706039 -0.013173693 -0.08584936 0.020613538 0.059818137 0.062040728
0.049717266 -0.051041435 0.017688695 0.025546964 -0.016456373 -0.032323554 -0.035069235 -0.024346538
-0.0003189568 0.03476924 0.011858195 -0.025116498 -0.08057619 -0.013504093 0.035565607 -0.0859313
-0.011849618 0.029856142 0.060544062 0.001973779 -0.025925485 -0.08787031 0.0340532 0.058539115

actor.0.bias f4 [128]
00000000: 8aef f3bc 2b88 0e3c b4ef 08bc 288d 26bd
00000010: 389b 16bc 25f2 413c 1ff3 963b 69a0 883d
00000020: 5b95 173c e1c1 e23b 0ecd 5cbc d538 06bd
00000030: cc80 103d 3f65 9bbd 3b15 a33c 0163 5ebd
00000040: 764e 613d dd0f 863d 941f edbc e2e6 973d
00000050: ab3f b83c f4ee 873c aa53 ad3d 3b85 973d
00000060: 8321 5a3a 34bd 883d d3e6 483d 4015 7cbd
00000070: a901 33bd b62c 1cbd 343a b4bd 8699 133d
00000080: 1957 c43b 7b02 8abd 722f f7bc cfe0 5a3d
00000090: 8402 6ebd 002e 613d d801 c9bc d51f e53c
000000a0: 9583 1c3c c470 b4bb fbe8 8e3d 4dd1 95bc
000000b0: 0300 a8bd eb69 4cbd c823 12bb 7ebb 57bd
000000c0: 0e4b e5bc f136 9fbd ff9d ce3c 7794 9ebd
000000d0: 62d8 f63c 5f70 9bbd 8620 80bd 1e48 c23a
000000e0: ac03 7ebd 46db c13c e217 c6bd 9739 9dbd
000000f0: 42d0 78ba 8abf bdbc 23c8 2abd fde3 e53b
00000100: e5aa f9bc 9fb7 3cbd 039e d7bc 555c ae39
00000110: 99cd af3d a8f6 5dbc a09e aabd aa40 1ebc
00000120: 9ee8 8e3d 8115 9b3d f428 a23d 9c74 50bd
00000130: f697 2bbc 2054 b8bc 9f7c 47bd 765f 8c3d
00000140: 01b5 a6ba 03fd 523a b701 1e3d e9a5 e43c
00000150: 1321 60bd 275f 8a3d f2d6 7b3d ed78 f2bc
00000160: 13f8 4ebd 2ba3 6ebb 1afb acbd 42b2 3d3c
00000170: d742 96bd 294c 7c3c b8e1 683b 90bd 113d
00000180: 7ea3 1a3d 41c6 59bd 8673 89bd 5e85 703d
00000190: 6797 8b3d c6c9 2b3b f680 313c 7d51 1e3c
000001a0: db45 e33c afe8 f33b 3124 bbbd f6b1 833d
000001b0: d5e3 8c3d 2955 d3bc e6f0 debc f0b7 2d3d
000001c0: df7b 1f3d 991a 56bc 25a2 2a3d b945 3c3d
000001d0: 8626 353d b062 bd3c c8d4 bc3c 457f a73d
000001e0: 15ae 99bd 5228 8abd b07a f3bc 0351 c13c
000001f0: 3234 ae3d dfad 73bc 7c89 373d 4180 71bc
-0.029777307 0.008699457 -0.008357931 -0.04066196 -0.0091922805 0.011837517 0.004606619 0.06671221
0.009251918 0.006920085 -0.013476623 -0.032769043 0.03527908 -0.075876705 0.019907584 -0.054293636
0.055006467 0.065459944 -0.028945722 0.07417084 0.022491297 0.016593434 0.08463223 0.073984586
0.00083210337 0.06676713 0.049048256 -0.061543703 -0.043702755 -0.038128577 -0.08800164 0.036035083
0.005991828 -0.06738754 -0.03017399 0.05343705 -0.058107868 0.05497551 -0.024537012 0.02796928
0.009552856 -0.005506607 0.06978031 -0.018288279 -0.08203127 -0.0499057 -0.002229916 -0.05266904
-0.02798989 -0.07774151 0.025221823 -0.07743161 0.030132476 -0.075897925 -0.06256203 0.0014822518
-0.06201522 0.023664128 -0.09672524 -0.07677 -0.0009491482 -0.023162622 -0.04169477 0.0070157037
-0.030476997 -0.046073552 -0.026320463 0.0003325666 0.085841365 -0.013547577 -0.083310366 -0.009658972
0.06977962 0.07572461 0.079179674 -0.050892457 -0.010473242 -0.022501051 -0.048702832 0.06854145
-0.0012718738 0.0008048566 0.038575854 0.027911143 -0.054719042 0.0675643 0.061484285 -0.029598678
-0.05052955 -0.0036413174 -0.08446331 0.0115781445 -0.073369674 0.015399017 0.003553493 0.03558117
0.037753575 -0.053167585 -0.067114875 0.05872094 0.06815987 0.0026212796 0.010833969 0.009662983
0.02774327 0.0074435095 -0.09137762 0.06430428 0.06879393 -0.025797443 -0.027214479 0.042411745
0.038936492 -0.013067865 0.04165854 0.04596493 0.044226192 0.023118347 0.02305068 0.081785716
-0.07503907 -0.06745972 -0.029721588 0.0235982 0.08506049 -0.014872997 0.04480885 -0.014740051

actor.2.weight f4 [5, 128]
00000000: 598f e83c 411d 203c 98d5 da3a 7d26 e83c
00000010: 58e7 073d f105 123d 1be6 dd3c 3e8c cd3c
00000020: 219b ffbc f4fb 543d 5b34 29bd bc00 4ebd
00000030: 1580 a0bd 582a 4e3d 6534 c9bd d9bb 7abd
00000040: d66e 04bc a722 0c3d cda3 463b 446a e9bc
00000050: 7fb3 2abc 5826 c83b 42b6 8fbd 91aa 39bc
00000060: c971 ffbc f9f2 c339 40db 28bd 2b88 c73a
00000070: 8d48 ac3b a6f7 533d 8956 22bd f244 313d
00000080: 16f1 1abd d50e 583d 44f5 9dbd 5850 093d
00000090: 33a3 abbd 5999 553d 0003 91bc 39ba 893d
000000a0: ce0f f63c 9171 a3bd 5446 973d 6bf1 533d
000000b0: cf77 afbd b324 cdbc 3881 253d 3f11 1c3d
000000c0: eda9 57bc dcc4 8ebd af57 833d 7cf2 febc
000000d0: f768 81bd 2133 92bd f5c5 9e3c 64b4 eb3c
000000e0: 558d adbc 3528 e93b 8679 54ba 1324 59bc
000000f0: e232 5c3d b821 9fbd a6ff 9abc f600 fdbc
00000100: c418 eebc 9885 25bc 6d82 893c e255 08bd
00000110: c387 19bd eed2 95bc 6af0 a0bc 993f 9abd
00000120: 187b 98bd 49d2 6abd d53a 2bbd 445e 803c
00000130: 064e 653d e89c 783d 923e a73d d420 31bd
00000140: 0803 9bba ddc4 a1bd ecd2 413d d249 b23c
00000150: a0e7 0cbd 32a9 f03c 1d31 9abd a95a 0b3c
00000160: 08cd 953c 39dd 8abd 2623 91bb 18ca 0cbc
00000170: 4bed 8e3d ac46 95bd 83a1 87bd 6300 19bd
00000180: 4690 4e38 876b d83c 7908 0dbc 6895 eebc
00000190: 44a7 97bd 71d9 1abd 11c9 16bd f603 26bc
000001a0: 2e12 81bd 3e29 0cbc df13 3c3d d1c7 3ebd
000001b0: 279f 16bd 6a26 2b3d d3a1 4f3c 4e99 debc
000001c0: 84b0 56bd 66e5 6dbd 34de 4dbd 629f 2d3d
000001d0: fa76 cf3c 7611 433d 54a7 35bd 7db5 a23d
000001e0: 75bb d53c b660 6bbd 0dd7 a9bd 8a41 893d
000001f0: e125 7e3d bf0e c1bc c219 cabc ea79 6e3d
00000200: 1db5 6f3c 0563 633c 8deb a6bd d39b cbbc
00000210: 07fd 9e3d 7876 d23d 8d20 633c 1bbd 08bd
00000220: 4532 95bb c38f ba3d 8b4b 19bb 6fd0 1e3d
00000230: 9828 bcbc 5ef8 34bd 8be6 75bc dff9 adbd
00000240: 3ea2 6dbd d8f0 57bd e5fd 5ebd 025f a23d
00000250: 3ec0 c2bc 9cc2 803d 3e91 9abd 6356 223d
00000260: 0930 17bc 13c1 583d 1830 8e3d 40c3 e3bc
00000270: 0e30 2f3d 28c0 b3bd 4bbc 2f3d d942 a73c
00000280: 4809 763d dd9c fdbb 7044 96bd 309e a3bd
00000290: 3cc6 a03d c10c be3d 8d18 303d 45e9 ba3d
000002a0: 0fdf 8a3d ff30 0a3d 7e21 1abd 1fd1 db3d
000002b0: 844d c9bc 44a5 26bd 9c72 99b9 bc0f 133c
000002c0: db54 2c3c 48b3 953c 6542 67bd fa1f 7f3c
000002d0: eef3 09bd 08ee 94bd ea17 5a3d ca6d 1cbd
000002e0: 00db 38bd 709c 043d 0236 1ebd 15d2 d83b
000002f0: 64e0 10bd b933 e93c fae9 13bd b1d5 f03c
00000300: 580d 953c 3baf a4bc 6a7d da3c 3877 3d3c
00000310: 9a57 2cbd 90bc 82bd 9dfd c53c 8d20 993d
00000320: 9133 c0bd 4558 acbb 0839 8b3d c425 8f3d
00000330: aa9a cd3b 31c0 3b39 b698 8c3d 41ef 70bd
00000340: 3d39 0e3d e439 47bd bbc3 8d3d 864a 3a3d
00000350: 52b1 57bb 3009 b2bc 55ef 9ebd 9dd4 10bc
00000360: 337f acbd d8d6 3c3d ad49 d13c 238b 34bd
00000370: 7c5b 7ebd d511 723c 1a7a 4fbc cdc9 903d
00000380: d317 58bd 7abf 7dbc f250 d6bc 2918 4f3d
00000390: 4dfb 76bd 898c 96bd 0168 96bd b120 ba3c
000003a0: 3c83 9ebc 93e0 f8bc aed1 443d b2e0 40bd
000003b0: 9205 2ebd 9cea a0bd 0b20 8c3d 1cb2 a03d
000003c0: 4d60 94bd bbd1 7a3d 71a0 8abb 9143 a63d
000003d0: 8055 efbc 8df9 c8bc b74e 623d b9f1 b63c
000003e0: f566 84bd 2f25 a83d 9e9c a73d 82e8 243d
000003f0: fe4f b83d 0599 00bc 94b4 953c 3d8a 453d
0.028388666 0.0097726 0.0016695736 0.028338665 0.03317961 0.035650197 0.027087262 0.025091287
-0.0312019 0.051998094 -0.041309696 -0.05029367 -0.0783693 0.05033335 -0.098244466 -0.0612143
-0.008083066 0.034212735 0.0030310035 -0.028493054 -0.010418772 0.0061080866 -0.07017185 -0.01133217
-0.031182187 0.00037374327 -0.041224718 0.0015223076 0.005257672 0.051749848 -0.039633308 0.043278642
-0.037827574 0.05274852 -0.07712796 0.033523887 -0.08380737 0.052148197 -0.017701626 0.06724972
0.030036833 -0.079806454 0.07386461 0.051743906 -0.085677736 -0.025041914 0.040406436 0.038102385
-0.013163072 -0.06971142 0.06413209 -0.031121485 -0.063188486 -0.07138658 0.019381503 0.02877254
-0.021185556 0.0071153888 -0.00081052666 -0.01325323 0.053759463 -0.07770103 -0.01892073 -0.030884247
-0.029064544 -0.010102652 0.016785825 -0.03328503 -0.037482988 -0.018289056 -0.019645888 -0.075316615
-0.07445353 -0.05732945 -0.041804153 0.01566995 0.055982612 0.060696512 0.08166231 -0.043244198
-0.0011826465 -0.07898877 0.04732029 0.021763716 -0.034400582 0.029377554 -0.07528899 0.008505502
0.018286243 -0.06780476 -0.004429239 -0.008593105 0.06978854 -0.0728887 -0.06622603 -0.037353884
4.9248592e-05 0.02641846 -0.008607977 -0.029123977 -0.0740495 -0.037805025 -0.036812846 -0.01013278
-0.063022956 -0.008554755 0.045917388 -0.04657728 -0.036772873 0.04178468 0.012672859 -0.02717271
-0.052414432 -0.0580801 -0.050260738 0.042388327 0.025325287 0.047624074 -0.04434903 0.079447724
0.026090363 -0.057465278 -0.08292971 0.06701954 0.062047843 -0.023566602 -0.024670485 0.058221735
0.014630583 0.013878589 -0.081503965 -0.024854576 0.07763105 0.10276502 0.013862741 -0.03338347
-0.0045531117 0.091094516 -0.0023390974 0.038772997 -0.022968575 -0.044182174 -0.015008579 -0.08494925
-0.058016054 -0.05271992 -0.05444135 0.079282776 -0.023773309 0.06287119 -0.07547234 0.039633166
-0.009227761 0.052918505 0.06942767 -0.027803063 0.042770438 -0.08776885 0.04290418 0.020417618
0.060067445 -0.007739647 -0.07337272 -0.07989156 0.0785031 0.09279776 0.042992163 0.09126524
0.06780826 0.033738133 -0.037629597 0.10733246 -0.024573095 -0.040684953 -0.00029267825 0.008975919
0.010518278 0.018273965 -0.056459803 0.015571589 -0.033679895 -0.07271963 0.053245462 -0.03819064
-0.04513073 0.032375753 -0.038625725 0.0066168406 -0.035370246 0.028467046 -0.03611181 0.029398771
0.01819484 -0.020103088 0.02667113 0.0115640685 -0.04207573 -0.06383622 0.024168784 0.07476912
-0.093848355 -0.005259546 0.06797987 0.06989625 0.006274541 0.00017905307 0.06865065 -0.05882192
0.034722555 -0.048639193 0.06922098 0.045481227 -0.0032912088 -0.021732897 -0.07760493 -0.008839753
-0.08422699 0.04610333 0.025547827 -0.044078004 -0.062098965 0.014774759 -0.012663389 0.070697404
-0.052757096 -0.015487546 -0.026161645 0.05056015 -0.060298253 -0.07351024 -0.07344056 0.022720667
-0.019349687 -0.030380523 0.04805153 -0.047089286 -0.04248578 -0.07857248 0.06842049 0.07846472
-0.072449304 0.06123517 -0.004230552 0.08118356 -0.029215574 -0.024533058 0.05525085 0.02233206
-0.0646495 0.08210217 0.08184169 0.0402608 0.08999632 -0.007848983 0.018274583 0.048227537

actor.2.bias f4 [5]
00000000: bd87 c0bd 8d9f 2a3d 62ad 68bc 64b2 7cbc
00000010: 0ab8 33bd
-0.0940089 0.041656066 -0.014201494 -0.015423391 -0.043876685
