models/final_frl_agent0.pt (torch, 318182 bytes, 17 tensors)

input_layer.weight f4 [128, 20]
-0.0771013 0.053449824 -0.087517 -0.10228971 0.11470067 0.1687481 -0.024331737 0.10493865
-0.14251629 0.15550154 0.14844055 -0.024570094 0.019308945 0.036418796 -0.09414073 0.11921105
-0.0124979885 -0.0528764 0.20706482 -0.073391825 0.09972495 0.08475896 0.14272599 -0.010935494
0.09377018 0.18989281 0.20769636 0.043216556 0.029833937 -0.13871226 0.0989728 0.17167607
0.14413188 -0.074395075 -0.186757 -0.1913911 0.13232031 0.06675837 -0.06883575 -0.13611391
-0.135112 0.06321149 -0.098318204 0.028396644 0.19868375 0.15169619 0.11816336 -0.19382039
0.1838359 -0.1650668 0.19098781 0.13913772 0.13678831 0.18307695 0.114954166 0.16575894
0.19947822 -0.00303396 -0.21247743 0.07638785 -0.2201328 0.17024222 0.16914234 -0.06117138
0.039621595 0.11419447 -0.06190018 -0.19997531 0.09583698 -0.039048225 0.054846413 -0.034858115
0.018654354 0.131852 0.1834525 -0.026085969 0.051558394 -0.18664305 -0.039246067 0.027758474
-0.0920795 -0.029376946 -0.1032019 0.20156614 0.027592406 0.10067403 -0.022216529 0.049408935
-0.20184833 0.093347415 0.07972993 -0.06319172 0.16575345 -0.11769646 -0.032678746 0.0518901
0.098787 -0.064479575 -0.21620286 0.02056127 -0.0415432 -0.0016210318 -0.093655564 0.087612964
-0.009163109 0.11981729 0.16170542 0.09202717 -0.08430103 -0.055363514 0.17378728 -0.118431464
-0.17244667 -0.00428474 -0.112495095 0.15701178 -0.008525871 -0.08752783 0.18331672 -0.19856478
-0.017690446 0.16141033 -0.05287848 -0.021003708 0.16569643 0.17235212 -0.076964505 -0.070582256
0.17665933 -0.056786943 0.051506843 -0.21120672 -0.19136238 0.031377185 -0.16665426 0.03025718
-0.17020407 -0.17261462 -0.09336557 0.21049327 0.19812115 -0.15612125 -0.08134483 0.17460357
-0.06394531 0.05826398 0.093496375 0.10301979 0.17575926 -0.108862415 -0.14210464 -0.1457458
-0.11667667 -0.1994648 -0.10079319 -0.20170908 0.040155727 0.09602099 -0.07508885 0.09749648
0.22006781 0.09070597 0.15514639 -0.117263906 -0.13551469 -0.017519714 0.20798083 -0.15728225
-0.12848347 0.05595845 -0.0756059 0.19860283 -0.21576902 0.012655926 -0.13239367 0.13931231
-0.12720679 0.08988629 -0.08283773 -0.19012138 0.1137438 0.13721721 -0.16255851 0.15566298
0.2153215 0.17100306 0.116072305 -0.03064452 0.22158056 0.049539976 0.08959521 -0.02725225
0.18019168 -0.08337898 -0.14487873 -0.03186792 -0.002981741 -0.19300136 0.03169415 0.070116945
-0.01589783 0.039086368 -0.025541253 -0.046010666 0.17559661 -0.20302199 0.066972926 -0.21955453
0.12815078 -0.055533126 -0.12546022 -0.047265366 0.10210653 -0.07692905 -0.031304788 -0.101148695
0.07916674 -0.017262857 0.16029361 -0.17711869 -0.06348053 0.16236016 -0.21465535 -0.116183594
-0.09550506 -0.13951962 0.020275492 -0.027459046 -0.14910045 0.1925183 0.17661841 -0.14076118
-0.1950037 -0.061946027 -0.007411543 0.18613353 0.08732732 -0.009671146 -0.096502766 0.10458242
0.21194313 -0.09792162 0.05854723 -0.07937178 -0.045585237 -0.07963373 -0.16077894 -0.17586876
0.0058171935 0.22349623 -0.13380636 0.1556018 0.074824184 -0.04621829 0.1629944 -0.16878416
00000000: 49e7 9dbd 34ee 5a3d 1d3c b3bd 447d d1bd
00000010: 2fe8 ea3d 4dcc 2c3e 5a53 c7bc 13ea d63d
00000020: caef 11be cc3b 1f3e cd00 183e 3947 c9bc
00000030: cb2d 9e3c e02b 153d dbcc c0bd ec24 f43d
00000040: 5dc4 4cbc ed94 58bd cd08 543e 744e 96bd
00000050: 983c cc3d 1b96 ad3d c326 123e c92a 33bc
00000060: 950a c03d 4373 423e 5bae 543e d803 313d
00000070: 4d66 f43c 960a 0ebe 40b2 ca3d dacb 2f3e
00000080: 4f97 133e 725c 98bd 3a3d 3fbe 07fc 43be
00000090: fa7e 073e 9db8 883d c2f9 8cbd 7261 0bbe
000000a0: cd5a 0abe 0775 813d 0e5b c9bd 14a0 e83c
000000b0: c173 4b3e 3f56 1b3e a2ff f13d da78 46be
000000c0: 7a3f 3c3e 4507 29be 4f92 433e 1e7a 0e3e
000000d0: 3c12 0c3e 8678 3b3e 176d eb3d b6bc 293e
000000e0: 0544 4c3e 67d5 46bb af93 59be 3c71 9c3d
000000f0: 7e6a 61be fa53 2e3e a633 2d3e d78e 7abd
00000100: 414a 223d cade e93d 0b8b 7dbd 54c6 4cbe
00000110: 2e46 c43d 08f1 1fbd a2a6 603d 62c7 0ebd
00000120: 04d1 983c 3604 073e f9da 3b3e 3eb2 d5bc
00000130: e52e 533d 5b1f 3fbe 7cc0 20bd bd65 e33c
00000140: 2d94 bcbd eca7 f0bc 855b d3bd 5b67 4e3e
00000150: 7809 e23c 302e ce3d 70ff b5bc 0661 4a3d
00000160: 54b1 4ebe ee2c bf3d 7249 a33d a96a 81bd
00000170: 46bb 293e d70a f1bd 26da 05bd b78a 543d
00000180: d750 ca3d de0d 84bd 4864 5dbe 1c70 a83c
00000190: 3429 2abd cd78 d4ba 7dce bfbd 6d6e b33d
000001a0: dd20 16bc c462 f53d 1b96 253e be78 bc3d
000001b0: 05a6 acbd dac4 62bd 4bf5 313e 328c f2bd
000001c0: dc95 30be 0167 8cbb d463 e6bd b2c7 203e
000001d0: 18b0 0bbc ca41 b3bd 61b7 3b3e 9154 4bbe
000001e0: 8eeb 90bc c048 253e 1b97 58bd f80f acbc
000001f0: 53ac 293e 137d 303e 919f 9dbd 6e8d 90bd
00000200: 2fe6 343e 6d99 68bd d7f8 523d 9346 58be
00000210: 80f4 43be 5d85 003d 6aa7 2abe e8dd f73c
00000220: fa49 2ebe e3c1 30be 7336 bfbd 8c8b 573e
00000230: 45e0 4a3e 40de 1fbe 1e98 a6bd 47cb 323e
00000240: c2f5 82bd 36a6 6e3d 077b bf3d 0afc d23d
00000250: 3cfa 333e 42f3 debd e183 11be 633e 15be
00000260: 2ef4 eebd 8040 4cbe a96c cebd d38c 4ebe
00000270: 557a 243d a7a6 c43d 2fc8 99bd 3cac c73d
00000280: 7559 613e 0dc4 b93d b2de 1e3e 0f28 f0bd
00000290: 5dc4 0abe 8185 8fbc edf8 543e 990e 21be
000002a0: 2c91 03be b034 653d 44d7 9abd 8a5e 4b3e
000002b0: 8ef2 5cbe cd5a 4f3c 3592 07be e3a7 0e3e
000002c0: 7f42 02be 4e16 b83d d4a6 a9bd 2eaf 42be
000002d0: 82f2 e83d ab82 0c3e bd75 26be 1e66 1f3e
000002e0: 3d7d 5c3e 6d1b 2f3e 51b7 ed3d 370a fbbc
000002f0: 04e6 623e 6eea 4a3d b27d b73d 1c40 dfbc
00000300: 2b84 383e 99c2 aabd 175b 14be f087 02bd
00000310: 5069 43bb 26a2 45be bad1 013d 7999 8f3d
00000320: 2a3c 82bc 0719 203d e43b d1bc ae75 3cbd
00000330: 99cf 333e ffe4 4fbe 1a29 893d e7d2 60be
00000340: f539 033e b476 63bd a578 00be 5499 41bd
00000350: 3a1d d13d fa8c 9dbd 7339 00bd 0c27 cfbd
00000360: 2c22 a23d d66a 8dbc 0224 243e 9a5e 35be
00000370: 1502 82bd be41 263e 9dce 5bbe aaf1 edbd
00000380: 2898 c3bd 3bde 0ebe ca18 a63c cbf1 e0bc
00000390: caad 18be 8423 453e 75db 343e b323 10be
000003a0: 0daf 47be 1ebb 7dbd 87dc f2bb ca99 3e3e
000003b0: aad8 b23d ba73 1ebc 3ea3 c5bd 4f2f d63d
000003c0: 9f07 593e 218b c8bd 38cf 6f3d ac8d a2bd
000003d0: 96b7 3abd 0217 a3bd 3ca3 24be f116 34be
000003e0: 289e be3b 32dc 643e 8904 09be 1456 1f3e
000003f0: 6c3d 993d 644f 3dbd 01e8 263e c1d5 2cbe

input_layer.bias f4 [128]
-0.10798188 0.068372525 0.004395389 -0.05639217 0.019312544 -0.12596123 -0.18966016 0.21078667
0.14473546 0.07040347 0.16815487 0.15422033 -0.14490472 -0.0064356397 -0.19873197 -0.123648606
0.1973127 -0.17514071 -0.17714477 0.113957286 -0.14672513 -0.073783 -0.02945694 0.14803277
-0.15054017 -0.08703749 -0.052371882 -0.051611096 0.022630071 0.020952875 -0.2096491 -0.1936592
0.07035515 -0.21393245 -0.14067999 -0.18475063 -0.011590965 0.09912305 -0.14796485 -0.012806479
0.01319459 0.13689724 -0.20356958 0.0035781958 -0.20650728 -0.041935496 0.12664296 0.20752776
0.036832258 -0.16827242 0.15521702 -0.2108259 -0.0064840205 0.18319531 0.13120511 0.035823807
0.21575405 0.10424085 0.18944667 0.027402721 0.12682286 -0.099779 0.16541676 -0.16954908
-0.057239003 -0.18873079 -0.06482098 0.18714677 0.21027207 -0.07484399 0.036400005 -0.20420823
0.1806203 -0.029056141 0.11000987 -0.07404911 0.00016873253 -0.11720169 0.10494286 -0.046231274
0.031044012 -0.06459228 0.11998498 0.03385028 0.05808576 0.039048705 -0.075741924 -0.02117897
-0.012100548 0.11228214 0.208819 -0.0089247245 -0.17168774 -0.023503669 0.19472314 -0.054770924
-0.03960019 -0.15957128 -0.075365305 -0.20018008 -0.19141927 0.15126944 -0.15401411 -0.1578006
-0.051132005 -0.15168436 -0.111703865 0.16257986 -0.005936266 -0.14384301 -0.20853397 -0.013682422
-0.13993527 0.13824925 -0.16270334 0.15596308 0.07679601 0.14769885 -0.18714991 0.055850174
-0.1640699 -0.032628287 -0.16460063 0.17622367 -0.21479264 -0.17349428 -0.18065716 -0.21245648
00000000: 9b25 ddbd e506 8c3d 3207 903b 7afb 66bd
00000010: 5735 9e3c fbfb 00be 4636 42be 76d8 573e
00000020: 8835 143e b22f 903d ca30 2c3e efeb 1d3e
00000030: e761 14be 0fe2 d2bb 6580 4bbe 7b3b fdbd
00000040: 570c 4a3e 1658 33be 7065 35be 7062 e93d
00000050: 1d3f 16be 8b1b 97bd ae4f f1bc e795 173e
00000060: 3427 1abe b640 b2bd e683 56bd 2866 53bd
00000070: b362 b93c 5da5 ab3c 41ae 56be 994e 46be
00000080: 5c16 903d 1c11 5bbe 6a0e 10be 452f 3dbe
00000090: 08e8 3dbc 0701 cb3d 1984 17be 44d2 51bc
000000a0: 1f2e 583c ca2e 0c3e 8b74 50be 2a80 6a3b
000000b0: a576 53be 8ec4 2bbd b1ae 013e 2882 543e
000000c0: 6cdd 163d 9b4f 2cbe 36f1 1e3e bfe2 57be
000000d0: e877 d4bb 8d97 3b3e a25a 063e fcbb 123d
000000e0: a1ee 5c3e 3a7c d53d 4ffe 413e ac7b e03c
000000f0: dadd 013e ef58 ccbd 0363 293e 469e 2dbe
00000100: 7273 6abd a542 41be ddc0 84bd 67a3 3f3e
00000110: 9051 573e ce47 99bd 2c18 153d f61b 51be
00000120: 87f4 383e 2507 eebc db4c e13d 0fa7 97bd
00000130: cbed 3039 7107 f0bd 48ec d63d 015d 3dbd
00000140: 0350 fe3c f548 84bd afba f53d 97a6 0a3d
00000150: 55eb 6d3d 89f1 1f3d 951e 9bbd 857f adbc
00000160: 6041 46bc 2ef4 e53d a6d4 553e 0239 12bc
00000170: e9ce 2fbe c48a c0bc 8165 473e 7a57 60bd
00000180: cf33 22bd a766 23be 2059 9abd 02fc 4cbe
00000190: 6a03 44be 60e6 1a3e e0b5 1dbe 7b96 21be
000001a0: cb6f 51bd 2553 1bbe ffc4 e4bd 567b 263e
000001b0: 0285 c2bb 954b 13be ee89 55be 3d2c 60bc
000001c0: 314b 0fbe 3691 0d3e b49b 26be c9b4 1f3e
000001d0: 3a47 9d3d 5e3e 173e 3aa4 3fbe 27c3 643d
000001e0: f101 28be 3da5 05bd 118d 28be fa73 343e
000001f0: 9af2 5bbe 7ca8 31be 31fe 38be 318e 59be

embedding.1.weight f4 [128, 128]
-0.03445546 -0.06809294 -0.018698733 0.06509277 -0.026270099 -0.012764131 -0.018635303 -0.063098185
-0.05755561 0.0030607989 0.01780737 -0.04126931 0.015831662 0.05281037 -0.011518291 0.052698713
0.06444373 -0.007684793 -0.05176672 0.086173676 -0.07262768 0.04718031 0.07607116 0.027551299
0.05778754 -0.0051503344 -0.024722477 0.08600225 0.0883507 0.061188363 -0.033008926 0.08137329
-0.074263945 -0.03240317 0.017030086 0.025884623 0.0237162 0.059555277 0.031574734 0.058024347
0.04034173 0.040454555 -0.020863796 0.023618545 -0.010432431 -0.0404175 -0.06641193 0.032675564
0.061099358 0.0055192667 0.051624674 -0.040397942 -0.05038642 0.03765729 -0.025892843 0.049386833
0.013510551 0.053150967 0.034896694 0.07034562 -0.041113924 0.02512597 -0.059063423 -0.067669205
0.075829566 -0.067779236 -0.038531363 -0.048701916 -0.032605886 -0.07398681 -0.07445523 -0.034539174
0.009615361 -0.07068999 -0.04324673 0.024432644 -0.07075338 0.00046777734 -0.028320089 0.009807877
0.0019339713 -0.010059767 0.027840259 0.08259064 -0.029763566 -0.018965218 0.08240164 -0.03095587
-0.0038508838 0.0765952 0.060761034 -0.02246582 0.08792097 -0.0680616 0.056767665 -0.08162584
0.013494093 -0.03459331 0.05491848 -0.07771085 0.034425143 0.06699179 0.08357413 -0.065592
-0.0033986585 -0.055590734 -0.046387862 0.05162006 -0.030130412 -0.027567526 -0.030279886 0.027935121
0.051762387 0.04101528 0.035353694 -0.08105109 -0.025266908 0.0848027 0.028797086 0.06683521
-0.051867206 0.06918949 0.0054976665 0.044130784 0.00462647 0.041179672 0.078952424 0.014715193
-0.08328684 0.006478139 0.07945251 0.047771472 -0.045688912 0.019677889 -8.104839e-05 -0.018728532
-0.07422126 0.0612841 0.013477677 -0.07709568 -0.048453018 -0.031279378 0.06810096 -0.08231716
0.064848095 0.046486866 0.0004110793 0.020407325 0.06514413 -0.015505077 -0.03896039 -0.020705312
-0.009505252 -0.0041332254 -0.07762706 -0.008741857 -0.020709012 0.0011978977 -0.043307867 0.058415793
-0.0848752 -0.020626403 -0.004909381 -0.012059372 -0.02831419 0.025229799 -0.032654915 -0.08589021
-0.024278207 0.036627993 0.0580376 -0.04963625 -0.0024516715 0.04597259 -0.0032624083 -0.012752783
0.04318348 0.042267714 0.08530499 -0.06728071 -0.06910069 0.022791129 -0.043872077 -0.07872292
-0.074515425 -0.046364903 0.016360763 -0.026317261 0.039292946 0.058359854 -0.06832024 -0.039286014
-0.04820313 0.042917438 0.08023942 -0.0435176 -0.036555804 0.010736351 -0.049309116 0.050844386
-0.049743418 0.042658627 -0.059761953 0.035219707 0.052584 0.0042963442 -0.05852923 0.05927028
-0.033516742 -0.07787065 0.05251514 0.010252885 -0.060909875 -0.0075907526 -0.057436015 0.067205615
-0.07307413 0.019004341 0.066766106 0.022953743 -0.011573229 0.07920252 0.07451105 -0.003831749
0.059124462 0.05077378 -0.072284386 -0.046509646 0.036349308 -0.052662928 0.030131392 -0.00023318797
0.007029968 0.042024147 -0.07077175 -0.035959207 -0.04169988 0.042465836 -0.041714665 0.003714191
-0.08024016 -0.057993148 0.06690868 0.063033655 0.08604185 -0.07195459 -0.07931552 -0.06179065
0.08702285 0.0032522616 -0.045830842 -0.05367712 0.057096366 0.0027334443 -0.07105965 -0.004861091
00000000: 2b21 0dbd 5074 8bbd 162e 99bc 5c4f 853d
00000010: 6434 d7bc a520 51bc 10a9 98bc 9f39 81bd
00000020: 6ebf 6bbd af97 483b c3e0 913c 020a 29bd
00000030: 67b1 813c b04f 583d 37b7 3cbc 9bda 573d
00000040: 13fb 833d b7d0 fbbb 5709 54bd d37b b03d
00000050: d2bd 94bd 2440 413d 32cb 9b3d 43b3 e13c
00000060: a1b2 6c3d 23c4 a8bb cb86 cabc f321 b03d
00000070: 36f1 b43d a6a0 7a3d 5e34 07bd 0aa7 a63d
00000080: b217 98bd 30b9 04bd ae82 8b3c fd0b d43c
00000090: 7a48 c23c 3cf0 733d 8254 013d f0aa 6d3d
000000a0: 5f3d 253d adb3 253d 8dea aabc ae7b c13c
000000b0: c9ec 2abc d28c 25bd fa02 88bd d0d6 053d
000000c0: 5243 7a3d f7da b43b 6574 533d 5078 25bd
000000d0: fe61 4ebd 883e 1a3d 3a1d d4bc d949 4a3d
000000e0: 5c5b 5d3c d4b4 593d d6ef 0e3d 5d11 903d
000000f0: 1367 28bd fad4 cd3c 7dec 71bd 2796 8abd
00000100: 884c 9b3d d7cf 8abd 10d3 1dbd a97b 47bd
00000110: c08d 05bd 6686 97bd fc7b 98bd f378 0dbd
00000120: bf89 1d3c eac5 90bd 7c23 31bd f826 c83c
00000130: 26e7 90bd 0340 f539 88ff e7bc 38b1 203c
00000140: 4f7d fd3a b9d1 24bc 4111 e43c 4825 a93d
00000150: b9d2 f3bc f25c 9bbc 31c2 a83d 2a97 fdbc
00000160: 1c5f 7cbb f2dd 9c3d 90e0 783d 3d0a b8bc
00000170: e90f b43d e163 8bbd 3685 683d 732b a7bd
00000180: 5416 5d3c b7b1 0dbd 33f2 603d de26 9fbd
00000190: 6101 0d3d fe32 893d ea28 ab3d 1955 86bd
000001a0: 07bc 5ebb 1cb3 63bd 3301 3ebd 8e6f 533d
000001b0: 0ed4 f6bc 4bd5 e1bc 860d f8bc 32d8 e43c
000001c0: cc04 543d a3ff 273d 09cf 103d 1dfe a5bd
000001d0: 8cfc cebc 0aad ad3d dee7 eb3c e6e0 883d
000001e0: b572 54bd 38b3 8d3d c525 b43b 7bc2 343d
000001f0: a599 973b 04ac 283d cfb1 a13d fe17 713c
00000200: 4a92 aabd 9246 d43b ffb7 a23d 05ac 433d
00000210: 4c24 3bbd 8633 a13c 86f8 a9b8 946c 99bc
00000220: 5101 98bd 0905 7b3d 79d1 5c3c 57e4 9dbd
00000230: ac76 46bd ce1e 00bd 8478 8b3d e695 a8bd
00000240: 14cf 843d 0369 3e3d 2186 d739 432d a73c
00000250: 496a 853d 0209 7ebc ee94 1fbd 309e a9bc
00000260: ebbb 1bbc 0270 87bb f0fa 9ebd 013a 0fbc
00000270: f2a5 a9bc c702 9d3a 9763 31bd 6645 6f3d
00000280: 0dd3 adbd b4f8 a8bc dfde a0bb ac94 45bc
00000290: 29f3 e7bc b9ae ce3c 29c1 05bd 35e7 afbd
000002a0: 17e3 c6bc 3c07 163d d6b8 6d3d 614f 4bbd
000002b0: 39ac 20bb c14d 3c3d 21ce 55bb 0cf1 50bc
000002c0: 29e1 303d e920 2d3d 62b4 ae3d 78ca 89bd
000002d0: aa84 8dbd 76b4 ba3c 35b3 33bd 7b39 a1bd
000002e0: 8b9b 98bd 20e9 3dbd 0207 863c 4c97 d7bc
000002f0: a4f1 203d be0a 6f3d 7beb 8bbd 5fea 20bd
00000300: a570 45bd 32ca 2f3d 9154 a43d 833f 32bd
00000310: 8abb 15bd 85e7 2f3c 5bf8 49bd 3442 503d
00000320: c1bf 4bbd d0ba 2e3d f3c8 74bd 8a42 103d
00000330: 5262 573d 59c8 8c3b 59bc 6fbd 65c5 723d
00000340: da48 09bd a67a 9fbd 1e1a 573d b7fb 273c
00000350: a27c 79bd d9bb f8bb 0742 6bbd 19a3 893d
00000360: e4a7 95bd feae 9b3c abbc 883d 7d09 bc3c
00000370: a49d 3dbc ee34 a23d 4099 983d 151e 7bbb
00000380: 7e2c 723d 2bf8 4f3d d609 94bd e680 3ebd
00000390: 03e3 143d 15b5 57bd 1cd6 f63c eb83 74b9
000003a0: a55b e63b 8321 2c3d c7f0 90bd f649 13bd
000003b0: 7ecd 2abd a8f0 2d3d ffdc 2abd c969 733b
000003c0: f454 a4bd 398a 6dbd 6b07 893d ca17 813d
000003d0: b636 b03d ee5c 93bd 2d70 a2bd 3118 7dbd
000003e0: 0939 b23d e523 553b 1fb9 3bbd 8adc 5bbd
000003f0: e1dd 693d 9623 333b b987 91bd c949 9fbb

embedding.1.bias f4 [128]
0.0038029207 -0.036643587 -0.033437654 0.022386277 -0.007300719 0.05308582 0.018168664 0.03813552
-0.001565924 0.043491006 0.023359142 0.011305355 0.04472143 -0.07776666 -0.028084416 -0.07958701
-0.029738216 -0.008284995 0.084715575 -0.029767413 0.021624178 0.039720677 0.08194167 -0.03442584
-0.07994687 0.070673205 0.086111724 -4.46019e-05 -0.06829044 0.03714763 -0.07517343 0.009848085
-0.07048415 -0.0759075 0.060626365 0.04130864 -0.039414395 0.01983283 0.08374517 -0.02401341
-0.04203716 0.07516239 -0.045157146 0.040570125 -0.057746883 0.050050445 -0.06000472 0.044445083
-0.019734303 -0.056628063 0.006221939 0.04895562 -0.05987475 0.003650328 -0.08704907 -0.03367671
-0.016042134 0.009658087 0.0011781309 0.07013115 0.02194425 0.05825038 0.064771295 0.005569843
-0.06466803 -0.08356028 0.03159275 -0.049167458 -0.051425613 -0.052073885 0.060052693 0.08811634
0.062087007 -0.037748963 -0.008439749 -0.05189361 -0.03901815 -0.06741067 0.03921471 -0.086537816
0.069125645 -0.03740596 -0.01375416 -0.04278296 0.031719927 -0.06163811 0.01086138 -0.07893807
-0.04080739 -0.0767598 0.07466711 0.017520983 -0.03222742 -0.08439315 -0.041572936 -0.07942635
-0.08591424 -0.061942253 0.07239599 0.0048894454 -0.046675686 0.053266607 0.04345025 0.059178166
0.07859102 0.00494804 -0.0656461 0.047663756 -0.08185929 -0.026630929 0.087433554 0.02080244
-0.023387466 -0.033638854 0.0145352995 0.06254931 -0.0286784 0.062023155 0.05615604 0.05090486
0.04515706 -0.062447667 -0.05281821 0.03010149 -0.08468393 -0.027974043 -0.08196754 -0.070395626
00000000: 6c3a 793b 9617 16bd ecf5 08bd 6d63 b73c
00000010: df3a efbb 8470 593d 73d6 943c fe33 1c3d
00000020: b13f cdba a023 323d ac5b bf3c 183a 393c
00000030: d12d 373d 2044 9fbd 4a11 e6bc 84fe a2bd
00000040: 8f9d f3bc cabd 07bc 5c7f ad3d cada f3bc
00000050: 3025 b13c 26b2 223d 09d1 a73d 1c02 0dbd
00000060: 2fbb a3bd 1dbd 903d 585b b03d ed12 3bb8
00000070: dcdb 8bbd 1d28 183d 87f4 99bd dd59 213c
00000080: fe59 90bd 6475 9bbd 5a53 783d 4033 293d
00000090: fd70 21bd 7678 a23c 9682 ab3d c5b7 c4bc
000000a0: 282f 2cbd bdee 993d b3f6 38bd dc2c 263d
000000b0: ff87 6cbd b201 4d3d 82c7 75bd 0c0c 363d
000000c0: d5a9 a1bc d4f2 67bd 68e1 cb3b b085 483d
000000d0: 3a3f 75bd 573a 6f3b c846 b2bd 97f0 09bd
000000e0: cb6a 83bc f43c 1e3c 836b 9a3a eca0 8f3d
000000f0: 6ec4 b33c f397 6e3d d0a6 843d 3b83 b63b
00000100: ac70 84bd a721 abbd 6667 013d d163 49bd
00000110: aaa3 52bd 6d4b 55bd d0f9 753d 5776 b43d
00000120: f24e 7e3d a89e 1abd df46 0abc 658e 54bd
00000130: 7fd1 1fbd 9b0e 8abd 9b9f 203d bd3a b1bd
00000140: bf91 8d3d fe36 19bd 2159 61bc 2f3d 2fbd
00000150: c1ec 013d 3e78 7cbd eef3 313c 48aa a1bd
00000160: a625 27bd 3e34 9dbd 12eb 983d 2a88 8f3c
00000170: e600 04bd 51d6 acbd 6248 2abd 48aa a2bd
00000180: cef3 afbd 29b7 7dbd 5944 943d a437 a03b
00000190: 012f 3fbd 162e 5a3d e4f8 313d ce64 723d
000001a0: 54f4 a03d 2b23 a23b 7671 86bd 123b 433d
000001b0: d8a5 a7bd 1b29 dabc 5d10 b33d e169 aa3c
000001c0: 1297 bfbc e5c8 09bd 7725 6e3c da19 803d
000001d0: f7ee eabc fe0b 7e3d e003 663d 9d81 503d
000001e0: 9cf6 383d 20c9 7fbd e857 58bd 6697 f63c
000001f0: c56e adbd d229 e5bc 99de a7bd 952b 90bd

embedding.3.weight f4 [128, 128]
-0.0056821643 0.051671572 -0.029952753 0.05838782 0.0398258 -0.040405307 0.05022902 0.049376287
-0.012541638 -0.079587914 -0.048428066 0.013114203 0.046242036 -0.06017178 0.010395162 -0.0035417997
0.033425886 0.013905319 -0.06664539 -0.08678448 0.018195532 0.019328987 -0.07943798 0.02769522
-0.039770197 -0.04626525 -0.02621595 0.076150686 -0.013571296 0.021177 -0.020557536 0.0043531163
-0.0025585138 0.06430038 0.08160167 0.075066306 -0.08451224 0.041148398 0.084578976 -0.084608756
0.0023293297 0.039300766 -0.08069313 -0.011027712 0.06492229 -0.0054925666 -0.028287722 -0.022505067
-0.0247473 0.08503975 0.04203304 0.011349535 0.018868681 -0.016895397 0.061465498 -0.067848586
0.07369488 0.0818555 0.030716749 0.06466302 0.030433543 0.049132794 0.08352299 -0.087751426
0.074578986 -0.015743934 0.08661184 -0.028986959 0.07280091 0.004858488 0.00027253205 0.036650572
0.07629037 -0.07120689 0.080354705 -0.011068489 -0.010266161 0.037839934 -0.07880173 -0.038766176
-0.04240855 0.000323319 -0.017331732 -0.06532647 0.021584107 -0.0058481176 0.028342564 0.02258896
0.05212423 -0.03090836 -0.058152396 -0.024579272 -0.06076233 0.020980733 0.023451233 -0.057108473
-0.07929222 0.04489871 0.0527762 -0.06234901 -0.054330386 0.035290904 0.062142987 -0.017847758
0.034213074 0.022850303 0.041246824 -0.042066272 -0.04593954 0.021985514 -0.039658602 -0.031119019
-0.042798776 -0.08092019 -0.010385953 0.086428605 0.016597303 -0.036298424 0.0035675094 -0.0044284323
-0.009577629 -0.06630286 -0.03199718 0.0634319 0.045943152 0.07238642 0.034003023 -0.05651358
-0.05233021 0.03293691 0.028004894 0.08373092 -0.05098401 0.07041972 -0.010752968 -0.02093355
0.035992123 -0.084186465 0.070830725 -0.027430749 -0.017258313 0.03377505 0.013533563 0.031812724
0.034525424 0.019511608 0.053156596 -0.031876337 -0.06843798 0.05497267 0.07653955 0.08122929
-0.049088474 -0.0063503813 0.002513501 0.074099734 -0.004242565 -0.07743942 0.062673405 -0.056193043
0.08395926 -0.039266217 -0.0054291673 -0.001629787 -0.004159167 -0.016425554 0.033166736 -0.0028215102
-0.00066644704 0.06824318 -0.02944364 -0.034554526 0.05741758 0.018814394 0.06407587 -0.0004912531
0.051478896 0.019775564 -0.04998359 0.07294766 -0.039590284 -0.051527902 -0.0836102 0.06145102
0.046478163 0.052212823 0.014485271 -0.08140227 0.037772182 0.07190955 0.03312895 0.08086495
-0.059720345 -0.028016126 0.01671525 -0.030170348 0.013928206 -0.029685974 -0.07745802 0.066486955
-0.056077022 0.06017829 -0.06736768 -0.020933697 -0.040475197 -0.06202605 -0.01139675 -0.06147632
0.003420596 -0.063702874 0.04954661 -0.05714905 -0.0035017182 -0.025670696 0.08792291 0.028114581
0.03899224 -0.06736036 -0.038179554 0.010624514 -0.061811965 0.06471643 0.06491759 -0.061439462
-0.070437774 -0.06430051 -0.07037673 -0.07236396 0.020576239 0.022282796 -0.08587004 0.07067545
0.04907286 -0.005285826 0.0012976488 -0.024996769 0.07371137 -0.0135871535 -0.07074845 -0.08570272
0.01607149 -0.012020661 -0.014338231 -0.08819199 0.016682629 0.031827003 0.03545592 0.026264798
-0.07553944 0.0019813234 -0.04576604 0.05792296 0.03952912 -0.032325547 -0.033835005 -0.0739831
00000000: 7331 babb 92a5 533d 7a5f f5bc 1128 6f3d
00000010: 6120 233d 0980 25bd f2bc 4d3d ca3e 4a3d
00000020: 717b 4dbc fdfe a2bd 825c 46bd f4dc 563c
00000030: 4a68 3d3d af76 76bd 7850 2a3c 8a1d 68bb
00000040: 95e9 083d 23d3 633c 617d 88bd 10bc b1bd
00000050: cc0e 953c d357 9e3c 61b0 a2bd 16e1 e23c
00000060: 13e6 22bd a180 3dbd d5c2 d6bc e4f4 9b3d
00000070: 245a 5ebc 637b ad3c 4768 a8bc 96a4 8e3b
00000080: bdac 27bb ebaf 833d c71e a73d 5dbc 993d
00000090: c114 adbd 398b 283d be37 ad3d 5b47 adbd
000000a0: aba7 183b d7f9 203d 7142 a5bd 94ad 34bc
000000b0: faf5 843d fdfa b3bb a7bb e7bc 8c5c b8bc
000000c0: daba cabc 5229 ae3d d62a 2c3d 66f3 393c
000000d0: 7e92 9a3c 3768 8abc 3fc3 7b3d 33f4 8abd
000000e0: 57ed 963d dba3 a73d b1a1 fb3c 0c6e 843d
000000f0: c44f f93c 783f 493d 1a0e ab3d 05b7 b3bd
00000100: debc 983d 6cf9 80bc 8c61 b13d 0f76 edbc
00000110: a518 953d f433 9f3b a2e2 8e39 e91e 163d
00000120: 203e 9c3d ebd4 91bd 0291 a43d 9c58 35bc
00000130: 6633 28bc 0cfe 1a3d cd62 a1bd 48c9 1ebd
00000140: 96b4 2dbd 2483 a939 47fb 8dbc e2c9 85bd
00000150: 27d1 b03c 91a1 bfbb aa2e e83c 7c0c b93c
00000160: 3780 553d 8733 fdbc 3531 6ebd 785a c9bc
00000170: ece1 78bd c9df ab3c cd1c c03c 93ea 69bd
00000180: f663 a2bd b6e7 373d db2b 583d ad61 7fbd
00000190: 8a89 5ebd 328d 103d a589 7e3d 7635 92bc
000001a0: 0223 0c3d 8f30 bb3c 6ef2 283d af4d 2cbd
000001b0: 192b 3cbd f71a b43c 0f71 22bd 50ed febc
000001c0: c54d 2fbd 7cb9 a5bd d829 2abc 7b01 b13d
000001d0: 11f7 873c a8ad 14bd e0cc 693b 621c 91bb
000001e0: 7deb 1cbc cbc9 87bd 7a0f 03bd 96e8 813d
000001f0: e32e 3c3d 553f 943d c146 0b3d c97a 67bd
00000200: 3458 56bd dae8 063d 856a e53c 1e7b ab3d
00000210: 9cd4 50bd 3738 903d 372d 30bc d67c abbc
00000220: 7a6c 133d f469 acbd b30f 913d 73b6 e0bc
00000230: 4e61 8dbc b557 0a3d e1bb 5d3c 0f4e 023d
00000240: 886a 0d3d cfd6 9f3c bbba 593d c390 02bd
00000250: 3629 8cbd 062b 613d c5c0 9c3d 8b5b a63d
00000260: ff10 49bd dc16 d0bb 8db9 243b 9ac1 973d
00000270: 3705 8bbb 8f98 9ebd ea5a 803d ad2a 66bd
00000280: d5f2 ab3d 9dd5 20bd 28e7 b1bb 949e d5ba
00000290: 9f49 88bb e28e 86bc d8d9 073d 16e9 38bb
000002a0: 81b4 2eba 15c3 8b3d ca33 f1bc 0c89 0dbd
000002b0: b22e 6b3d a520 9a3c 363a 833d 70c7 00ba
000002c0: 89db 523d 5d00 a23c 98bb 4cbd 9565 953d
000002d0: 6c29 22bd ec0e 53bd d33b abbd 11b4 7b3d
000002e0: e35f 3e3d 1ddd 553d a153 6d3c 3cb6 a6bd
000002f0: 01b7 1a3d 5045 933d 39b2 073d 869c a53d
00000300: 529d 74bd 1382 e5bc 6cee 883c ce27 f7bc
00000310: 2133 643c 0030 f3bc 4fa2 9ebd 502a 883d
00000320: 05b1 65bd 837d 763d 11f8 89bd 257d abbc
00000330: 52c9 25bd 070f 7ebd 6fb9 3abc 98ce 7bbd
00000340: 142c 603b a776 82bd 63f1 4a3d 1f15 6abd
00000350: 157d 65bb 5a4b d2bc ed10 b43d 8d50 e63c
00000360: 54b6 1f3d 3af4 89bd 2a62 1cbd 7112 2e3c
00000370: 8b2e 7dbd 0c8a 843d 83f3 843d f2a7 7bbd
00000380: ae41 90bd fcaf 83bd ad21 90bd 8e33 94bd
00000390: 808f a83c 698a b63c a2dc afbd 4abe 903d
000003a0: a000 493d b934 adbb de15 aa3a 06c6 ccbc
000003b0: fdf5 963d a79c 5ebc 90e4 90bd e884 afbd
000003c0: 5ba8 833c 4ef2 44bc e6ea 6abc 019e b4bd
000003d0: 02aa 883c 085d 023d 3a3a 113d 4629 d73c
000003e0: 6cb4 9abd 17d9 013b 2c75 3bbd a040 6d3d
000003f0: 49e9 213d cb67 04bd 9396 0abd 7484 97bd

embedding.3.bias f4 [128]
0.0496253 0.0039729937 -0.041634344 0.07435669 -0.01818528 0.013370287 -0.08313648 -0.014942385
-0.009204071 0.054010574 0.041751944 -0.067640245 0.039678656 -0.024037927 0.039193556 -0.017590841
0.036103453 -0.030083103 0.051724844 0.015443943 -0.057191703 0.07895852 -0.07652291 0.022129951
0.06504326 0.05914794 -0.066909246 -0.07982176 -0.084446795 -0.086236276 -0.06596544 -0.010634482
-0.053486753 0.010462175 -0.07079243 -0.0790978 0.026838237 0.023006942 0.07258591 -0.069924675
0.08633631 -0.077862024 0.056407034 -0.017300997 -0.018537533 -0.002131345 0.06620229 -0.07457538
0.017821826 -0.0821406 0.031851374 -0.014197587 -0.0138297295 0.027999183 0.036038864 -0.0044704634
0.002026157 -0.012462971 -0.07246043 -0.004514191 0.009862646 -0.03647992 0.058820635 0.015036763
0.012162189 -0.00018744811 -0.056395423 0.03251919 -0.0073691234 -0.048638474 0.043628436 0.04254282
-0.08107587 -0.061719064 -0.07137108 0.08407957 -0.07241526 -0.05394611 -0.08464176 -0.038331684
-0.070136495 0.08255796 0.019350166 -0.054200795 0.07392783 -0.027285764 0.017906394 0.08594682
-0.0052211094 -0.07054436 0.08097405 0.017210381 0.011186131 -0.07066553 0.07169288 0.057647627
-0.0433861 -0.06542927 -0.085189454 0.08637056 -0.03203269 0.009184283 -0.05000463 -0.013906247
0.07892387 -0.031791136 0.05066145 0.012732362 -0.056719195 -0.07926258 -0.04988971 0.059717983
-0.045678373 0.08753149 0.0031375168 0.022324195 0.02604276 -0.0102756545 0.06951349 0.024104593
0.053594608 -0.028256122 -0.052390482 0.008068951 -0.052727647 -0.07425727 -0.073250115 0.079815224
00000000: e643 4b3d e32f 823b c688 2abd 5248 983d
00000010: 4cf9 94bc 0c0f 5b3c 7543 aabd e8d0 74bc
00000020: accc 16bc 313a 5d3d 1604 2b3d f886 8abd
00000030: 1686 223d 30eb c4bc 6c89 203d ab1a 90bc
00000040: 37e1 133d d770 f6bc 6edd 533d 9808 7d3c
00000050: d941 6abd 01b5 a13d 0bb8 9cbd df49 b53c
00000060: 6735 853d 1c45 723d b707 89bd 9779 a3bd
00000070: 71f2 acbd a59c b0bd e318 87bd 403c 2ebc
00000080: ed14 5bbd 8b69 2b3c 9ffb 90bd 07fe a1bd
00000090: dddb db3c 0e79 bc3c eca7 943d ab34 8fbd
000000a0: 17d1 b03d 2076 9fbd 100b 673d d2ba 8dbc
000000b0: 06dc 97bc 09ae 0bbb 1195 873d faba 98bd
000000c0: 14ff 913c 5539 a8bd 9676 023d ff9c 68bc
000000d0: 1796 62bc 8b5e e53c 7d9d 133d f77c 92bb
000000e0: 46c9 043b 7d31 4cbc 2266 94bd c7eb 93bb
000000f0: f096 213c f86b 15bd e8ed 703d c15c 763c
00000100: eb43 473c b88d 44b9 e3fe 66bd d832 053d
00000110: b078 f1bb 2339 47bd bbb3 323d 6141 2e3d
00000120: 1b0b a6bd 21cd 7cbd 002b 92bd e931 ac3d
00000130: 744e 94bd 99f6 5cbd a958 adbd af01 1dbd
00000140: b9a3 8fbd 2614 a93d 3d84 9e3c a701 5ebd
00000150: 7967 973d 6586 dfbc 6eb0 923c e304 b03d
00000160: d715 abbb 9079 90bd b9d5 a53d c9fc 8c3c
00000170: 0946 373c 17b9 90bd b7d3 923d eb1f 6c3d
00000180: a0b5 31bd c8ff 85bd cf77 aebd 0ce3 b03d
00000190: b634 03bd ad79 163c a8d1 4cbd 07d7 63bc
000001a0: d7a2 a13d 6c37 02bd 6182 4f3d 669b 503c
000001b0: 6352 68bd 6b54 a2bd 2759 4cbd d89a 743d
000001c0: 3f19 3bbd b643 b33d cc9e 4d3b 3be1 b63c
000001d0: a057 d53c 385b 28bc 175d 8e3d ff76 c53c
000001e0: 0586 5b3d 6279 e7bc 6797 56bd a233 043c
000001f0: f2f8 57bd 3214 98bd 2804 96bd 2a76 a33d

actor.0.weight f4 [128, 128]
-0.07534737 -0.010407912 -0.079461716 -0.031790525 0.055480942 0.006859547 -0.040768623 -0.037459888
0.06565172 0.08779046 -0.059392568 -0.029564464 -0.0011740847 -0.07225091 -0.035393372 -0.019882217
0.05211718 -0.017278774 -0.016387653 0.01677338 0.032550737 -0.08122772 -0.0016024864 0.035717588
-0.027668953 0.08249101 -0.027596239 0.0014846438 -0.015622762 -0.004982548 -0.057353072 0.054179024
0.08145767 0.08295972 0.03260984 0.072362944 -0.052466523 0.009937595 -0.02581288 -0.0036164208
0.030691471 0.02910559 -0.0014084844 -0.052961096 0.012064557 -0.08009866 -0.05366458 -0.00807482
0.07665678 0.079298705 -0.086004615 0.05439728 -0.04556966 -0.05108531 0.06538455 -0.038774393
0.083467156 -0.068794794 -0.07882488 -0.024558641 -0.0042086053 -0.0073689655 0.017774906 -0.08404102
-0.003794291 0.02267532 -0.040046997 0.04720095 -0.086318664 -0.06823588 0.030994149 0.027484687
0.06615934 -0.07028958 -0.06922218 -0.002097206 -0.07944637 -0.020636255 0.087481 -0.03650639
-0.065776624 0.04411362 -0.004721985 -0.010949888 -0.08318183 0.019119296 0.024735216 0.06342127
0.026722366 -0.012655097 0.0069242422 0.041256823 -0.052802697 -0.0710876 -0.063395664 -0.05063184
-0.048496038 0.050268177 -0.007943922 -0.040462334 -0.028637528 0.06542146 0.085970074 -0.070504576
-0.054644093 -0.009885722 0.025194407 -0.0563402 0.018024258 -0.04587132 -0.062220592 0.08537284
-0.055253547 -0.047199264 -0.00157625 0.03097906 -9.092129e-05 0.049986742 0.05698412 0.043903414
-0.065197594 0.049827226 0.050553184 0.017576668 0.08589915 0.029210147 -0.024068631 0.006895193
0.03183517 0.013066524 0.030539185 0.018576782 -0.0023102374 0.070836306 -0.074835055 0.004147766
-0.08736941 -0.048750404 0.006983016 -0.07234234 -0.045867413 -0.0757298 0.00906526 -0.061283436
0.07636542 0.065870844 0.03579728 0.057286795 -0.07559401 0.048449792 -0.029889692 0.07228334
-0.00794133 -0.07261142 0.061462253 -0.049761657 -0.032956116 -0.016600274 0.06635345 -0.05334736
-0.07252473 -0.050476678 0.017901242 0.042476784 0.08667906 -0.0130725615 0.035175484 0.04259195
-0.007313405 -0.027317131 -0.0867841 -0.0046674157 0.055551577 -0.04060715 0.048282724 -0.06542375
-0.00016293972 0.027429843 -0.052093126 -0.04245997 0.061490566 0.009577534 0.08607273 0.046632085
-0.036010563 -0.07247823 0.07682267 -0.07102061 -0.07710326 0.025377313 -0.08363732 -0.07592911
-0.07723626 0.039484475 -0.041859154 0.03058522 0.0123281 0.07371898 -0.07339294 0.08050988
0.0053423974 0.03132378 -0.080683716 -0.07129699 0.070384815 0.04085057 0.06699893 -0.00077278353
-0.081610024 -0.02637221 0.009663693 -0.028964672 -0.027511997 -0.07928902 -0.015141961 0.064929225
-0.0136563685 -0.061280683 0.067943744 0.016689446 -0.06978168 -0.019759612 0.019937556 -0.03487661
0.045904376 -0.08187861 -0.07981876 -0.058107026 0.005394491 0.0030104546 0.02509986 -0.043925654
-0.03844465 0.050503884 -0.077299535 -0.025053266 -0.08817294 0.08332039 0.05513362 -0.033584885
0.03414531 0.06310518 -0.026494278 -0.082149945 -0.06830891 0.0012393385 0.06417879 -0.031345095
0.056519374 0.045669112 0.001833841 -0.051261917 -0.02499404 0.05545519 0.014765621 0.041562125
00000000: b94f 9abd f285 2abc d3bc a2bd c836 02bd
00000010: fc3f 633d 0dc6 e03b 00fd 26bd 8a6f 19bd
00000020: 6974 863d 7ccb b33d 9f45 73bd 2d31 f2bc
00000030: bfe3 99ba 49f8 93bd a4f8 10bd 08e0 a2bc
00000040: d378 553d 378c 8dbc 663f 86bc 5468 893c
00000050: ec53 053d b85a a6bd 850a d2ba 9b4c 123d
00000060: 00aa e2bc 0cf1 a83d 8211 e2bc 6198 c23a
00000070: 9df6 7fbc a444 a3bb 0eeb 6abd d3ea 5d3d
00000080: 47d3 a63d c9e6 a93d e591 053d 0633 943d
00000090: 23e7 56bd 4bd1 223c 8875 d3bc 7901 6dbb
000000a0: ae6c fb3c d96e ee3c e59c b8ba bced 58bd
000000b0: 6baa 453c c40a a4bd 64cf 5bbd 404c 04bc
000000c0: 3bfe 9c3d 5c67 a23d 3023 b0bd afcf 5e3d
000000d0: 40a7 3abd d43e 51bd 56e8 853d e6d1 1ebd
000000e0: d4f0 aa3d 49e4 8cbd f06e a1bd 342f c9bc
000000f0: 57e8 89bb 5d77 f1bb ae9c 913c b31d acbd
00000100: a4a9 78bb 98c1 b93c 5208 24bd c955 413d
00000110: d7c7 b0bd 41bf 8bbd 71e7 fd3c 9127 e13c
00000120: 8c7e 873d fcf3 8fbd 5cc4 8dbd 4771 09bb
00000130: c7b4 a2bd 5d0d a9bc 3d29 b33d b987 15bd
00000140: e5b5 86bd 7cb0 343d e2ba 9abb 2967 33bc
00000150: 3c5b aabd 12a0 9c3c 82a1 ca3c 03e3 813d
00000160: dde8 da3c 5357 4fbc c1e4 e23b eafc 283d
00000170: a447 58bd 6096 91bd 96d5 81bd 5563 4fbd
00000180: c8a3 46bd 01e6 4d3d 3927 02bc d5bb 25bd
00000190: 4099 eabc b0fb 853d 1411 b03d b464 90bd
000001a0: 7cd2 5fbd b9f7 21bc 8064 ce3c fbc4 66bd
000001b0: 9ca7 933c 91e3 3bbd 05db 7ebd f5d7 ae3d
000001c0: 8b51 62bd 0454 41bd 2c9a ceba ccc7 fd3c
000001d0: ffac beb8 e6be 4c3d 2e68 693d 11d4 333d
000001e0: 5186 85bd a217 4c3d db10 4f3d f2fc 8f3c
000001f0: e5eb af3d 1e4a ef3c 942b c5bc 12f1 e13b
00000200: 9865 023d f914 563c 502d fa3c 562e 983c
00000210: 5a67 17bb a012 913d 1f43 99bd fce9 873b
00000220: bcee b2bd 81ae 47bd c9d1 e43b 3928 94bd
00000230: 78df 3bbd 3a18 9bbd 7586 143c 5704 7bbd
00000240: 7965 9c3d 4be7 863d 2ba0 123d 8fa5 6a3d
00000250: 08d1 9abd 4a73 463d 3adb f4bc 4a09 943d
00000260: 5a1c 02bc 4cb5 94bd d8bf 7b3d e1d2 4bbd
00000270: fefc 06bd 4cfd 87bc 51e4 873d c382 5abd
00000280: d887 94bd a2c0 4ebd a0a5 923c 23fc 2d3d
00000290: ca84 b13d 4c2e 56bc 2b14 103d e674 2e3d
000002a0: 4aa5 efbb 2dc8 dfbc ddbb b1bd 1ff1 98bb
000002b0: 0d8a 633d af53 26bd 1bc4 453d e3fc 85bd
000002c0: ccda 2ab9 8db4 e03c 9a5f 55bd 81ea 2dbd
000002d0: 88dd 7b3d 17eb 1c3c e646 b03d 4901 3f3d
000002e0: d07f 13bd 776f 94bd 3455 9d3d 4173 91bd
000002f0: 50e8 9dbd 15e4 cf3c 0b4a abbd b980 9bbd
00000300: 0b2e 9ebd 79ba 213d 8174 2bbd db8d fa3c
00000310: cdfb 493c faf9 963d 0a4f 96bd 5de2 a43d
00000320: 470f af3b 5d4d 003d 813d a5bd 2804 92bd
00000330: ea25 903d ed52 273d bc36 893d a094 4aba
00000340: 2823 a7bd 880a d8bc 7754 1e3c 5247 edbc
00000350: d760 e1bc 4862 a2bd fd15 78bc 9df9 843d
00000360: f6be 5fbc 7401 7bbd 1726 8b3d 4eb8 883c
00000370: b3e9 8ebd e9de a1bc 1654 a33c c7da 0ebd
00000380: 3a06 3c3d f9af a7bd 0578 a3bd a201 6ebd
00000390: 45c4 b03b 0c4b 453b 399e cd3c 63eb 33bd
000003a0: 2378 1dbd 29dd 4e3d 384f 9ebd 823c cdbc
000003b0: 0494 b4bd e1a3 aa3d cad3 613d 4e90 09bd
000003c0: f4db 0b3d 4a3d 813d 870a d9bc 3b3e a8bd
000003d0: 8be5 8bbd 4d71 a23a 2b70 833d b763 00bd
000003e0: dc80 673d 890f 3b3d 7e5d f03a 04f8 51bd
000003f0: 4dc0 ccbc fb24 633d 81eb 713c 0c3d 2a3d

actor.0.bias f4 [128]
-0.020551067 -0.07002236 0.009524752 0.14954247 0.036431942 0.07662183 -0.039213143 -0.010330133
-0.025658928 0.15755808 0.04392949 -0.06709579 -0.065321974 -0.032845825 0.005234533 -0.030838238
0.42252013 0.021292124 -0.06889772 0.02086878 0.03649506 0.083552696 0.013897385 0.07252281
0.48565564 0.03244222 0.14722382 -0.036240675 0.08017458 -0.0575618 -0.05188035 0.009729042
0.3621993 -0.070431545 -0.06496548 0.04987661 0.06351874 0.08484014 -0.08263465 0.15485501
0.05094294 0.12703532 0.0435726 -0.05003403 -0.09390561 -0.044847433 0.03780458 0.006830581
0.18576397 0.2423712 0.076149605 -0.02154038 -0.06327663 0.23732781 -0.005368025 -0.031494495
0.0893187 0.08942679 0.08441741 0.017129185 0.005872048 -0.05314224 0.035109177 -0.07357966
-0.018460479 0.24238154 -0.0053661014 0.111961745 -0.08491682 0.07003537 0.062413186 0.016679762
-0.0052861273 0.019954368 -0.054283444 -0.04760322 0.046991702 -0.024313273 -0.04943559 -0.07670369
-0.08176007 0.07469276 0.05417866 0.015339019 -0.024773167 -0.0075731003 0.0037492951 -0.027282663
0.03401574 0.538668 0.0060608853 -0.053008575 0.08711694 0.4990344 0.0015596441 -0.0036986282
0.019370731 -0.027216349 -0.026953043 0.039839074 -0.07041122 0.116269484 0.47670728 -0.032377776
0.4797011 -0.056920607 0.0020855889 0.031712923 0.18620326 0.11322285 -0.0857881 -0.032489058
0.058165483 0.08901816 0.17732425 -0.06681439 0.01862863 0.017160732 -0.08565508 -0.027440453
0.041022487 0.062943414 0.078847714 0.040241122 -0.014866679 0.032686 0.01692021 0.049228813
00000000: b65a a8bc e267 8fbd b50d 1c3c a921 193e
00000010: a939 153d e8eb 9c3d f69d 20bd b83f 29bc
00000020: ac32 d2bc e856 213e 69ef 333d 8469 89bd
00000030: 87c7 85bd 5889 06bd 7286 ab3b 79a0 fcbc
00000040: 8f54 d83e d26c ae3c 3f1a 8dbd 01f5 aa3c
00000050: d87b 153d ad1d ab3d dcb1 633c d786 943d
00000060: dba7 f83e 22e2 043d d7c1 163e 1a71 14bd
00000070: 9232 a43d ecc5 6bbd 7d80 54bd 8f66 1f3c
00000080: 3072 b93e 6a3e 90bd 9f0c 85bd 6b4b 4c3d
00000090: 1d16 823d abc0 ad3d 5b3c a9bd 5092 1e3e
000000a0: 8ba9 503d 8c15 023e 2f79 323d 7cf0 4cbd
000000b0: 9651 c0bd f1b1 37bd fad8 1a3d 11d3 df3b
000000c0: e938 3e3e 2830 783e 53f4 9b3d 7375 b0bc
000000d0: 2e97 81bd 1006 733e 42e6 afbb 5f00 01bd
000000e0: b9ec b63d 6525 b73d 09e3 ac3d 8152 8c3c
000000f0: 4f6a c03b adab 59bd a4ce 0f3d efb0 96bd
00000100: 6e3a 97bc de32 783e 1fd6 afbb 334c e53d
00000110: dfe8 adbd b46e 8f3d f8a4 7f3d ffa3 883c
00000120: 4037 adbb 5877 a33c 5158 5ebd 98fb 42bd
00000130: 5f7a 403d a12c c7bc f97c 4abd d316 9dbd
00000140: d371 a7bd 85f8 983d 71ea 5d3d 8250 7b3c
00000150: 19f1 cabc c527 f8bb bcb6 753b e47f dfbc
00000160: 1754 0b3d 25e6 093f 649a c63b 851f 59bd
00000170: 5e6a b23d 7081 ff3e f96c cc3a af64 72bb
00000180: 5eaf 9e3c d2f4 debc a1cc dcbc 4c2e 233d
00000190: c233 90bd b21e ee3d fa12 f43e 8f9e 04bd
000001a0: 629b f53e 9525 69bd 60ae 083b 69e5 013d
000001b0: 11ac 3e3e 62e1 e73d acb1 afbd 3f13 05bd
000001c0: ee3e 6e3d 274f b63d 7d94 353e fcd5 88bd
000001d0: 129b 983c aa94 8c3c ee6b afbd cdca e0bc
000001e0: 3207 283d 7ae8 803d e97a a13d e0d3 243d
000001f0: 5f93 73bc c1e1 053d 419c 8a3c 27a4 493d

actor.2.weight f4 [5, 128]
-0.022818536 -0.02701695 -0.05362589 0.1529327 0.095726155 0.052870445 -0.019975888 0.10983882
0.0840543 0.22726391 -0.08273817 0.02321364 -0.0053390153 -0.033013705 0.05468809 0.054906785
0.22533058 0.04590292 -0.051945288 0.045587085 0.046866324 -0.06517371 -0.001455731 -0.05276185
0.23111418 0.048014216 0.21877034 0.005274952 0.0006278364 -0.028743865 -0.038461875 0.014815355
0.20451364 0.034053244 0.031026993 0.03942532 0.017684123 0.06355602 0.09390536 0.15424976
0.004439106 0.11474622 0.07316574 0.08252009 0.069979966 0.09196854 0.0034621404 0.016049732
0.08480777 0.21994272 -0.004898933 -0.052789856 -0.012664056 0.2107128 0.09569032 -0.010215953
-0.024160365 -0.0070045497 -0.05079734 0.03615324 0.09889619 -0.009644633 -0.027728707 0.010423676
0.0352295 0.11366554 0.019674439 0.10754636 -0.025745392 -0.044014253 -0.01997244 -0.079546236
-0.0510898 0.053649087 -0.003773618 -0.02993818 0.072276026 0.027705241 0.034178086 0.041474257
0.023153944 -0.037961103 0.027027326 -0.03765686 0.049746208 -0.053036027 -0.04015931 0.027987465
0.06887952 0.23710032 0.03756907 0.027480243 -0.054647923 0.23070617 -0.07715243 0.018905085
0.019251531 0.039856177 -0.03514656 -0.02222489 0.057469018 0.08495087 0.23426194 0.076096475
0.18746506 -0.039877318 -0.032032628 0.06404343 0.11199408 0.21645948 -0.05033088 -0.053596597
-0.05492587 -0.050320767 0.24852315 -0.061287742 0.103090264 0.035273846 0.05718299 -0.0001796249
-0.045006108 -0.022146897 -0.0627697 0.045173727 -0.030035902 -0.07203573 0.0059957053 -0.0575122
0.010106467 -0.027208867 -0.05445984 0.18454917 0.23582 -0.02761167 0.025338579 0.015238119
0.01665436 0.21904711 0.037995193 0.05380776 -0.028576259 -0.06697548 -0.041099656 -0.0079456605
0.42502287 -0.04694736 0.10197185 0.0014102614 -0.008227855 0.078848496 -0.06953474 0.07885646
0.48025677 0.03077394 0.24077512 -0.060960285 0.06311065 0.03908896 -0.03259262 0.062544234
0.38657242 -0.07763421 0.04674943 0.07492758 0.04781135 -0.036627743 0.030536192 0.20047525
-0.016309787 0.18526813 -0.0010472649 0.08571007 -0.044659223 0.050977472 -0.04590255 0.067225315
0.13500509 0.25867474 -0.031305313 -0.056962907 0.07224926 0.24237664 -0.007001782 0.034096137
-0.04746835 -0.03059105 -0.062244363 0.05863265 -0.051122643 -0.0041798777 0.078847766 0.02784944
-0.017099034 0.28073153 -0.06493654 0.05777082 -0.08277008 0.043746725 0.035396766 -0.053100213
-0.04734254 0.034758773 0.068680376 -0.08776051 0.090711445 -0.049191598 0.08409172 -0.08311994
-0.026017774 -0.06883168 0.05593261 0.03642967 0.12637654 0.0040187803 -0.016692739 -0.017208142
-0.02590428 0.550808 -0.08004246 -0.02851867 -0.074745074 0.40076277 -0.03109586 -0.015559035
-0.005039591 0.071343094 0.08019179 -0.018135201 0.059880793 0.0021346395 0.47673488 0.09582738
0.45853078 0.082600206 -0.055260755 0.071174145 0.21264736 0.28475282 0.101232566 0.056253914
-0.057916824 -0.046637136 0.2715437 0.0035012672 0.10354856 0.021157349 -0.019361757 0.0051819454
-0.04660158 -0.049964435 -0.047172934 0.039482255 -0.006983455 -0.027137987 0.026322287 0.09541801
00000000: f0ed babc a752 ddbc d2a6 5bbd 649a 1c3e
00000010: 130c c43d ae8e 583d 79a4 a3bc 2df3 e03d
00000020: a924 ac3d dfb7 683e a172 a9bd 882a be3c
00000030: e8f2 aebb 6139 07bd 9e00 603d f0e5 603d
00000040: 0fbd 663e b304 3c3d 95c4 54bd 86b9 3a3d
00000050: e7f6 3f3d cb79 85bd 3ace beba cf1c 58bd
00000060: 32a9 6c3e 8eaa 443d 5505 603e 81d9 ac3b
00000070: 6395 243a 4178 ebbc 338a 1dbd 1abc 723c
00000080: 066c 513e 6a7b 0b3d 522c fe3c 727c 213d
00000090: 4bde 903c a929 823d 7451 c03d a6f3 1d3e
000000a0: ec75 913b 1100 eb3d ebd7 953d 4b00 a93d
000000b0: a851 8f3d 005a bc3d 14e5 623b ba7a 833c
000000c0: b2af ad3d aa38 613e 3b87 a0bb 2d3a 58bd
000000d0: e77c 4fbc 19c5 573e 49f9 c33d d060 27bc
000000e0: f5eb c5bc 6c86 e5bb df10 50bd 6b15 143d
000000f0: 168a ca3d 8604 1ebc 5027 e3bc 11c8 2a3c
00000100: cf4c 103d 7bc9 e83d 4a2c a13c 4441 dc3d
00000110: 00e8 d2bc 4a48 34bd 3e9d a3bc 23e9 a2bd
00000120: 8a43 51bd 25bf 5b3d ce4e 77bb ea40 f5bc
00000130: 7405 943d 1af6 e23c 52fe 0b3d e9e0 293d
00000140: 57ad bd3c 1a7d 1bbd 6968 dd3c 143e 1abd
00000150: aec2 4b3d 4e3c 59bd 177e 24bd f845 e53c
00000160: b510 8d3d 6dca 723e 06e2 193d 3f1e e13c
00000170: 80d6 5fbd 3d3e 6c3e 1802 9ebd d6de 9a3c
00000180: 63b5 9d3c 3b40 233d d7f5 0fbd f910 b6bc
00000190: a264 6b3d b9fa ad3d 5de2 6f3e 78d8 9b3d
000001a0: d7f6 3f3e 6656 23bd a534 03bd 3429 833d
000001b0: 275d e53d 8ea7 5d3e c127 4ebd 1b88 5bbd
000001c0: f3f9 60bd 261d 4ebd da7c 7e3e db08 7bbd
000001d0: fd20 d33d 4f7b 103d b638 6a3d b159 3cb9
000001e0: 5358 38bd 696d b5bc 678d 80bd 1608 393d
000001f0: da0d f6bc 7887 93bd 9f77 c43b ea91 6bbd
00000200: 9895 253c 21e5 debc 4811 5fbd 75fa 3c3e
00000210: cc7a 713e de31 e2bc da92 cf3c 4ea9 793c
00000220: b96e 883c e34d 603e d9a0 1b3d 8765 5c3d
00000230: c218 eabc 712a 89bd 1d58 28bd 842e 02bc
00000240: 999c d93e e04b 40bd 9ed6 d03d 85d8 b83a
00000250: 20ce 06bc 527b a13d 3b68 8ebd 7f7f a13d
00000260: 37e4 f53e a119 fc3c c18d 763e 7eb1 79bd
00000270: 2840 813d bf1b 203d d77f 05bd 3117 803d
00000280: d2ec c53e affe 9ebd 557c 3f3d a273 993d
00000290: d6d5 433d f906 16bd 0927 fa3c 6249 4d3e
000002a0: 1a9c 85bc eeb6 3d3e 6144 89ba c388 af3d
000002b0: 97ec 36bd c1cd 503d 5004 3cbd 6dad 893d
000002c0: c63e 0a3e 0471 843e 003a 00bd f051 69bd
000002d0: 6cf7 933d 9531 783e 346f e5bb 64a8 0b3d
000002e0: 2c6e 42bd 159a fabc f2f3 7ebd ca28 703d
000002f0: fa65 51bd 5bf7 88bb f07a a13d 8224 e43c
00000300: 4613 8cbc 0bbc 8f3e 73fd 84bd 18a1 6c3d
00000310: 5c83 a9bd c42f 333d 33fc 103d 9c7f 59bd
00000320: 40ea 41bd 375f 0e3d 4ca8 8c3d c8bb b3bd
00000330: ecc6 b93d 217d 49bd 4838 ac3d c93a aabd
00000340: 3a23 d5bc a0f7 8cbd 9819 653d 4737 153d
00000350: da68 013e f9af 833b 36bf 88bc 17f8 8cbc
00000360: 3635 d4bc c101 0d3f 4ded a3bd fc9f e9bc
00000370: f213 99bd c730 cd3e bfbc febc 53eb 7ebc
00000380: 2723 a5bb 541c 923d 983b a43d 4690 94bc
00000390: 9045 753d 4fe5 0b3b 9816 f43e 2541 c43d
000003a0: 8cc4 ea3e 4c2a a93d 1a59 62bd c0c3 913d
000003b0: 3bc0 593e 1fcb 913e 0553 cf3d 816a 663d
000003c0: 313a 6dbd 9506 3fbd c707 8b3e 8475 653b
000003d0: 4411 d43d 2d52 ad3c 8c9c 9ebc 4fcd a93b
000003e0: 4ce1 3ebd 82a7 4cbd 6838 41bd 25b8 213d
000003f0: 77d5 e4bb 7c50 debc d6a1 d73c 856a c33d

actor.2.bias f4 [5]
0.18483458 0.32020545 0.3117686 0.4355645 0.44150686
00000000: 4745 3d3e f8f1 a33e 22a0 9f3e 4f02 df3e
00000010: 300d e23e
