models/rg_nfsp_2p_pi_net.pth (torch, 84020 bytes, 6 tensors)

net.0.weight f4 [128, 23]
0	0x3bc67e99	0.006057572
1	0xbe4a2afc	-0.1974296
2	0xbe2e2dda	-0.17009678
3	0x3dd9fc64	0.10643843
4	0xbe29924c	-0.16559714
5	0x3d2c582a	0.042076267
6	0xbdcfe7c6	-0.10151629
7	0x3dfacaae	0.12245689
8	0x3e3c39d8	0.1838144
9	0xbeb9d4fa	-0.362953
10	0x3e71cd62	0.23613504
11	0x3d1fd91c	0.03902541
12	0x3e1dbfe2	0.15405229
13	0x3ce755f3	0.028239226
14	0x3dcde993	0.10054316
15	0xbdc438eb	-0.09581169
16	0x3e24993d	0.16074081
17	0x3cfc7ad4	0.030820288
18	0xbdc75bb0	-0.09734285
19	0x3d59b3c8	0.05314997
20	0xbdc4c077	-0.09607022
21	0xbcc851d3	-0.02445308
22	0xbdad71e1	-0.08468986
23	0x3ed23a11	0.41059926
24	0xbec94b4b	-0.39315256
25	0xbe8f7512	-0.28019005
26	0xbf375a2c	-0.71621966
27	0xbe079adb	-0.13242666
28	0x3ca13875	0.019680241
29	0xbe52e355	-0.20594533
30	0x3e40d4aa	0.18831125
31	0xbe35609d	-0.17712636
32	0xbc18cd19	-0.009326243
33	0xbf1684e8	-0.5879655
34	0xbd8aa938	-0.06770557
35	0x3e03f1a4	0.12885147
36	0x3d051bb6	0.03249713
37	0x3e2c83ed	0.168472
38	0x3bd23e4f	0.006416119
39	0xbd86ad1a	-0.06575985
40	0x3d6579dc	0.056024417
41	0xbd679b8a	-0.056544818
42	0x3db3b8d2	0.08775486
43	0x3e3ea260	0.18616629
44	0x3df6da65	0.12053374
45	0xbdbab067	-0.09115677
46	0x3de7f482	0.11325933
47	0x3e5fba2b	0.21848361
48	0x3e1a5a03	0.15073399
49	0xbec39ff7	-0.3820798
50	0xbec570c4	-0.38562596
51	0xbda4fd8d	-0.080561735
52	0xbe23c615	-0.15993531
53	0x3e2f3350	0.17109418
54	0x3d760018	0.060058683
55	0xbdfbb0bf	-0.12289571
56	0xbcb6c444	-0.022310384
57	0xbb6db82e	-0.003627311
58	0x3e2719ff	0.1631851
59	0xbe17b53e	-0.14815232
60	0x3c571a5c	0.013128843
61	0xbe11bc31	-0.14231946
62	0x3d83ad89	0.064295836
63	0xbd93106c	-0.071808666
64	0x3d82d9eb	0.06389221
65	0xbd31f073	-0.0434422
66	0x3e311739	0.17294015
67	0xbdfd1b1f	-0.123586886
68	0xbdfeaf2f	-0.12435757
69	0xbd1ca9b4	-0.03824778
70	0xbd8f91f7	-0.070102625
71	0xb984c0e0	-0.00025320705
72	0xbc871631	-0.016490074
73	0xbeac722d	-0.3368086
74	0xbe53c8be	-0.20682046
75	0xbe270ca1	-0.16313411
76	0xbe0fa1b9	-0.14026536
77	0x3dacf7a3	0.084456705
78	0xbe04c730	-0.12966609
79	0x3dcf02a8	0.101079285
80	0xbddc8873	-0.10768213
81	0xbe118eea	-0.14214674
82	0x3de293a7	0.11063319
83	0xbdac9c48	-0.08428246
84	0x3ec27c5f	0.37985513
85	0xbd4aac2c	-0.049480602
86	0x3df448fa	0.11927982
87	0xbe25e5b1	-0.16200902
88	0xbdd7811f	-0.10522675
89	0x3d823195	0.06357113
90	0x3d348ed2	0.044081517
91	0xbd59c0ff	-0.05316257
92	0x3bc485b9	0.0059973863
93	0xbdd05001	-0.101715095
94	0xbe3ce98d	-0.18448468
95	0xbe4bb86c	-0.1989457
96	0x3e1b50b9	0.15167512
97	0xbd9018a9	-0.070359536
98	0xbd97644d	-0.07392178
99	0xbe4e997f	-0.20175742
100	0xbdf48d3a	-0.11940999
101	0x3e6135ee	0.21993229
102	0xbdc1cbd9	-0.09462709
103	0xbe1afd82	-0.15135768
104	0x3ba0452c	0.0048910584
105	0xbe11d9c8	-0.14243233
106	0xbe35260a	-0.17690292
107	0xbe413898	-0.18869245
108	0xbe3adfcb	-0.18249433
109	0xbe07f49d	-0.13276906
110	0x3e556f6c	0.20843285
111	0x3d21503a	0.03938315
112	0x3d839883	0.06425574
113	0xbe472545	-0.19447811
114	0xbe0c3bc8	-0.1369468
115	0xbe953b4a	-0.29146796
116	0x3df1a692	0.11799349
117	0xbdd5e7b4	-0.104445845
118	0xbe7990bd	-0.2437162
119	0xbef53865	-0.47894588
120	0x3a177aad	0.0005778473
121	0xbd9ee6eb	-0.07758888
122	0xbc6cbc31	-0.014449165
123	0xbe10afc8	-0.14129555
124	0xbeeb3500	-0.45938873
125	0x3d189784	0.03725387
126	0xbd922c81	-0.07137395
127	0xbe2886ba	-0.16457644
128	0x3e33076f	0.17483304
129	0xbd2980d0	-0.04138261
130	0x3e025d45	0.12730892
131	0x3d850ea7	0.06496935
132	0xbe34ce9a	-0.17656937
133	0x3e13c333	0.14429931
134	0xbd6afe8b	-0.057371657
135	0xbda3b1d1	-0.079929
136	0xbe313c51	-0.17308165
137	0xbe54459e	-0.20729682
138	0xbd2201ad	-0.03955238
139	0xbdd15f14	-0.10223213
140	0xbdd3084a	-0.103043154
141	0xbebb6f98	-0.36608577
142	0x3db75fcc	0.08953819
143	0xbe1cbbf7	-0.15306078
144	0xbd1379da	-0.03600488
145	0x3d3263f0	0.04355234
146	0x3ddc7579	0.10764594
147	0x3e3fb41b	0.18721049
148	0x3eb4b88d	0.3529705
149	0xbe294dc2	-0.16533569
150	0x3d56f156	0.05247625
151	0xbdb7ae0f	-0.08968746
152	0xbcbb2ff2	-0.02285001
153	0xbdd4158c	-0.10355672
154	0x3e427c43	0.18992715
155	0xbe1cb652	-0.15303925
156	0x3de43b11	0.111440785
157	0x3d9613f0	0.073280215
158	0x3d8ac4b4	0.067757994
159	0xbde6e04f	-0.11273252
160	0x3e421405	0.1895295
161	0x3d3baeef	0.045821127
162	0x3cdbbc8c	0.026823305
163	0xbe3c2a18	-0.18375432
164	0x3db343f3	0.08753195
165	0xbd0020fc	-0.031281456
166	0xbdc3a2e1	-0.09552551
167	0x3e3766b5	0.17910273
168	0x3d3e6a3d	0.046488035
169	0xbdec4510	-0.1153661
170	0xbdd823eb	-0.10553726
171	0xbc2325da	-0.009957755
172	0x3dee70f3	0.11642637
173	0xbd5a3ebb	-0.05328248
174	0xbdf3a829	-0.118973084
175	0xbd923c67	-0.07140427
176	0xbe1f83b6	-0.15577587
177	0x3d984ba2	0.07436301
178	0x3e2545a9	0.16139854
179	0xbe4903e2	-0.19630387
180	0x3d465c09	0.048427615
181	0x3ddc9aa4	0.10771683
182	0x3d1ade6f	0.037809785
183	0xbd98141e	-0.07425712
184	0xbe290796	-0.165068
185	0x3e5de4cb	0.21669309
186	0x3d8f426d	0.069950916
187	0xbe3cd007	-0.18438731
188	0xbecb6d34	-0.39731753
189	0x3cb6bd4d	0.022307063
190	0xbd16e038	-0.036834925
191	0xbd7e83e8	-0.062137514
192	0x3e087b8f	0.13328384
193	0xbe50b30a	-0.20380798
194	0xbe1a0d24	-0.15044075
195	0xbd3f3987	-0.04668572
196	0x3b476815	0.0030427028
197	0xbc4bfb34	-0.012450028
198	0x3d4d544b	0.050129216
199	0xbe488205	-0.19580849
200	0xbe41ee0b	-0.18938462
201	0xbd9d97cc	-0.076949686
202	0x3e33cf79	0.17559613
203	0x3da65ac6	0.081227824
204	0xbc29eb21	-0.0103710005
205	0xbe00bb50	-0.12571454
206	0xbe02a1c1	-0.12757017
207	0xbe89a3d2	-0.26882797
208	0xbe3472d1	-0.17621924
209	0x3d7f8149	0.062379155
210	0xbcda7dc6	-0.026671302
211	0xbd2ddf57	-0.04244932
212	0xbe3cbd17	-0.18431507
213	0xbe0066f4	-0.12539274
214	0xbd06c98a	-0.032907046
215	0x3e4e8c1a	0.20170632
216	0xbcee5eeb	-0.029097995
217	0xbec47d6f	-0.38376948
218	0x3db0ac03	0.08626559
219	0xbda2a695	-0.07941929
220	0xbe0a3383	-0.13496213
221	0x3e1bd839	0.15219201
222	0xbec84aac	-0.3911947
223	0xbd2b36b1	-0.041800205
224	0xbe5468cc	-0.20743102
225	0x3e0ee6de	0.13955256
226	0x3e21c4eb	0.15797774
227	0x3d9ba20f	0.075992696
228	0xbe14e191	-0.14539172
229	0xbe52baed	-0.20579119
230	0xbe2d6a5a	-0.16935101
231	0x3dcb19f4	0.099170595
232	0x3e04dfb9	0.12975968
233	0x3c691f2e	0.014228625
234	0xbd7c3022	-0.06156934
235	0x3d5828e2	0.052773364
236	0xbb05d1ab	-0.0020419161
237	0xbe2261de	-0.15857646
238	0xbe36efdb	-0.17864935
239	0xbecb622a	-0.3972333
240	0xbe1797cb	-0.14803998
241	0xbdd1a968	-0.1023739
242	0xbd2be282	-0.04196406
243	0xbdf5c328	-0.12000114
244	0xbd1ba1f1	-0.037996236
245	0xbe16482e	-0.14675972
246	0xbe0b8439	-0.13624658
247	0x3d8da728	0.06916648
248	0xbd7dd3f8	-0.061969727
249	0x3e03d079	0.12872495
250	0xbd88ff54	-0.06689325
251	0xbe1ca15f	-0.15295933
252	0xbd16b12c	-0.036790058
253	0xbdc247e6	-0.0948637
254	0xbdf311ff	-0.11868667
255	0xbeb11d35	-0.34592596

net.0.bias f4 [128]
0	0xbdf84927	-0.12123328
1	0x3e779660	0.24178457
2	0x3d85a35d	0.065253
3	0xbc7ba268	-0.015358545
4	0xbe085af5	-0.13315947
5	0x3e5be43c	0.21473783
6	0xbd4b8e99	-0.04969654
7	0xbe0c0458	-0.13673532
8	0x3dd16e66	0.10226135
9	0xbd951c07	-0.072807364
10	0xbe1c12fd	-0.15241618
11	0xbc8f0cc3	-0.01746214
12	0xbe0da6e9	-0.13833202
13	0xbdfe6cf1	-0.12423123
14	0xbdaa4ae1	-0.08315063
15	0xbe3ec11b	-0.18628351
16	0x3cd4c4eb	0.025972804
17	0x3d28db1e	0.04122459
18	0xbc7548f3	-0.014971006
19	0xbd4262e3	-0.047457587
20	0xbe518002	-0.20458987
21	0xbdfaf63c	-0.12253997
22	0xbcd512b9	-0.026009904
23	0xbe171c26	-0.14756832
24	0xbe35940e	-0.1773226
25	0xbdd47183	-0.10373213
26	0x3c9f8cc3	0.0194763
27	0xbe239469	-0.15974583
28	0xbd7a67e8	-0.06113425
29	0xbe833c4e	-0.25631946
30	0xbdc2236d	-0.09479413
31	0x3dbce331	0.09223021
32	0xbe117931	-0.14206387
33	0x3a74ee02	0.0009343327
34	0xbdb88641	-0.09009982
35	0xbddbf1a3	-0.10739448
36	0x3d251663	0.040304553
37	0x3ce765e7	0.028246833
38	0xbe1dc5be	-0.15407464
39	0xbd11fb98	-0.03564033
40	0xbe11c59b	-0.14235537
41	0x3e21aa67	0.1578766
42	0x3c123e93	0.008926052
43	0xbdbf1ab5	-0.09331266
44	0x3e1acf59	0.1511816
45	0xbe2cdea3	-0.16881804
46	0xbe4cc67c	-0.19997591
47	0xbdaa1b6b	-0.08306011
48	0xbcdeafca	-0.027183432
49	0xbe8f1ee3	-0.27953252
50	0xbd350503	-0.044194233
51	0xbe5d7c6c	-0.21629494
52	0xbdeabc28	-0.11461669
53	0xbbbb7553	-0.0057207732
54	0xbe4fca5d	-0.20292039
55	0x3c3d1a36	0.011541894
56	0xbcded538	-0.02720128
57	0xbddb3f93	-0.10705485
58	0xbe1a62de	-0.15076777
59	0xbe613d4c	-0.21996039
60	0xbcff4cf9	-0.031164633
61	0xbd962bda	-0.07332583
62	0xbe3cb6ec	-0.18429154
63	0xbd107b4c	-0.035273835
64	0xbe8080d1	-0.2509828
65	0xbd8634bb	-0.06553026
66	0xbe8edb53	-0.27901706
67	0xbd8ecd05	-0.06972698
68	0xbd6e413d	-0.058167685
69	0x3d3f9da7	0.04678121
70	0xbe222d5a	-0.15837613
71	0xbe46fb6d	-0.19431849
72	0x3dc6cafe	0.097066864
73	0xbd1d18de	-0.038353793
74	0xbe6706ab	-0.22561137
75	0xbdc2a190	-0.09503472
76	0xbdb272be	-0.087132916
77	0xbdd0d158	-0.10196179
78	0xbd0e2b18	-0.034709066
79	0x3c9d71fe	0.019219395
80	0x3dacd2d4	0.0843865
81	0xbe1ed25d	-0.15509935
82	0xbdfb1951	-0.12260688
83	0xbdd70035	-0.10498086
84	0xbe034e52	-0.12822846
85	0xbe683a70	-0.22678542
86	0xbcb40010	-0.021972686
87	0xbd35f25e	-0.044420592
88	0xbc7746de	-0.01509258
89	0xbe72dd20	-0.23717165
90	0xbd3cc79b	-0.046088796
91	0xbc477373	-0.012173521
92	0xbe8f37a7	-0.27972147
93	0xbe18950c	-0.14900607
94	0xbda11540	-0.07865381
95	0x3db645e2	0.08900048
96	0xbe16355e	-0.14668795
97	0x3e4bc1db	0.19898169
98	0xbe279ea9	-0.16369118
99	0x3af2449c	0.0018483582
100	0xbe4ef049	-0.20208849
101	0xbd17395c	-0.036919937
102	0x3d6b95a8	0.05751577
103	0xbdd53a80	-0.104115486
104	0xbd9c2209	-0.07623679
105	0xbea03df1	-0.31297258
106	0xbe27ccae	-0.16386673
107	0x3e6bd5f2	0.23030832
108	0xbcbd4580	-0.02310443
109	0xbd3c784d	-0.046013165
110	0xbdd1c01c	-0.1024172
111	0xbda00fba	-0.078154996
112	0xbdb96b83	-0.09053709
113	0xbe10569c	-0.14095539
114	0xbe58205a	-0.21106091
115	0xbd502d65	-0.05082454
116	0x3de41d5b	0.111384116
117	0xbe4450bd	-0.19171424
118	0xbe9bab5d	-0.30404177
119	0xbde92175	-0.113833345
120	0xbe52265d	-0.20522447
121	0xbe18279e	-0.14858863
122	0x3d9a6aff	0.07539939
123	0xbdb3a31b	-0.08771344
124	0x3d330cf1	0.043713514
125	0x3b446f2f	0.0029973497
126	0xbe250206	-0.16114053
127	0x3db9508c	0.09048566

net.2.weight f4 [128, 128]
0	0xbcdb4f6a	-0.026771266
1	0xbe069cd9	-0.1314577
2	0xbe2aa734	-0.16665345
3	0xbdc0dd5f	-0.09417223
4	0xbe144a5c	-0.14481491
5	0xbdb46190	-0.08807671
6	0xbe381143	-0.17975335
7	0xbd3245c1	-0.043523554
8	0xbdadaf78	-0.08480734
9	0x3cc41acc	0.023938559
10	0xbdb0da55	-0.086353935
11	0xbd8dbc27	-0.06920653
12	0xbd421ac5	-0.04738881
13	0xbc6c18d6	-0.014410218
14	0xbe07fe70	-0.13280654
15	0x3cd92d9b	0.026511004
16	0xbd919fd3	-0.07110562
17	0xbd1fe1df	-0.039033767
18	0x3d2bdb57	0.041957226
19	0xbdbcbf0a	-0.09216125
20	0xbe47ecb2	-0.19523886
21	0xbdadedec	-0.084926456
22	0xbce3efb7	-0.027824266
23	0xbdad2630	-0.08454549
24	0xbeb57b1f	-0.35445496
25	0xbd3e7e3c	-0.046507105
26	0xbd01dd0b	-0.031704944
27	0x3d34f47d	0.044178475
28	0xbdfcc128	-0.12341529
29	0xbe0c9998	-0.13730466
30	0xbdfdef97	-0.12399214
31	0xbdd656db	-0.10465785
32	0x3c4a2c8a	0.0123397205
33	0x3e3a2dc5	0.18181522
34	0xbe438fd2	-0.19097832
35	0x3d8f96fd	0.070112206
36	0xbd0b7c31	-0.034053985
37	0xbe86cbd0	-0.26327372
38	0xbe428aff	-0.18998335
39	0x3a928e87	0.0011181392
40	0xbd4c7c36	-0.049923144
41	0xbdb66ae9	-0.0890711
42	0xbe11660b	-0.14199083
43	0xbdc87e13	-0.09789672
44	0xbe10357a	-0.140829
45	0x3e050393	0.12989645
46	0xbe2fb5a8	-0.1715914
47	0xbe83c530	-0.2573638
48	0xbcbf722d	-0.023369873
49	0xbe1e5b7a	-0.15464583
50	0xbd7e022b	-0.062013786
51	0xbd239a6a	-0.039942183
52	0x3d63bec4	0.05560185
53	0xbc9caeee	-0.019126382
54	0xbcd8b958	-0.026455566
55	0xbd355451	-0.044269864
56	0x3c353cf2	0.011061894
57	0x3dda0dd5	0.106471695
58	0xbdab6c92	-0.083703175
59	0x3d8b4812	0.06800856
60	0xbdfe6958	-0.124224365
61	0xbd3c7ed2	-0.046019383
62	0xbdfc2128	-0.123110116
63	0xbd87a89b	-0.06623956
64	0xbdd0d82f	-0.10197484
65	0xbe461ad3	-0.1934617
66	0x3d915cad	0.070977546
67	0xba93b0e5	-0.0011267929
68	0xbdc49575	-0.09598819
69	0xbe387eca	-0.18017116
70	0xbe717c43	-0.23582558
71	0xbd4a848a	-0.049442805
72	0xbe1c578a	-0.15267769
73	0xbc4da0b5	-0.012550523
74	0x3d64a4b4	0.055821136
75	0xbd7adbcc	-0.06124477
76	0xbd18c8f4	-0.03730102
77	0xbdfb727e	-0.12277697
78	0xbe28c35b	-0.16480772
79	0xbdaa79f8	-0.08324045
80	0xbe5bece2	-0.21477082
81	0x3db4b0ee	0.08822809
82	0xbe3255b2	-0.17415503
83	0x3ddc35bc	0.107524365
84	0xbdc527de	-0.09626745
85	0x3dbdfad7	0.092763595
86	0x3d444d1b	0.047925096
87	0xbdc1ce1c	-0.0946314
88	0xbe30846e	-0.17238018
89	0xbe00fb24	-0.12595803
90	0xbdc18076	-0.0944833
91	0x3e088293	0.1333106
92	0xbdc64878	-0.09681791
93	0x3d903f68	0.07043344
94	0xbdac6d09	-0.08419234
95	0xbe0fcfe5	-0.14044149
96	0x3e042287	0.12903796
97	0xbdeef4f8	-0.11667818
98	0x3dd58487	0.10425668
99	0x3c336a51	0.010950641
100	0x3da57429	0.080787964
101	0xbe0b4b4a	-0.13602939
102	0xbd7431b4	-0.059617713
103	0xbe3cd66c	-0.1844117
104	0x3cac7a55	0.021054426
105	0xbe7771a8	-0.2416445
106	0x3d2eb555	0.0426534
107	0xbdc1ce20	-0.09463143
108	0xbd7b9261	-0.061418895
109	0xbe34bf4f	-0.17651103
110	0xbd6455de	-0.05574595
111	0xbd9fd922	-0.07805087
112	0x3ddd8651	0.108166344
113	0x3c80e56d	0.015734399
114	0x3d6693e2	0.056293376
115	0x3d5ad6be	0.05342745
116	0xbc9d2cc4	-0.019186385
117	0xbd11b4d3	-0.035572838
118	0xbce7d571	-0.028300019
119	0x3dd2043f	0.10254716
120	0xbd5f7bf1	-0.05456156
121	0xbda4c900	-0.0804615
122	0xbd6fe54a	-0.058568276
123	0xbdbed032	-0.09317054
124	0x3daa3464	0.08310774
125	0xbe350482	-0.17677501
126	0x3dd0397e	0.10167216
127	0xbdfc89cb	-0.123309694
128	0xbbb37f21	-0.0054778014
129	0x3c41a442	0.011818947
130	0x3e3419f9	0.17588033
131	0x3db07719	0.08616466
132	0xbe3ed2dc	-0.18635124
133	0x3e065f0b	0.13122194
134	0x3cecc88a	0.028904218
135	0x3db21472	0.08695306
136	0x3c9be561	0.019030275
137	0xbc6100fe	-0.013733147
138	0x3e2c9cc0	0.1685667
139	0x3dd2a342	0.10285045
140	0xbb78f8fa	-0.0037990198
141	0xbc6cb745	-0.014447992
142	0x3e5a36ab	0.21309917
143	0x3d99db4e	0.07512532
144	0x3d6521dd	0.055940498
145	0x3e9cb1a4	0.3060428
146	0x3d017aaa	0.031611122
147	0xbd0ca1f1	-0.034334127
148	0xbe3e83b0	-0.18604922
149	0xbc8088f5	-0.015690306
150	0xbcf3a9ad	-0.029743994
151	0xbf04af47	-0.5182995
152	0xbef603f0	-0.4804988
153	0xbc4cccc9	-0.012499996
154	0xbd130316	-0.035891615
155	0x3da505b4	0.080577284
156	0x3de82a55	0.11336199
157	0xbed89ae9	-0.42305687
158	0x3c02b3e5	0.0079774605
159	0xbd21a4f5	-0.039463956
160	0x3cb4a80a	0.022052784
161	0x3ea0dfed	0.31420842
162	0xbde11958	-0.10991162
163	0x3df8ca78	0.12147993
164	0x3d94d405	0.07267002
165	0x3e5d6377	0.21619974
166	0xbeb0e773	-0.34551582
167	0x3ce3bde3	0.027800506
168	0xbe316f1b	-0.1732754
169	0x3e0ed9c5	0.1395026
170	0xbc754359	-0.01496967
171	0xbc549874	-0.012975801
172	0x3eb86f0c	0.36022222
173	0x3ca2277c	0.019794218
174	0xbee8208c	-0.4533733
175	0xbef422b5	-0.4768273
176	0x3dbc98a0	0.092087984
177	0xbddcc2dc	-0.10779354
178	0xbaa0aed6	-0.0012259136
179	0x3d95a701	0.07307244
180	0xbc3099ef	-0.010778888
181	0x3e0f1829	0.1397406
182	0xbd6d9435	-0.05800267
183	0x3ea2f204	0.31825268
184	0x3d406999	0.046975706
185	0x3d5c91cd	0.053849984
186	0xbdfb39c1	-0.12266875
187	0xbcaa3b36	-0.020780187
188	0xbe2ca001	-0.16857912
189	0xbd04cd92	-0.03242261
190	0xbda0a824	-0.0784457
191	0xbe2f9ad0	-0.171489
192	0xbcd955e2	-0.02653021
193	0xbe5f78ad	-0.21823378
194	0xbea015e7	-0.3126671
195	0x3c4b8eab	0.012424151
196	0x3d9b35e9	0.07578642
197	0x3d38cf48	0.045119554
198	0xbe95799b	-0.2919434
199	0x3cff337f	0.031152485
200	0xbce1218a	-0.027481813
201	0x3d05745a	0.032581665
202	0xbe1b3415	-0.15156586
203	0x3c3396c6	0.01096124
204	0x3e458833	0.19290237
205	0x3d0f6bed	0.035015035
206	0xbde25fea	-0.110534504
207	0x3de4d763	0.11173894
208	0x3c85312a	0.016258795
209	0x3d11e570	0.0356192
210	0xbd233c98	-0.03985271
211	0x3dcf92d1	0.10135425
212	0xbdcf5a30	-0.10124624
213	0x3cbfeeef	0.023429362
214	0xbb39f0dc	-0.0028372323
215	0x3d2b9d7e	0.041898243
216	0x3d229086	0.03968861
217	0xbe6c0fdd	-0.23052926
218	0xbc83fe8e	-0.016112592
219	0xbd32d64d	-0.043661404
220	0xbe012db9	-0.12615098
221	0xbb5eaa26	-0.0033975928
222	0x3d64fed8	0.0559071
223	0x3ec8ed53	0.39243564
224	0x3e0315fc	0.12801355
225	0x3d646c82	0.055767544
226	0xbe6334af	-0.22188066
227	0xbc864c0b	-0.016393682
228	0xbd2fe8a8	-0.042946488
229	0xbd428d6d	-0.047498155
230	0x3dca74a3	0.09885528
231	0x3d132b5a	0.035930015
232	0xbccf596c	-0.025311194
233	0xbea73ba0	-0.32662678
234	0xbcc0d0e4	-0.023537107
235	0x3dba837a	0.091071084
236	0x3b5d52ea	0.0033771344
237	0xbe84dc4b	-0.2594932
238	0xbd1749e2	-0.036935695
239	0xbd93c30a	-0.07214935
240	0x3e174485	0.14772232
241	0xbaf57456	-0.0018726687
242	0xbc47fb8a	-0.012205968
243	0x3ddffec8	0.109372675
244	0x3e3912eb	0.18073623
245	0x3d69b083	0.0570531
246	0x3e274d9a	0.16338196
247	0x3da3cdc4	0.07998231
248	0x3e001f8b	0.12512033
249	0xbdafe2ce	-0.085881814
250	0xbdf965ed	-0.12177644
251	0xbee7f90a	-0.4530719
252	0xbd623f96	-0.05523642
253	0xbd586cbd	-0.052838076
254	0xbd30b818	-0.043144315
255	0xbd5fc285	-0.054628868

net.2.bias f4 [128]
0	0xbcfceac7	-0.03087367
1	0x3e3d94cc	0.18513793
2	0x3ea1a5c6	0.31571788
3	0x3ed85579	0.4225271
4	0x3ea767b6	0.32696313
5	0x3aa5a492	0.0012637547
6	0x3e4ce962	0.20010903
7	0x3e7667ed	0.24063082
8	0xbdacda51	-0.08440078
9	0xbdaf1599	-0.08549041
10	0xbe158336	-0.14600834
11	0x3ee3e325	0.44509235
12	0xbdcc781c	-0.099838465
13	0x3e3f0b0e	0.18656561
14	0x3d220d1d	0.039563287
15	0xbe02b3fc	-0.12763971
16	0xbd91977a	-0.0710897
17	0x3cd207ce	0.025638487
18	0xbd097a90	-0.03356415
19	0xbd670602	-0.056402214
20	0x3e6f2f2c	0.23357838
21	0xbddc3fd6	-0.10754363
22	0xbd7f72b1	-0.062365238
23	0x3e94a2cc	0.29030454
24	0xbe07fbd6	-0.13279662
25	0x3dd2e7ac	0.10298094
26	0xbc8ea138	-0.01741086
27	0xbd5e3b3e	-0.054255717
28	0xbdd696ad	-0.10477958
29	0x3ea32b51	0.31868985
30	0xbdefb2d0	-0.11704028
31	0x3ec3b4d6	0.38223904
32	0xbda407c4	-0.08009294
33	0x3e78e599	0.24306335
34	0xbdaebf20	-0.08532548
35	0xbd3c359a	-0.045949556
36	0xbd389738	-0.04506609
37	0x3e50ae16	0.20378909
38	0xbdd4420a	-0.103641585
39	0xbd26d812	-0.040733404
40	0xbdb9fae4	-0.09081057
41	0xbd83735c	-0.064184874
42	0x3d4d373f	0.050101515
43	0x3f041b6e	0.51604354
44	0x3ea95c54	0.33078253
45	0xbdaa96cb	-0.08329543
46	0x3e8d442b	0.2759107
47	0x3ead1f9a	0.33813173
48	0x3d4f3f07	0.050597217
49	0x3e882a66	0.26594847
50	0xbd0dacd9	-0.03458867
51	0xbd9c33f6	-0.07627098
52	0xbe4db186	-0.20087251
53	0xbd4423f3	-0.047885846
54	0x3e0f2319	0.13978232
55	0xbc8802f2	-0.016602967
56	0xbe621ade	-0.22080562
57	0xbd640816	-0.055671774
58	0x3be4dbd0	0.0069842115
59	0x3e903768	0.28167272
60	0x3e542b84	0.20719725
61	0x3dab3c98	0.08361167
62	0xbe394f26	-0.18096599
63	0xbd50a6ed	-0.050940443
64	0xbe4d50e7	-0.20050393
65	0x3ecb20b1	0.3967338
66	0xbcd19edd	-0.025588447
67	0x3ea61c8b	0.32443652
68	0xbd7af7a1	-0.061271314
69	0xbd7326df	-0.059363242
70	0xbc95af9a	-0.01827221
71	0x3ec4b22f	0.38417193
72	0x3cb41502	0.021982674
73	0x3e9876f4	0.29778254
74	0x3c50e994	0.012751002
75	0xbddab977	-0.10679906
76	0x3e86f836	0.26361245
77	0xbdbcfb35	-0.092276014
78	0x3ee71ef0	0.4514079
79	0xbd55b084	-0.05217029
80	0xbe303e33	-0.17211227
81	0xbdcb3b5f	-0.099234335
82	0xbdae458e	-0.0850936
83	0x3e88f14f	0.26746604
84	0xbc4d74f9	-0.0125400955
85	0x3b59d458	0.003323814
86	0x3d084a16	0.03327378
87	0x3e6ccec8	0.23125756
88	0x3df369c8	0.118854105
89	0xbdf9875b	-0.1218402
90	0x3ecb1f01	0.39672092
91	0xbe664d72	-0.2249048
92	0xbde18acb	-0.11012801
93	0xbe5a5bc8	-0.21324074
94	0xbdb4753e	-0.08811425
95	0x3d527274	0.051378682
96	0xbd4db20a	-0.05021862
97	0x3e8a5cc5	0.27023903
98	0x3f26cc8c	0.65155864
99	0x3e0a0166	0.13477096
100	0x3eb716d8	0.35759616
101	0xbe314e64	-0.1731506
102	0x3f34726c	0.70487094
103	0xbd7e47c8	-0.062080175
104	0xbd7cd7c1	-0.061729196
105	0x3cd9dcae	0.026594486
106	0x3e3a0d59	0.18169154
107	0x3db354d5	0.08756415
108	0xbd3b1ca4	-0.04568161
109	0xbb8f03aa	-0.0043644505
110	0x3ea8bc0f	0.32955977
111	0x3e710ad6	0.2353929
112	0x3efff83b	0.49994072
113	0xbcf8bd85	-0.030363807
114	0xbd81540c	-0.06314859
115	0xbc20edc0	-0.009822309
116	0xbd2231cf	-0.039598282
117	0x3dd740d4	0.10510412
118	0xbde66cc9	-0.11251218
119	0xbe506eec	-0.20354813
120	0xbca63e5b	-0.020293405
121	0xbd89a5c2	-0.06721069
122	0xbe49077a	-0.19631758
123	0xbe4724a2	-0.19447568
124	0x3e04462e	0.12917396
125	0x3d2a5af1	0.041590635
126	0xbdca4224	-0.098758966
127	0xbcc17e19	-0.023619698

net.4.weight f4 [5, 128]
0	0x3d2023ac	0.03909652
1	0x3e3e9c0e	0.18614218
2	0xbcc2e25c	-0.023789577
3	0x3e717910	0.23581338
4	0x3db67802	0.089096084
5	0xbc0e977a	-0.008703107
6	0x3da95919	0.08268947
7	0x3db98dea	0.09060271
8	0x3d6755fb	0.05647848
9	0xbd1d1d4d	-0.03835802
10	0x3c73a2f9	0.014870399
11	0x3e56e50f	0.20985816
12	0xbe3301bc	-0.1748113
13	0x3e1570ac	0.14593762
14	0xbecbc2ed	-0.39797154
15	0x3d41c361	0.04730547
16	0x3dbca34a	0.092108324
17	0x3e1985c6	0.14992437
18	0xbc9ca0e6	-0.019119691
19	0x3e29a42f	0.16566537
20	0xbf4f2762	-0.8091947
21	0x3e1f633f	0.15565203
22	0xbd1cd793	-0.038291525
23	0xbe72a10c	-0.23694247
24	0xbd61294a	-0.054971017
25	0x3e476bd4	0.19474727
26	0xbe065910	-0.13119912
27	0xbe86fc0a	-0.26364166
28	0xbf062e44	-0.52414346
29	0x3b739a59	0.0037170856
30	0xbe0d92bf	-0.1382551
31	0xbf7e68ad	-0.9937847
32	0x3dc92036	0.09820597
33	0xbf340215	-0.70315677
34	0x3dca0690	0.09864533
35	0xbd0efecf	-0.034910973
36	0x3db43cc4	0.088006526
37	0xbe1c0bfd	-0.15238948
38	0xbf0d3f4a	-0.55174696
39	0xbda843d3	-0.082160614
40	0x3dfbee86	0.12301354
41	0xbbaf10ff	-0.0053426023
42	0x3d956aaf	0.07295739
43	0xbfb3f3b5	-1.4058748
44	0xbee40ad6	-0.44539517
45	0xbd9ed227	-0.07754927
46	0xbf7dc03e	-0.99121463
47	0x3e38ff8e	0.18066236
48	0x3b2de7e7	0.002653593
49	0x3dfd6f67	0.12374764
50	0x3e135c01	0.14390565
51	0x3c9ce041	0.019149901
52	0x3d71f510	0.0590716
53	0xbd0255cb	-0.0318201
54	0x3e12e655	0.14345677
55	0xbf8ac239	-1.0840522
56	0x3d937cfb	0.072015725
57	0x3d84a500	0.06476784
58	0x3d958fe8	0.073028386
59	0x3e4baeab	0.1989085
60	0xc0532a42	-3.2994542
61	0x3dc940bf	0.098268025
62	0x3df1b80e	0.11802684
63	0x3d582fca	0.05277995
64	0xbcaba210	-0.0209513
65	0x3e4ca916	0.19986376
66	0x3cf79589	0.030222671
67	0x3e1b6f59	0.15179195
68	0x3d886bfc	0.066612214
69	0xbe4836d3	-0.19552164
70	0x3d9c74c6	0.0763946
71	0xbf89bb98	-1.0760374
72	0x3d958d7d	0.073023774
73	0xbee18a5b	-0.4405087
74	0xb9fcf128	-0.0004824486
75	0xbd3149fe	-0.043283455
76	0x3bafd721	0.0053662215
77	0xbcfd1cb3	-0.030897474
78	0xbf0677ae	-0.52526367
79	0xbdafbdc0	-0.08581114
80	0x3e433d1c	0.1906628
81	0x3d0eb2a7	0.034838345
82	0x3d040bb4	0.032237723
83	0xbf757774	-0.95885396
84	0xbf83b583	-1.0289768
85	0x3dae5a53	0.08513322
86	0x3e34778b	0.17623727
87	0x3e08e6ca	0.13369289
88	0x3e453182	0.19257167
89	0xbe8ae508	-0.27127862
90	0xbddc0a1e	-0.10744117
91	0xbe04351e	-0.12910888
92	0x3d02ed12	0.03196437
93	0xbd5ebafe	-0.05437755
94	0x3cadaf8f	0.021201877
95	0xbf98abe5	-1.1927458
96	0x3d3e491b	0.046456438
97	0xbe043244	-0.129098
98	0x3e9bae38	0.30406356
99	0x3e232464	0.1593185
100	0xbf81a194	-1.0127435
101	0xbcce3b7e	-0.025174852
102	0x3ea44fad	0.32092038
103	0xbd9ab041	-0.07553149
104	0x3d199f67	0.037505534
105	0xbc410a76	-0.011782279
106	0xbdd2b21f	-0.1028788
107	0x3e2a2d69	0.16618885
108	0xbf965449	-1.1744472
109	0x3d546863	0.051857363
110	0xbd62aca3	-0.05534042
111	0x3daba608	0.08381277
112	0x3c781d45	0.015143697
113	0xbffd02de	-1.97665
114	0x3d4729e0	0.04862392
115	0xbd0ee040	-0.03488183
116	0x3c551a95	0.013006826
117	0xbec9c87d	-0.39410773
118	0xbd9f18e1	-0.07768417
119	0x3e103403	0.14082341
120	0xbdae7984	-0.08519271
121	0xbd49f9d0	-0.049310505
122	0xbc3ef353	-0.011654693
123	0x3cd04ca8	0.025427178
124	0x3e2c043d	0.16798492
125	0xbe11e169	-0.14246143
126	0xbc48d7fb	-0.012258525
127	0x3d9fe0ff	0.078065865
128	0x3d3dbbc4	0.046321645
129	0x3e275d68	0.16344225
130	0xbe2a537b	-0.16633408
131	0xbe41098f	-0.18851303
132	0xbe51bfa8	-0.20483267
133	0x3d2ad042	0.041702516
134	0x3da3aa3d	0.07991455
135	0x3ddce923	0.10786655
136	0xbd66a977	-0.056313958
137	0x3cdcd643	0.026957637
138	0xbd743c2e	-0.059627704
139	0x3dbe5153	0.09292855
140	0xbe28d393	-0.16486959
141	0x3e10f107	0.14154445
142	0xbea70b19	-0.32625654
143	0x3d09afa4	0.03361477
144	0x3dc99de0	0.098445654
145	0x3e15f2a3	0.1464334
146	0xba8b4dae	-0.0010628009
147	0x3e333e51	0.1750424
148	0xbf4fac5f	-0.8112239
149	0x3e1754dd	0.14778467
150	0xbd35ba9e	-0.044367425
151	0x3ea5e298	0.3239944
152	0xbd54cd90	-0.051953852
153	0x3e3dfcb9	0.18553437
154	0xbe026570	-0.12734008
155	0xbe7dd531	-0.24788357
156	0xbed87b6e	-0.4228167
157	0xbd368967	-0.04456463
158	0xbdc4a3d8	-0.09601563
159	0xbf6f4bb4	-0.9347489
160	0x3dd5ff6a	0.10449107
161	0xbf27d7e3	-0.6556379
162	0x3dcc49bf	0.099750035
163	0x3d7eebf4	0.06223674
164	0x3bb9b26a	0.0056670206
165	0x3ea00ed6	0.3126132
166	0xbf1c4896	-0.6104826
167	0xbd49b907	-0.04924872
168	0x3e035570	0.1282556
169	0xbd1b2c2f	-0.037883934
170	0x3d4a8e27	0.049451973
171	0xbf9d3b61	-1.2283746
172	0x3e7d6f8e	0.24749586
173	0xbd96202b	-0.07330354
174	0xbf8386a3	-1.0275463
175	0x3d8b12a9	0.067906685
176	0x3a816c01	0.0009874107
177	0x3df2070f	0.118177526
178	0x3e160a63	0.146524
179	0xbd4f9ef4	-0.0506887
180	0xbd17ab18	-0.037028402
181	0x3d8ae555	0.06782023
182	0x3e0b17cc	0.13583297
183	0xbf3a3995	-0.72744113
184	0xbda1df45	-0.079039134
185	0x3d260ddb	0.040540557
186	0x3da27970	0.079333186
187	0x3e3560f3	0.17712764
188	0xc04d5ccb	-3.2087886
189	0x3dc94178	0.0982694
190	0xbd7c1a48	-0.0615485
191	0xbc91e374	-0.017808653
192	0xbcbdbc1f	-0.023160992
193	0x3e2170da	0.15765706
194	0x3cf0e40c	0.029405616
195	0x3daa7a3f	0.08324098
196	0x3d90a9a9	0.0706361
197	0xbe3932b2	-0.18085745
198	0x3da3c317	0.07996195
199	0xbf86301d	-1.0483433
200	0x3e020a3a	0.12699214
201	0xbf09a731	-0.5377074
202	0xbd3fbd1c	-0.046811208
203	0x3d17cf1f	0.03706276
204	0xbd4f5228	-0.05061546
205	0x3d33e0d1	0.043915574
206	0xbee7497d	-0.45173255
207	0xbda5c8c5	-0.080949344
208	0xb956777f	-0.00020453146
209	0x3ce2adea	0.02767082
210	0xbde66737	-0.112501554
211	0xbf80750b	-1.0035719
212	0xbf60d659	-0.8782707
213	0x3dac9358	0.08426541
214	0x3e2e5c56	0.17027411
215	0x3ded5881	0.115891464
216	0x3e3a5aa0	0.18198633
217	0xbe8e8013	-0.27832088
218	0xbe0f5554	-0.13997394
219	0xbe613617	-0.2199329
220	0x3b06af24	0.002055117
221	0xbd4ff357	-0.050769176
222	0x3da19f94	0.07891765
223	0xbf533267	-0.8249878
224	0x3d086ac7	0.033304956
225	0xbd5cabd4	-0.053874806
226	0xbd942428	-0.07233459
227	0x3e1d195f	0.1534171
228	0xbf6c5687	-0.9231953
229	0xbe82a875	-0.25519148
230	0xbe2b0d02	-0.16704181
231	0xbe6fb47f	-0.23408698
232	0xbd09ddeb	-0.033658903
233	0x3ceac5fa	0.028658856
234	0x3e4dc14a	0.20093265
235	0x3e1db4f1	0.15401055
236	0xbf8019e5	-1.0007902
237	0x3da254ed	0.079263546
238	0xbe698b1c	-0.22806972
239	0x3e154fac	0.14581174
240	0xbdb16795	-0.08662335
241	0xbf8b8b26	-1.090184
242	0x3d5e17c1	0.054221872
243	0x3d99633e	0.07489632
244	0x3cbb771a	0.02288394
245	0xbec57c57	-0.38571426
246	0xbd38244e	-0.044956498
247	0xbe88d7a3	-0.26727018
248	0xbdab4c67	-0.08364182
249	0xbb88b9f0	-0.004172556
250	0xbc0ac88c	-0.008470666
251	0x3dae14d7	0.08500069
252	0x3e290ca8	0.16508734
253	0xbe0b7aa7	-0.13621007
254	0xbd111377	-0.035418954
255	0x3c06ee29	0.008235493

net.4.bias f4 [5]
0	0x3f1753c5	0.591122
1	0xbf0ff3ff	-0.56231683
2	0xbe3678d1	-0.17819525
3	0x3b675463	0.00352981
4	0xbdba543d	-0.090980984
