models/rg_nfsp_3p_pi_net.pth (torch, 89762 bytes, 6 tensors)

net.0.weight f4 [128, 34]
000000 2f 97 25 3d c3 76 8d 3d 8b b3 9b 3c 4f ee d8 3d
       0.040427383 0.069074176 0.019006511 0.10592329
000010 3e e9 19 bd 89 c4 e3 3d 66 ff aa bd ef 28 3c 3e
       -0.037575953 0.111214705 -0.08349495 0.1837499
000020 d0 cf 1a 3e f5 d5 00 be 7b 58 3b 3e 91 63 ca 3d
       0.15118337 -0.12581618 0.18295471 0.09882272
000030 f0 21 91 3d aa 48 be bd c6 5b a9 3d 8f 5c c6 bc
       0.07086551 -0.09291203 0.082694575 -0.024214057
000040 e2 4e d5 3d 83 12 b2 bd 36 f7 e4 bd 2f 0e 33 3d
       0.10415436 -0.08694937 -0.11179964 0.0437147
000050 f9 d2 a1 bd c1 b5 52 3e c9 82 7b be e3 17 82 3c
       -0.07901568 0.20577146 -0.2456161 0.01588053
000060 f9 9f 0a be 95 eb a1 bd 40 5b 46 bd d2 d1 ab be
       -0.13537587 -0.07906262 -0.048426867 -0.33558518
000070 b3 99 84 3c 69 73 2d be 5e 99 1e 3e d2 2d 15 be
       0.01618657 -0.16938557 0.15488192 -0.1456826
000080 49 94 07 3e 14 ce e9 3c b7 56 d2 bb 38 20 cb 3d
       0.1324016 0.028540649 -0.0064190286 0.099182546
000090 f7 03 ad 3d 36 3b a5 3e c4 95 99 3c 01 7a f4 bd
       0.08448022 0.32271737 0.018748172 -0.11937333
0000a0 32 bd 3c 3d 79 5d 17 be 42 d1 93 3d e5 ca 1c 3e
       0.04607887 -0.1478175 0.07217647 0.15311773
0000b0 00 9c 14 3d 58 fa ce bd fa 37 51 3d 5a 17 5f 3d
       0.036281586 -0.10106343 0.051078774 0.05446563
0000c0 cf 5d b2 3d 6f 13 d6 bd 9f 83 e9 be 3b da 3d ba
       0.08709299 -0.104529254 -0.4560823 -0.00072422967
0000d0 32 2a 98 be 3b 19 10 3e 79 54 4a 3d b7 c0 0c be
       -0.29719692 0.14072125 0.049396966 -0.1374539
0000e0 3b ee 02 bd 26 30 40 bc f9 6f 09 3e 94 8d f9 bd
       -0.031965476 -0.0117302295 0.1342162 -0.12185207
0000f0 e4 ea 30 3c 5c ba ef bd b9 9a 58 3d 06 ea 71 bd
       0.01079819 -0.11705467 0.05288193 -0.059061073
000100 9f 3e 57 3d e7 59 12 bd 3d a7 11 3e 96 2c d0 bd
       0.052549955 -0.03573027 0.14223953 -0.10164754
000110 49 e3 20 bd 46 d5 26 bd 4d f0 1e 3e 79 1e 34 3e
       -0.039279256 -0.040730737 0.15521355 0.1758975
000120 38 fc 28 3e e8 07 03 be 19 30 2e be 2f 41 95 be
       0.16502464 -0.12795985 -0.17010535 -0.29151294
000130 9a 44 ec bd 0b 43 8e 3d c0 bf 52 bd 56 d7 90 3e
       -0.11536522 0.06946381 -0.0514524 0.28289288
000140 f4 23 1e be af f3 be bd bf 5a ba 3d e8 f7 8d bd
       -0.15443403 -0.09323823 0.0909934 -0.0693205
000150 fd 8c aa 3e ef 37 5e 3d 11 7e 22 3e 67 72 08 be
       0.3331069 0.05425256 0.15868403 -0.13324891
000160 68 3f b1 bd a7 90 9b 3e 39 fb 63 3e 7c 84 f9 bd
       -0.08654672 0.30383798 0.22263803 -0.121834725
000170 60 5b d1 3d ce c4 ee 3d b5 b3 fe bd 2d 63 25 be
       0.102225065 0.11658631 -0.1243662 -0.16151114
000180 b6 cd 20 3e 40 08 6d bd 6f 08 79 bd 77 ec 29 be
       0.15703472 -0.057869196 -0.06079906 -0.1659411
000190 71 23 c9 bd 04 7a 2f 3d 7b 70 b9 bc c9 f3 fe bd
       -0.09821213 0.042840973 -0.022636643 -0.12448842
0001a0 9b d1 83 3b 09 eb ef bd a5 fd 14 be a3 68 c1 bd
       0.0040227897 -0.11714751 -0.14549883 -0.09443786
0001b0 31 b3 19 be 14 a4 df bd be 8b 2f 3e 40 ad 04 3d
       -0.15009762 -0.10919967 0.17143151 0.032391787
0001c0 25 78 58 3d fe ca 23 be 96 ad e6 bd 3a d1 69 bd
       0.052848954 -0.15995404 -0.11263578 -0.0570843
0001d0 37 b0 db 3c e8 86 1a be cc 55 97 bd 13 45 d2 bd
       0.026817424 -0.15090525 -0.07389411 -0.10267081
0001e0 3e 2d f9 39 88 b1 82 bd a2 b5 42 bc d6 00 ee bd
       0.0004752669 -0.06381518 -0.011884125 -0.11621253
0001f0 fb 14 f1 bd 5e e8 cc bd 1b 73 70 bd f5 9b 0a be
       -0.1177158 -0.10005258 -0.058703523 -0.13536055
000200 5d 3f 13 3e a6 69 0b bd 23 19 17 3e 96 df 5a 3d
       0.1437964 -0.0340363 0.14755683 0.053435884
000210 ba b5 14 be 1a 10 f3 3d 19 47 41 bd a1 a2 86 bd
       -0.14522448 0.118683055 -0.047186945 -0.06573988
000220 d1 5a 49 bd d5 a2 18 bd ec 2f 19 3e 07 78 8e bd
       -0.049158875 -0.037264664 0.14959687 -0.06956487
000230 da bd 88 3d dc b3 c1 bd a1 61 02 3e a9 c3 35 be
       0.06676836 -0.094581336 0.12732555 -0.1775042
000240 74 97 f2 bc e4 b8 12 3d e5 cb 57 bb 46 92 40 3e
       -0.029613234 0.035820857 -0.0032927927 0.18805799
000250 a6 32 00 3e 3a 92 90 be 26 c9 30 3d a0 12 97 bd
       0.12519321 -0.28236562 0.04316058 -0.07376599
000260 04 03 cf 3e 8f 53 4a 3e fe e9 a2 3d 73 e4 00 be
       0.40431988 0.19758438 0.07954787 -0.12587146
000270 ff b6 bb 3d 32 20 1a 3f 71 e2 10 3b 04 49 10 3e
       0.09165763 0.60205376 0.0022107626 0.14090353
000280 07 a0 1f 3e 90 5d 1a 3d 80 ba b4 3c 64 f7 24 be
       0.1558839 0.037686884 0.022061586 -0.16109997
000290 22 71 93 3d 33 c4 d2 bc 15 e8 a0 bd f0 d7 16 3e
       0.07199313 -0.02572832 -0.07856766 0.14730811
0002a0 b9 9c 1c 3d a8 53 c2 bd c3 7b 01 3e 7d 05 d8 3d
       0.0382354 -0.094886124 0.12644868 0.10547922
0002b0 6e 47 07 3e 6e a2 d2 bd 0a 67 c8 bd 8d b9 fe bd
       0.13210842 -0.10284887 -0.09785278 -0.12437735
0002c0 7c 32 03 be ad 70 cc 3d c7 ee 07 3e a4 54 25 be
       -0.12812227 0.09982429 0.1327468 -0.16145569
0002d0 52 13 5c be c2 52 f7 bc 1a e0 74 be da 36 68 be
       -0.21491745 -0.03019083 -0.23913613 -0.22677174
0002e0 3e 52 b7 3d 55 93 b8 3d 7c 44 58 3e 8b 74 b7 bd
       0.08951233 0.09012476 0.21119875 -0.08957776
0002f0 ae 01 35 3d 9b 4c 96 3c 2a 2f f8 bc 2c 38 f7 bd
       0.044191055 0.018347075 -0.030295927 -0.12071261
000300 ab ad 96 3c 90 69 99 3e 40 15 8b bc 37 47 1d bd
       0.018393358 0.2996335 -0.016977906 -0.038397994
000310 f1 01 24 3b 42 71 2f 3e fe e0 28 3d 37 da 44 3d
       0.0025025571 0.17133048 0.041230194 0.04805967
000320 cb 80 1f be e6 9d 81 bd e3 e3 13 3e b3 d2 88 3d
       -0.15576474 -0.06328945 0.144424 0.06680813
000330 7e 01 6d 3d 75 13 17 bd e2 14 35 3c 2e 05 73 be
       0.05786275 -0.03688379 0.011052342 -0.23732445
000340 98 f9 64 bd bf 86 b2 3d 87 f3 df 3d c9 fa 55 3d
       -0.055902094 0.08717107 0.10935121 0.05224112
000350 c2 3b 1b be 4b 37 d3 bd 5f 9d 61 be 20 ee 99 3e
       -0.15159515 -0.10313281 -0.22032689 0.30064487
000360 76 f5 0d 3d 4e bb 12 be 10 4f 91 3d d5 c6 85 bd
       0.034657918 -0.14329264 0.07095158 -0.06532065
000370 49 26 19 be a2 a1 63 3e d5 28 35 3d cc d1 0c bd
       -0.14956011 0.22229627 0.044228394 -0.034379765
000380 bd b3 2e be 11 b5 ac 3e 91 fd 0c bd 73 7e e9 3d
       -0.17060752 0.33731893 -0.034421507 0.114010714
000390 2a e7 f4 bd 2d 52 2d be 65 a1 0e be e3 03 5c 3e
       -0.119581535 -0.16925879 -0.13928755 0.21485858
0003a0 8a a0 a8 3d ca c7 13 3e 93 ff b7 3d 63 c9 31 3d
       0.082337454 0.14431682 0.08984294 0.043404948
0003b0 60 20 dc ba 51 8e 05 be 2f 76 16 be c6 42 24 be
       -0.0016794316 -0.1304257 -0.14693521 -0.16041097
0003c0 a9 58 13 3d 37 71 ac bd 1c 5f 0d bd cf 1e 08 be
       0.035973225 -0.084200315 -0.03451453 -0.13293003
0003d0 22 01 00 bd 11 35 f7 bd a4 7f e5 bd 53 03 69 3d
       -0.03125108 -0.120706685 -0.11205986 0.056887936
0003e0 9e c4 50 bd ed b8 92 3d d1 5a 61 bd 38 d3 00 be
       -0.05096876 0.07164178 -0.05501825 -0.12580574
0003f0 c7 e1 f7 bc e5 41 aa bd 42 e9 56 bd 2d 2f 27 be
       -0.030259026 -0.0831335 -0.052468546 -0.1632659

net.0.bias f4 [128]
000000 4e ac ae bd 5e 31 12 3e ec 7c bc 3d a2 c7 fe bd
       -0.08528958 0.14276645 0.092035145 -0.12440421
000010 ed 82 3a 3e 2d e7 65 3e 05 9b 79 bc bc f9 14 be
       0.18214007 0.22451468 -0.015234713 -0.14548391
000020 f6 f7 d3 bd c8 8c 5c bd e1 ce 3f bd 7c 90 1c 3e
       -0.10350029 -0.053845197 -0.046828154 0.15289491
000030 02 cd f4 bb 56 9f 99 bd f7 8c e2 3d 57 71 11 3e
       -0.007470728 -0.07501094 0.11062043 0.14203392
000040 2b c7 a2 bd e6 82 aa bc 22 30 d0 bc 85 c9 17 bd
       -0.079481445 -0.02081437 -0.025413577 -0.03705742
000050 7f 60 19 be 5c 59 03 3e 15 5a 1d be 88 b4 f0 3c
       -0.14978217 0.12827057 -0.15366395 0.029382959
000060 89 a5 c7 3d 92 a4 ea bd fb 6f c0 bd e4 ba 65 bc
       0.0974837 -0.114571705 -0.093963586 -0.014021609
000070 c0 70 47 3e 86 dd f7 b9 3b 49 b5 bd 22 ff 6a 3e
       0.19476604 -0.0004727656 -0.08851858 0.22948888
000080 43 25 04 3d 9f 04 09 be a9 4e 3f bd 80 db a6 3d
       0.032262098 -0.13380669 -0.046705876 0.08147335
000090 54 c2 7d 3d ff f3 31 3e de e8 d6 3b ed 52 08 be
       0.061952904 0.17378233 0.0065585217 -0.13312884
0000a0 51 e3 59 3e 0c 85 20 be a5 b9 69 bd 32 bd e8 3d
       0.2127812 -0.15675753 -0.05706181 0.11364211
0000b0 6c 28 2b 3e e3 78 43 3e 17 bf 4a bd 3b 79 c6 3d
       0.16714638 0.19089083 -0.049498644 0.096910916
0000c0 5c f7 09 bd 1e ff 90 bc 04 ae b7 bc 9c a1 5a 3c
       -0.033683166 -0.017699774 -0.022421844 0.013344195
0000d0 ff 3f f5 bd dd ab a8 bd 0c 95 bc bb 7f 52 39 3e
       -0.11975097 -0.08235905 -0.0057550725 0.18097876
0000e0 3f c3 2e 3c 00 8a 83 3d 99 e2 e5 bb 54 e6 c4 bc
       0.0106666675 0.06422806 -0.007015538 -0.02403561
0000f0 57 53 02 3e f3 e0 ac bc 2c b0 35 bc 5a be bc bc
       0.12727104 -0.021103358 -0.011089366 -0.023039985
000100 6e 99 60 3e a0 55 0a be f0 0c 65 bd 6a c7 14 3d
       0.21933529 -0.13509226 -0.05592054 0.03632299
000110 e5 52 34 be 8c a4 be bd e2 60 26 be 2d 10 7b 3d
       -0.17609747 -0.093087286 -0.16247895 0.061294723
000120 d0 cf 08 3d 12 a0 c0 bc c4 4a 75 3d f2 27 48 bd
       0.03340131 -0.023513827 0.059885755 -0.04886622
000130 f9 db 25 be e2 78 99 bd 72 e5 29 be 00 60 af 3d
       -0.16197194 -0.0749376 -0.16591433 0.085632324
000140 d6 5a cc 3c 1d ee d6 3c cd 3a 17 be cf b0 f6 bc
       0.024945658 0.026236588 -0.14768524 -0.030113606
000150 0c 72 c1 bc 6b 52 e8 bd bb f2 07 3e 3f b9 50 3c
       -0.023613952 -0.11343845 0.13276188 0.012739479
000160 7f e0 8d bd 3a 70 28 3e 1e dc f1 3c a6 d4 ad bd
       -0.06927585 0.16449061 0.029523905 -0.08487825
000170 d3 a7 0e 3e d6 91 79 3d 17 bc 14 3d df ee 0d 3e
       0.13931207 0.060930096 0.03631219 0.13860653
000180 b0 04 84 bd ae be d5 bd 92 c2 cd bd b0 25 f1 3d
       -0.064462066 -0.1043676 -0.10046877 0.117747664
000190 e9 16 32 bd cf f7 ef bd 96 dd 03 be 54 c2 44 be
       -0.04347888 -0.117171876 -0.12877497 -0.19214755
0001a0 40 f9 68 bd 3c 13 0f 3e db 4c e3 3d 0a d6 f2 3d
       -0.05687833 0.13972181 0.110986434 0.11857231
0001b0 7a 6a a4 3d 27 25 fe bc 1c 30 71 bd 0b 14 d8 3c
       0.08028121 -0.031023575 -0.05888377 0.026376745
0001c0 a8 3f b3 ba a3 de a6 3d d7 1e a2 3c 4b ec 9f 3d
       -0.0013675587 0.08147933 0.019790096 0.07808741
0001d0 54 8a 2e 3e 1b 83 40 3d 44 c2 4d 3e 42 8e 10 be
       0.17044955 0.047000032 0.20093638 -0.14116767
0001e0 05 e0 24 3d 06 3e ea bd 73 b6 c2 bc 8b 4d 0f bc
       0.040252704 -0.11437611 -0.02376864 -0.008746515
0001f0 29 02 0f bc 80 3d 15 be aa c1 d6 bd b6 b3 31 3c
       -0.008728542 -0.14574242 -0.10486157 0.010846069

net.2.weight f4 [128, 128]
000000 c3 9c bb 3d 21 34 c1 bd df 78 33 3e 35 39 86 3d
       0.09160759 -0.09433771 0.17526577 0.0655388
000010 11 d6 e2 3c 56 93 9b bd 85 f5 ed 3d b5 2c a4 bd
       0.027689965 -0.075964615 0.11619095 -0.0801634
000020 a0 74 0c 3e 87 22 28 3e 34 8b 6a 3e a4 e4 3b 3b
       0.13716364 0.16419421 0.22904664 0.0028670216
000030 84 64 d7 3d 38 7e e6 3d 2f 00 b9 bc 9a 47 2d be
       0.10517219 0.11254543 -0.022583095 -0.16921845
000040 7f 3f 21 be 3b 14 21 3d b3 e7 b4 bd c9 f2 0f be
       -0.15746878 0.039325934 -0.088332556 -0.14057459
000050 84 87 48 3c 93 6d 0a bd 37 a6 5b 3e b3 5a 93 3c
       0.012239341 -0.033795904 0.21450125 0.017987585
000060 ce 44 71 3d ea cf f4 3d b2 45 53 3d ca 02 68 3d
       0.058903508 0.11953719 0.05158014 0.056643285
000070 cc 1d 7c be ca 15 f6 3d b6 de b6 bc 73 79 17 be
       -0.24620742 0.12015875 -0.022322994 -0.14792423
000080 7a d2 65 3d 81 8e 2a 3e 8d be 1a 3d 5f 8a 89 be
       0.05610893 0.16655923 0.03777938 -0.2686338
000090 15 3c 06 be e2 38 e2 bd 4e 04 1d be 1a 3c 3a 3e
       -0.13108857 -0.11046006 -0.15333673 0.1818699
0000a0 2c 96 c8 bd 02 d1 54 bd 02 41 d7 3c ad 69 ea bd
       -0.09794268 -0.051957138 0.026276115 -0.11445937
0000b0 3f 64 4b 3d 11 34 0d bd d6 7f bd 3d 13 e1 1d 3e
       0.04965615 -0.034473483 0.092528984 0.1541789
0000c0 dd 24 23 be c3 34 ae 3d 88 78 04 3e 69 0e 36 3e
       -0.15932031 0.08506157 0.12936604 0.17778935
0000d0 24 f3 22 3e d0 c1 f3 3d c8 60 03 3e e8 e0 9a 3d
       0.15913063 0.11902201 0.12829888 0.07562429
0000e0 f0 d6 15 3e 66 1b e8 bc 63 e8 87 3d fa c0 71 3e
       0.14632773 -0.028333377 0.06636121 0.23608771
0000f0 89 61 12 3e 4c 75 29 3e 75 4d 72 3d a2 ac 12 be
       0.14295019 0.16548651 0.0591559 -0.14323667
000100 a8 fd 94 3b 29 50 bf 3d 65 73 6b 3e 9c 54 90 3d
       0.0045468397 0.09341461 0.22993238 0.07047388
000110 4a 76 21 bd ee 12 0b 3e 5f 17 41 3d b4 d7 1e 3d
       -0.03941945 0.1358144 0.04714143 0.03877993
000120 35 fd ac 3d a0 7b 48 3e 85 49 4e bd 5a cb 9b 3d
       0.08446733 0.19578409 -0.050363082 0.076071456
000130 2e 45 f5 bc 4b 1f e9 3c b0 2a 77 bd f5 07 60 3d
       -0.029940214 0.028457304 -0.060343444 0.05469509
000140 cf f5 b4 bd c1 f9 c6 bc 19 9f c2 3c 40 8b e8 bc
       -0.08835947 -0.024289014 0.023757504 -0.028386712
000150 a3 f2 75 3e 71 26 78 bd a1 dc f5 3d f0 8c 1f 3d
       0.2401834 -0.060583536 0.12004972 0.038952768
000160 d0 2a 5c 3e 2c e0 8b bd 22 e5 ea bb 59 f1 30 3d
       0.21500707 -0.06829867 -0.007168428 0.043198917
000170 03 55 1c bd d0 24 c7 bd 68 08 00 3e 59 b4 c3 bb
       -0.03816701 -0.09723818 0.12503207 -0.005972427
000180 76 7e b7 3d b6 70 c3 bc d0 88 95 bc 6c d9 f7 bc
       0.089596674 -0.023857456 -0.018253714 -0.030255042
000190 ef d8 1e 3e b5 7d 23 3e 12 4c 80 3e 70 8a 36 bd
       0.15512441 0.15965922 0.25058037 -0.044565618
0001a0 bf 49 2a bd 0f 56 25 bd d5 e9 ef 3c d0 f9 4f 3d
       -0.041574236 -0.040365275 0.029286304 0.05077535
0001b0 9c ab ee bd 55 61 18 3e e3 dd 16 3e c6 f5 92 3c
       -0.11653826 0.14880879 0.1473308 0.01793946
0001c0 71 73 39 be fb 87 86 bc 35 a9 d5 bd 35 c4 e4 bd
       -0.18110444 -0.016422262 -0.10432664 -0.11170236
0001d0 ec 31 a0 3d 48 ce ad 3d eb 77 86 bd ec 46 48 3d
       0.07822022 0.08486611 -0.06565841 0.04889576
0001e0 ff 6c 67 3d 59 8a 29 bd fd 8c 03 3e 0e b3 23 be
       0.05650043 -0.041391704 0.12846752 -0.15986273
0001f0 fb bc 78 be f0 46 8f bd 2e 5d 7a 3d fb 3e 8b 3d
       -0.2429084 -0.06995952 0.06112402 0.06799122
000200 29 fe b2 bc 48 36 ac bd 4b 98 49 3b 13 72 9b bd
       -0.021849709 -0.08408791 0.003076094 -0.07590117
000210 06 0c 98 bd 4e 16 c0 3c f6 c5 1e 3d 07 72 e2 bb
       -0.07424168 0.023448136 0.03876301 -0.006910566
000220 40 9e a6 bd 69 90 ae bd 2f aa 9b bc 02 0c a9 bd
       -0.081356525 -0.08523638 -0.019002048 -0.082542434
000230 99 30 11 3d 86 47 ba bd 29 39 26 3d b8 d1 cb bb
       0.035446737 -0.09095673 0.040581856 -0.006220069
000240 15 85 21 bd 98 26 2b 3d ff ff 2a 3d 47 06 45 3c
       -0.039433558 0.041784853 0.041748043 0.012025422
000250 2c 20 74 bd 75 09 74 bd 8a 0b 58 3c e3 07 09 3d
       -0.059600994 -0.05957933 0.013186345 0.033454787
000260 f9 53 7b bd 26 fb 26 bd f4 b5 ca bd b8 b8 5a 3d
       -0.06135938 -0.040766858 -0.09897986 0.053398818
000270 0f 05 30 3d 9a 3d 6f 3c 6c bb 49 bd ac 2b be 3c
       0.042973574 0.014602089 -0.049251005 0.023214184
000280 bc 1b 6e bd c0 53 9c 3a 1d f9 bb 3c be b8 c4 bd
       -0.05813192 0.0011926815 0.022945935 -0.09605549
000290 da 71 f3 3a ce 81 1f 3c 10 09 9a bd 0e f5 2f 3d
       0.0018573359 0.009735538 -0.0752126 0.04295831
0002a0 b3 95 55 3d 25 4a 97 3d 0e 62 51 bd 3e 65 c6 bd
       0.052144717 0.07387189 -0.051118903 -0.09687279
0002b0 84 3f 92 bd b7 de ca 3b c2 77 13 bd 47 a9 5a 3d
       -0.07141021 0.0061911005 -0.03600288 0.05338409
0002c0 8e 61 29 3d 3e 72 a2 bc ad 1e e6 bd c3 f9 26 3b
       0.0413528 -0.019829866 -0.1123632 0.002547846
0002d0 30 69 58 3d 7c 00 39 bd c6 08 b5 bd 72 e2 41 bd
       0.05283469 -0.045166478 -0.08839564 -0.047335096
0002e0 3f 00 c6 bc 09 3e cc bd 20 0c ec 3b 06 0f e5 3c
       -0.02417004 -0.0997277 0.007203594 0.027961265
0002f0 16 89 bc bd 3f 7f 98 bd 0f c2 97 bd 0c 9f 3d 3d
       -0.092058346 -0.07446145 -0.074100606 0.046294257
000300 d0 87 7e 3c ae 27 1e 3c 85 05 3a bd 85 e1 f9 bc
       0.01553531 0.009653015 -0.04541542 -0.030503044
000310 57 35 a4 3d a2 aa 12 3c c6 59 54 bd 05 8b 26 3c
       0.08017986 0.008951815 -0.051843427 0.010164981
000320 19 5d 88 bd 0a ee 3a bd 63 ca a2 bd b9 98 70 bd
       -0.06658382 -0.045637168 -0.079487585 -0.058739398
000330 f3 18 97 3b 50 52 9e bd 37 c1 68 3d 94 9e 39 3d
       0.0046111285 -0.077305436 0.05682489 0.045317248
000340 55 2e a9 bd 66 a7 23 bc 01 19 7a bd ba ea 18 bd
       -0.0826079 -0.009988641 -0.061059 -0.037333228
000350 14 21 16 3c 88 e1 6e bc 11 87 f5 bb 09 45 88 bd
       0.00916316 -0.014580138 -0.007492908 -0.066537924
000360 02 c0 34 3d 56 ee 95 bd 15 5b d9 bb 03 54 df bc
       0.044128425 -0.073208496 -0.0066331723 -0.02726174
000370 74 18 05 3d 08 7e 09 bb 02 31 aa 3c 71 59 01 bc
       0.032494023 -0.0020979661 0.020775322 -0.00789486
000380 bd b8 5c 3d 70 6c 92 3a 64 f7 c3 3c e0 73 7a 3d
       0.053887118 0.0011171233 0.023921676 0.061145663
000390 a2 5f 68 bd 29 11 57 bd 44 d7 4c 3d b2 ed c1 3c
       -0.056731828 -0.0525066 0.05000998 0.023672912
0003a0 cd 70 ec bd 2b d2 24 3b 78 03 dd bd 4e 25 93 bd
       -0.115449525 0.0025149684 -0.10791677 -0.0718485
0003b0 b6 65 90 bc fd 5a 31 3d 98 5f 89 bd c6 44 76 3d
       -0.017626625 0.043299664 -0.06707686 0.06012418
0003c0 0e c7 6e 3d a8 6c 48 3d 49 c5 e1 bd 27 1a 50 bd
       0.058295302 0.048931748 -0.11023957 -0.05080619
0003d0 1d f3 b1 bc e3 38 1a 3d 60 fc de bc 96 db 64 3c
       -0.02172237 0.037651908 -0.027219951 0.013968369
0003e0 6b f4 a6 3c 98 ed 5a bd 29 1d 87 bd 58 48 87 3d
       0.02038022 -0.053449243 -0.06597359 0.06605595
0003f0 36 ff 86 bd 64 69 3a 3d 47 df f9 bd 69 7c aa bd
       -0.065916464 0.045510665 -0.1220079 -0.083245106

net.2.bias f4 [128]
000000 e6 ec b6 3a 7b 84 13 bc 84 f7 3e 3d 6b 6a 29 3d
       0.0013956099 -0.009003754 0.046622768 0.041361254
000010 ca f0 87 bc 6b 70 25 3e bb 00 5e 3d 28 56 0d 3d
       -0.01659431 0.16156165 0.054199915 0.034505993
000020 91 03 47 3d 84 b5 c6 3c 1f 6f 91 bd 34 1b a0 3d
       0.048587386 0.024256475 -0.07101273 0.078176886
000030 f3 43 ad 3d a1 4b 54 3d 6e a7 07 bd 03 2f 5c bc
       0.08460226 0.051829938 -0.033118658 -0.013438943
000040 42 f9 0d 3e 39 3d a7 bc 9f ba 9f 3b 64 90 44 3d
       0.13864616 -0.020414935 0.004874542 0.047989264
000050 87 7c 37 bd 70 85 cd 3d 67 64 e4 bd 48 c1 ef ba
       -0.044796493 0.10035217 -0.11151963 -0.0018291855
000060 95 e7 5e bd 4c e3 da 3d 6f f5 16 3c 84 87 29 bd
       -0.054420073 0.10687885 0.009213789 -0.041389003
000070 56 13 07 3e 6d 59 24 bd 35 95 46 bd 11 86 a0 3d
       0.1319097 -0.040124346 -0.04848214 0.07838071
000080 77 af 3f 3e 7e 2c 13 bc 39 90 16 3d f1 2e 83 bd
       0.18719278 -0.008982776 0.036758635 -0.06405438
000090 bf d4 d7 3c 5b aa 23 3d ca 28 6a 3d 32 b7 80 3c
       0.026346562 0.039957386 0.057167806 0.015712354
0000a0 e3 d0 e0 3d 61 2b 37 3d fb 5e 81 bd 3b a1 31 3e
       0.10977342 0.044719104 -0.06316944 0.17346661
0000b0 fc ca 26 3c 39 23 c1 bd cf 68 0d 3e 73 4d 8d 3d
       0.010180231 -0.09430546 0.13809513 0.06899538
0000c0 2f 0c 98 bc 39 14 47 bd 75 4e 68 3d 86 fe 31 3d
       -0.018560497 -0.04860327 0.056715447 0.043455623
0000d0 d3 4d 23 3d da 1f bd bd ea 7e 95 bc c5 d2 76 3d
       0.03986914 -0.09234591 -0.018248994 0.0602596
0000e0 33 54 4e bd a9 d5 01 bd 16 8b e4 3b 32 f6 90 3b
       -0.050373267 -0.031697903 0.006974588 0.00442388
0000f0 ec 70 70 3b 74 59 81 bb 54 8f 14 bd 62 d1 22 3d
       0.00366884 -0.003947431 -0.0362695 0.039750464
000100 a3 05 b7 3c bf dc f6 bb 3f d5 2f bd 8c 9c 07 bd
       0.022341555 -0.007533639 -0.042927977 -0.03310828
000110 57 c2 bd bb 40 db 29 3e 1a ed c9 bc 21 1d 95 3d
       -0.0057909894 0.16587543 -0.024649192 0.072809465
000120 56 01 dc bc f9 d2 82 bb d1 63 c9 bc 2c 57 26 3d
       -0.026856106 -0.003992435 -0.024583729 0.040610477
000130 b4 18 78 bb 66 9d fa 3c 7f 21 ba bc e0 83 18 bd
       -0.003785652 0.030592632 -0.02272105 -0.03723514
000140 ee 25 10 3d b0 f1 04 3e ab 8f a1 3d 2a 27 54 bc
       0.035192423 0.12982821 0.078887306 -0.012948791
000150 09 c0 3a 3d 88 38 15 3d 4d 2a c3 bb dd de 8b bd
       0.045593295 0.036430866 -0.0059559704 -0.06829617
000160 da d1 dd bc f8 83 25 3c 7d 7f 0a 3d 0b c8 90 3d
       -0.027077604 0.010102265 0.03381299 0.07069405
000170 0f b4 34 3d dc 6d ed bb 54 7d d6 3d c8 27 96 bd
       0.04411703 -0.0072457623 0.10473123 -0.073318064
000180 fd ad 9b bc 48 61 72 3c ea b5 d3 3d cb 63 73 3d
       -0.019003863 0.0147937015 0.10337432 0.059421342
000190 5e 66 41 3d 20 1d a7 bd 1c b7 ba 3d b2 5a c1 bd
       0.047216766 -0.08159852 0.091169566 -0.09441127
0001a0 ee 1f f2 3d 45 5d 97 3c 43 89 8e 3c 46 80 8d 3c
       0.11822496 0.018477092 0.017399436 0.01727308
0001b0 80 06 88 3d 8f 51 98 3d 31 e8 2a 3e e9 27 0d 3e
       0.06641865 0.07437431 0.16690136 0.13784756
0001c0 b4 87 5d 3d c1 f7 51 3d 9f c3 6a bd 60 33 07 bd
       0.054084495 0.051261667 -0.057315465 -0.03300798
0001d0 26 b6 9d bd 54 06 eb 3d 85 91 c0 bc a7 6b b8 3d
       -0.07700758 0.11475816 -0.02350689 0.09004908
0001e0 b5 9b 8e bb 2c 41 9e 3d 0c 8f 0c 3d 85 e3 81 3d
       -0.004352058 0.07727274 0.034316108 0.06342224
0001f0 0e fc 3e 3d 47 73 8a 3d 65 37 2e 3c ae 39 f8 bc
       0.046627097 0.06760269 0.010633324 -0.030300941

net.4.weight f4 [5, 128]
000000 a2 8e 15 bf e4 a9 1f bd 47 84 8b be 3b c3 8c bf
       -0.58420765 -0.03898038 -0.27249357 -1.099708
000010 ab 63 65 bf 1b 71 06 3e f5 27 53 3e 7c cf 91 bd
       -0.89605206 0.13129084 0.20620711 -0.07119653
000020 22 99 ec 3c db dd 10 bf f9 13 f2 3c 19 f0 9b 3d
       0.028881613 -0.56588525 0.02955054 0.07614154
000030 ef 29 81 3b a8 0a a1 bd 70 f8 1d bf 5c ad 3f bd
       0.0039417665 -0.07863361 -0.6170721 -0.046796188
000040 f9 2f 0c 3e a8 39 80 be 5c 6b 72 bc 94 4e 61 be
       0.13690175 -0.25043988 -0.014796104 -0.22002631
000050 8a 4f 12 3e d2 fd 92 3d fc 3c c7 bc 95 2c 8a 3d
       0.14288154 0.07177319 -0.024321072 0.067467846
000060 14 15 19 bc 20 63 0b bf 0a 47 a5 bd 4b c3 3c 3d
       -0.009343404 -0.5444813 -0.0807019 0.046084683
000070 ea 3e ac bd 3b d5 4a bb 1a 69 80 bd 58 d2 ec bd
       -0.084104374 -0.003094985 -0.062700465 -0.115635574
000080 ad 17 bd 3d eb bb 96 3d 64 27 12 bf 39 a7 a0 bb
       0.092330314 0.07360061 -0.57091355 -0.004902747
000090 5b 66 67 bd c6 40 de be ee 12 42 be 65 7b 05 be
       -0.0564941 -0.43408793 -0.18952534 -0.13035353
0000a0 b0 24 95 3d 49 4a ce 3d 50 cf 05 bd c2 45 a9 3d
       0.07282388 0.100727625 -0.03266841 0.08265258
0000b0 fd 6f 97 3b 24 95 17 bd dc c1 0d 3e 91 c4 7c 3d
       0.0046215043 -0.037007466 0.13843483 0.061710898
0000c0 45 26 12 3d 59 ef 54 be ae 44 04 bc 53 78 8c 3d
       0.035681028 -0.20794429 -0.008073015 0.068588875
0000d0 29 9e 24 3e e7 22 82 3d 0d 3b ac bd ad 21 7a bd
       0.16075958 0.06354313 -0.084097005 -0.061067272
0000e0 b7 a4 8d 3c 4a 35 e8 3d 7c 56 7f 3d 54 00 72 3d
       0.017290456 0.11338289 0.062338337 0.059082344
0000f0 eb 27 08 bf 9f 76 14 bf c5 37 9d be 22 15 f4 3d
       -0.5318591 -0.579935 -0.3070661 0.11918093
000100 1d c0 1a bf 73 7e 94 bd 85 b3 06 bd 91 d2 71 be
       -0.6044939 -0.07250681 -0.032886047 -0.23615481
000110 20 fe 9f 3b e7 41 65 3e 1b 75 f9 be 92 fb 6e 3d
       0.004882589 0.22388421 -0.48722157 0.058345385
000120 95 c5 9f 3d b2 34 2d bd 42 d3 5a 3e e9 9f 85 be
       0.07801358 -0.042286582 0.21369651 -0.26098564
000130 ea 81 7b bd f0 68 d2 3d f5 7b 9d 3b 3b 85 42 3e
       -0.061403193 0.102739215 0.0048060366 0.18996136
000140 e7 42 93 3e f0 6a 1c 3e d7 60 c9 be 41 33 32 3d
       0.2876198 0.15275168 -0.39331695 0.04350591
000150 99 06 79 be ac 4f 1f 3e ca 5d 96 bd 8c 2f c9 3d
       -0.24318923 0.15557736 -0.073421076 0.09823522
000160 63 81 df 3c 13 5a f5 bd eb 98 14 3d 09 0b b1 bd
       0.027283376 -0.11980071 0.036278646 -0.08644683
000170 da 46 a5 ba 3c 5c 12 bf d9 44 10 be 4c b9 d4 3c
       -0.0012609616 -0.5717199 -0.14088763 0.025967263
000180 ff d3 7f 3d 4f d7 62 bf 40 ef 30 3e 35 96 18 3e
       0.062458035 -0.88609785 0.17278767 0.1490105
000190 69 9b 09 3d 41 a2 74 3b dd 40 25 3d d9 43 96 3b
       0.033595476 0.0037328156 0.04034506 0.004585725
0001a0 4f e8 49 3e f3 6b 14 be 55 0c fe 3d be 7c 8d 3d
       0.19717525 -0.14494304 0.12404696 0.06908558
0001b0 c2 f9 c3 bc 2d 70 91 bd a5 d5 30 3e cb e7 57 3e
       -0.023922805 -0.07101474 0.17268999 0.21084516
0001c0 8c da c0 be 4b cf be 3b 01 58 0f 3c d9 65 30 bf
       -0.37666738 0.005823051 0.008749009 -0.6890541
0001d0 fc 88 a7 3d ea b6 81 3d 2f 79 92 be fe f1 b1 3c
       0.081804246 0.06333716 -0.2860808 0.021721836
0001e0 a2 60 e9 3d 01 6e 9c 3d a4 e2 16 3e c1 3f b4 bd
       0.11395384 0.07638169 0.14734894 -0.088012226
0001f0 04 bc 92 bd fd 03 2d bf 42 dd 61 3c b7 aa 0a be
       -0.071647674 -0.6758421 0.013785662 -0.13541685
000200 5f 86 fe be ae 2e d2 bc c3 c6 a8 bd b6 d3 46 bf
       -0.49711892 -0.025657024 -0.08241036 -0.77666795
000210 55 96 27 bf 7b c4 2f 3e 71 b3 51 bf f1 24 c5 ba
       -0.65463763 0.17164795 -0.8191443 -0.0015040917
000220 a9 14 1d 3e dd 54 02 be f8 9d 4c bc 84 c6 71 be
       0.15339912 -0.12727685 -0.012488835 -0.23610884
000230 69 29 a4 3d dc eb 01 bd fa 07 ee be 01 e7 a2 be
       0.08015711 -0.031719074 -0.4649046 -0.31816867
000240 55 85 20 3e fa 42 36 be 78 0d fb be b8 25 94 bd
       0.15675862 -0.17798987 -0.49033713 -0.07233757
000250 97 4b 93 bd da 02 0e 3e 8b 4f a1 bc 8d 9f a0 3d
       -0.07192152 0.13868275 -0.01969125 0.07842932
000260 8f 03 8b 3d 69 d9 2b be a9 41 cf 3d 7a 71 c2 3c
       0.06787788 -0.16782154 0.101199456 0.02373575
000270 01 fe 26 3e e9 a3 ff 3b a2 7c a9 3d cc 27 f4 be
       0.16307832 0.007801522 0.08275725 -0.47686613
000280 b1 59 40 3e 62 92 0f bf 00 3f 7a be 93 f0 3d be
       0.18784215 -0.5608274 -0.24438095 -0.18548803
000290 db 67 ed bc d2 07 a3 be 5b 38 51 3e 2d 1a e3 be
       -0.028980186 -0.31841904 0.20431654 -0.44355908
0002a0 b7 e3 1b 3e 29 63 2e 3e 8b 31 d2 3c f0 c4 3e 3e
       0.15223585 0.17030014 0.02565839 0.18629813
0002b0 f8 0a ef 3d 8a a8 79 ba d2 f6 2f 3e ed 7e b3 3c
       0.11672014 -0.00095237105 0.17183998 0.021911109
0002c0 80 eb 4d 3c ff b4 85 be 79 6d 34 be 3f 47 e7 bc
       0.012568355 -0.26114652 -0.17619886 -0.028232215
0002d0 d2 c7 99 be 11 13 92 bd fe 24 c1 be 1f 92 d2 3d
       -0.30035263 -0.07132543 -0.37723535 0.10281777
0002e0 46 14 82 bc 25 16 fc 3d 82 4b e3 3d bb d2 8d 3d
       -0.015878808 0.12308911 0.11098386 0.06924959
0002f0 09 5d 06 bd f1 d0 cc be 44 61 6b be b7 02 47 3e
       -0.03280357 -0.4000316 -0.22986323 0.1943463
000300 cb fd 1d bf 11 98 03 3e a5 7c a1 be 5f 21 c3 bd
       -0.6171538 0.12850977 -0.3154041 -0.095278494
000310 b3 15 82 bd 0d c5 e7 3d be a7 de be cd 27 ca 3d
       -0.06351795 0.11316881 -0.43487352 0.09870873
000320 40 72 27 bd 12 d3 dd be 39 bc c1 be a5 59 c2 be
       -0.04088044 -0.43325096 -0.37838915 -0.37959018
000330 90 4a aa be aa 88 0c 3d 07 a9 ff bc f2 3a fe be
       -0.33260012 0.03431002 -0.031208528 -0.49654347
000340 dd c1 c4 be 01 41 2b 3e 43 79 98 3d 3a 1f e1 3d
       -0.38429156 0.16724016 0.07445004 0.10992284
000350 6f 2d 95 bd e6 c5 36 be 19 c2 ff bd 17 59 29 bf
       -0.072840564 -0.1784893 -0.12488193 -0.66151565
000360 d5 1c ae bc 3a 58 c9 bd fc 31 1d bd 41 88 05 3e
       -0.021253983 -0.09831281 -0.038377747 0.13040258
000370 a2 ca e6 be 66 c2 cb be d1 fa ae be cd 31 62 bd
       -0.45076472 -0.39796752 -0.34175733 -0.055223275
000380 93 3d 9a bd 6a 90 01 bf 8b 34 ed bc f3 b4 c3 3d
       -0.075312756 -0.50610983 -0.028955719 0.09555998
000390 b9 d5 02 3c f6 ca 9f bd 10 c2 5b 3c 24 ad 29 bb
       0.007985526 -0.078023836 0.013412967 -0.0025890553
0003a0 90 81 24 3e 14 80 b9 be 86 f3 4e be 88 37 3d bf
       0.16065049 -0.36230528 -0.20210084 -0.7391286
0003b0 21 90 52 3d 83 7c 8a bd 4b 7c 3a 3e 51 00 14 3e
       0.051406983 -0.0676203 0.18211477 0.14453246
0003c0 db db 86 3e 4f bf 99 be 62 da a9 3c 3a 91 2c bf
       0.2633961 -0.3002877 0.020734016 -0.674091
0003d0 8a 21 8a bc 93 b2 3a 3e 18 39 8a be 2b 61 bc bd
       -0.016861696 0.18232183 -0.26996684 -0.09198221
0003e0 b8 0f 1d be 25 56 3e bd 30 a6 c2 bd a8 a6 3a bd
       -0.15338027 -0.046468873 -0.09504354 -0.045569092
0003f0 d3 11 43 3c 8c 1e 08 bf 33 77 63 bd 23 0a ca be
       0.011906105 -0.5317161 -0.0555336 -0.3946086

net.4.bias f4 [5]
000000 ad 14 1d 3d 23 e5 d8 3d 6b 17 90 bd 54 52 a8 3d
       0.038349796 0.10590579 -0.070357166 0.08218828
000010 d9 d8 7b bc
       -0.015371525
