models/rg_nfsp_3p_pi_net.pth (torch, 310274 bytes, 6 tensors)

net.0.weight f4 [256, 37]
0	0xbe57cfbe	-0.21075341
1	0x3e2d7b64	0.16941601
2	0xbef867e5	-0.48516765
3	0xbec03826	-0.37542838
4	0x3db245a6	0.08704691
5	0xbec33506	-0.3812639
6	0xbd6dbc73	-0.058041047
7	0xbc9a3674	-0.018824793
8	0xbdc04b93	-0.09389415
9	0x3e1d0c24	0.15336663
10	0x3d41e2ee	0.047335558
11	0xbe08e47d	-0.13368411
12	0xbe09ffe3	-0.1347652
13	0x3d42bb89	0.04754213
14	0xbd19ef69	-0.037581835
15	0x3e52f21a	0.20600167
16	0x3e06ff87	0.13183413
17	0xbe1f4a35	-0.15555651
18	0x3ceaede1	0.028677883
19	0x3eb62ed0	0.3558259
20	0x3e104ef5	0.1409262
21	0xbbac833d	-0.0052646683
22	0xbe13bcab	-0.1442744
23	0xbd30aefd	-0.04313563
24	0x3da17aaa	0.078847244
25	0x3e5f93bd	0.21833701
26	0x3ca62f5a	0.02028625
27	0xbd61191c	-0.054955587
28	0x3d90ec7e	0.07076357
29	0xbea41cb9	-0.32053164
30	0x3ed87f0b	0.42284426
31	0x3e81033f	0.2519779
32	0x3da5ba11	0.0809213
33	0x3cdb9b85	0.026807556
34	0xbd6e215a	-0.058137275
35	0x3e2f4afe	0.17118451
36	0x3df17dfe	0.11791609
37	0x3d756062	0.05990637
38	0xbe1b0647	-0.15139113
39	0x3c8f060e	0.017458942
40	0x3dc5ff31	0.096678145
41	0xbbfe0baf	-0.0077528576
42	0xbecd3109	-0.40076473
43	0xbea40096	-0.32031697
44	0x3e127fba	0.14306536
45	0xbe2f7a0c	-0.17136401
46	0xbe1114f6	-0.14168152
47	0xbe11b6e5	-0.14229925
48	0xbe1d3908	-0.15353787
49	0x3de97539	0.113993116
50	0x3df6db98	0.12053603
51	0x3c406081	0.011741758
52	0xbd2bd127	-0.04194751
53	0xbda29a14	-0.07939544
54	0x3d9b02b5	0.07568876
55	0xbc45a748	-0.012063809
56	0xbd6bfef0	-0.057616174
57	0xbd627dff	-0.05529594
58	0x3e8c237c	0.27370822
59	0x3e1de68d	0.1541998
60	0x3d34be32	0.044126697
61	0xbe24746d	-0.16060038
62	0xbcbcbefc	-0.023040287
63	0x3d1fefae	0.039046936
64	0x3d9eb791	0.07749856
65	0xbd8a440e	-0.06751262
66	0x3d37c1fd	0.044862736
67	0x3d44478e	0.047919802
68	0x3e036dca	0.1283485
69	0x3e0e940c	0.13923663
70	0xbdec5756	-0.115400955
71	0xbe56c488	-0.20973408
72	0x3d84f49c	0.06491968
73	0x3dfbbd8d	0.12292013
74	0xbdbd6435	-0.092476286
75	0xbd3383a4	-0.043826714
76	0xbe6ac640	-0.22927189
77	0xbd8cdd19	-0.068781085
78	0x3d837c82	0.06420232
79	0x3e4bc807	0.19900523
80	0xbdbf2546	-0.09333281
81	0xbe8e1ce2	-0.2775641
82	0xbe37aab0	-0.17936206
83	0x3e0f7ec5	0.14013202
84	0x3d99abbb	0.07503458
85	0xbc7a76f9	-0.015287154
86	0x3c882455	0.016618887
87	0xbe8a9e0d	-0.27073708
88	0x3e0d5aa7	0.13804112
89	0xbda8feb7	-0.08251708
90	0x3d13519e	0.035966508
91	0x3be7d84f	0.0070753465
92	0xbe98fa45	-0.2987844
93	0x3e216c23	0.15763907
94	0x3cdf8e41	0.027289512
95	0x3c9fbfb2	0.019500587
96	0x3dd35bc1	0.10320235
97	0xbe0cead0	-0.13761449
98	0x3e526889	0.2054769
99	0xbe3aa2e4	-0.182262
100	0x3e8be8aa	0.27325946
101	0x3e266547	0.16249572
102	0x3d04ea27	0.032449868
103	0xbe153bab	-0.14573543
104	0xbdd2c5ec	-0.10291657
105	0x3e3dca16	0.18534121
106	0x3cd6ab16	0.026204627
107	0xbe0b30a4	-0.13592774
108	0x3d333d6a	0.04375974
109	0xbd7fb1d9	-0.062425468
110	0xbd06d134	-0.032914355
111	0xbdd08073	-0.1018075
112	0xbd878f3d	-0.066191174
113	0xbcc2a396	-0.023759644
114	0x3d6aa709	0.057288203
115	0x3e8be851	0.2732568
116	0xbdfed45b	-0.12442847
117	0xbb9f09cf	-0.004853464
118	0xbe1d9443	-0.15388589
119	0xbdc77bb8	-0.09740394
120	0x3a5b6937	0.0008369865
121	0xbd7ee708	-0.062232047
122	0xbd600fcb	-0.05470256
123	0xbdc162e8	-0.09442693
124	0xbdd6775f	-0.10471987
125	0x39734225	0.00023198927
126	0xbe9cc00b	-0.30615267
127	0x3e118d23	0.14213996
128	0xbd85f070	-0.065400004
129	0xbe8c4c24	-0.2740184
130	0xbc3d1354	-0.011540253
131	0xbbd45acd	-0.006480551
132	0x3e876439	0.2644365
133	0xbceafea5	-0.028685877
134	0xbe038962	-0.12845376
135	0xbc79db86	-0.015250092
136	0x3dac0a61	0.08400417
137	0xbd81f40d	-0.06345377
138	0x3d0fb3fe	0.035083763
139	0x3d148608	0.036260635
140	0xbe07abcd	-0.1324913
141	0x3debcdee	0.11513887
142	0x3e3d599b	0.18491213
143	0xbe175289	-0.14777578
144	0xbdfcc0ff	-0.123414986
145	0xbbc13061	-0.00589566
146	0x3e862835	0.2620255
147	0x3e119c67	0.14219819
148	0xbe42c4ef	-0.19020437
149	0xbbab35a6	-0.0052249013
150	0x3d2ecd9b	0.04267655
151	0xbb35871f	-0.0027698947
152	0xbce4b9f3	-0.027920699
153	0xbddd14e3	-0.107949995
154	0xbd80cd8e	-0.062892064
155	0xbcb3a72d	-0.021930302
156	0xbda648ec	-0.081193775
157	0x3dba9166	0.09109764
158	0x3d80aaa9	0.06282551
159	0x3e1b6d37	0.15178381
160	0x3d1b2ed7	0.037886467
161	0xbe4b503e	-0.19854829
162	0xbe034acf	-0.12821506
163	0xbda3b60f	-0.07993709
164	0xbe02f8c7	-0.12790214
165	0xbd1f4414	-0.038883284
166	0xbe2ff081	-0.17181589
167	0xbdabeb03	-0.08394434
168	0x3d55bf68	0.052184492
169	0x3daf1bf9	0.08550257
170	0xbd658563	-0.05603541
171	0xbd9ecf41	-0.07754374
172	0x3d437d9e	0.04772722
173	0xbe0a4fb1	-0.13506962
174	0xbe3dfefb	-0.18554299
175	0x3c85f1d9	0.016350674
176	0xbd107dd0	-0.035276234
177	0x3dc16246	0.09442572
178	0x3d219dce	0.039457135
179	0x3dd9455d	0.10608933
180	0xbbd7dd13	-0.0065876334
181	0xbcab0b2d	-0.020879352
182	0xbda8aeaa	-0.082364395
183	0x3ea8f148	0.32996583
184	0x3e222fc9	0.15838541
185	0x3e96889e	0.29401106
186	0xbe5fda5e	-0.21860644
187	0x3cb5f9ee	0.022213902
188	0xbe9c2a9c	-0.30501258
189	0xbe10efbe	-0.14153954
190	0xbd0fab80	-0.035075665
191	0x3d809f14	0.06280342
192	0xbe9d8a89	-0.30769756
193	0xbd136ccd	-0.035992432
194	0x3d4c632f	0.049899276
195	0x3d8a00ee	0.067384586
196	0x3c24cbd2	0.01005836
197	0x3da3b0a0	0.07992673
198	0xbcaf6f04	-0.021415241
199	0x3e267a55	0.16257603
200	0xbe01b816	-0.1266788
201	0xbdee5dee	-0.116390094
202	0xbd891a03	-0.066944145
203	0xbd6ef449	-0.058338437
204	0x3dfbfee5	0.12304477
205	0xbde33b65	-0.11095313
206	0x3cc30dd9	0.023810314
207	0xbc24d338	-0.010060124
208	0x3ca6d63d	0.020365829
209	0x3e1313ca	0.14363018
210	0xbe24f9fd	-0.16110988
211	0x3d16eb9f	0.0368458
212	0xbd892b83	-0.06697752
213	0xbde953fa	-0.113929704
214	0x3d322cb8	0.04349968
215	0x3f2a7c85	0.6659625
216	0x3ea2d5e7	0.3180382
217	0x3d6b96d6	0.057516895
218	0xbde146c1	-0.10999823
219	0x3ec02f63	0.37536153
220	0xbdce87e1	-0.100845106
221	0x3cd28923	0.025700158
222	0x3b09640b	0.0020964171
223	0xbd9922e5	-0.07477359
224	0xbcbedd2c	-0.023298822
225	0xbc933b5e	-0.017972644
226	0x3d081439	0.03322241
227	0xbdbe2ce8	-0.09285909
228	0x3cc6f14c	0.024284981
229	0xbdb4d96d	-0.08830533
230	0xbe98672e	-0.2976622
231	0x3dd1419d	0.10217593
232	0x3d4d2716	0.050086103
233	0xbdb4252c	-0.087961525
234	0xbe4d5910	-0.20053506
235	0xbdb07dca	-0.08617742
236	0xbc237058	-0.009975515
237	0x3d36fa84	0.044672504
238	0xbe26d712	-0.1629298
239	0xbdf92956	-0.12166087
240	0x3dd1994a	0.10234316
241	0xbe4bed54	-0.19914752
242	0xbda179b3	-0.078845404
243	0x3d955a2f	0.07292592
244	0x3e199290	0.14997315
245	0xbbc5fcb3	-0.006042087
246	0x3e1b4436	0.15162739
247	0xbd974c4c	-0.07387599
248	0xbd23d021	-0.03999341
249	0x3ce364e6	0.027758073
250	0x3e11fc77	0.14256464
251	0xbe90ca26	-0.28279227
252	0xbe9b8e38	-0.30381942
253	0xbdc97ec1	-0.098386295
254	0x3e1fd239	0.15607537
255	0x3d19d14c	0.037553117

net.0.bias f4 [256]
0	0xbe8dbe14	-0.2768408
1	0xbe6f994c	-0.23398322
2	0x3e03a6c9	0.12856592
3	0xbb3b8f92	-0.002861951
4	0xbdeef342	-0.116674915
5	0xbeaf5244	-0.3424245
6	0xbd293a2f	-0.041315254
7	0xbd963375	-0.073340334
8	0xbd6e6130	-0.058198154
9	0xbe1e8f0e	-0.15484259
10	0xbd0cf8dd	-0.034417022
11	0x3e210330	0.15723872
12	0xbe0be797	-0.13662563
13	0xbe4cb7ae	-0.19991943
14	0xbe24a33c	-0.16077894
15	0x3da6d162	0.08145405
16	0xbe362a4c	-0.17789572
17	0xbdd3889a	-0.10328789
18	0xbccdaef3	-0.025107836
19	0xbe2055f2	-0.15657786
20	0xbd7faa13	-0.062418055
21	0xbd92db55	-0.071707405
22	0xbe292f87	-0.16522036
23	0xbe483c74	-0.19554311
24	0xbe06d7dc	-0.13168281
25	0xbd4264f8	-0.047459573
26	0xbd562df3	-0.052289914
27	0xbc8c6c2f	-0.01714143
28	0xbe068d13	-0.13139753
29	0xbe1cfb5f	-0.15330265
30	0xbc812b85	-0.015767822
31	0xbe204878	-0.15652645
32	0xbe02327f	-0.12714575
33	0xbe87f7c3	-0.26556215
34	0x3e12511d	0.14288755
35	0x3cd1b4ea	0.025598962
36	0xbecbdace	-0.39815372
37	0xbe340a31	-0.17582013
38	0xbde865b5	-0.11347524
39	0x3e1c0c4f	0.1523907
40	0xbdf4d48a	-0.11954601
41	0xbe7243ea	-0.2365872
42	0xbd7abdb8	-0.061216086
43	0xbe49d0f9	-0.19708623
44	0xbe6abaa8	-0.22922766
45	0xbd9314de	-0.071817145
46	0x3d9ac111	0.07556356
47	0xbd9c4631	-0.076305754
48	0xbe3337a2	-0.17501691
49	0xbe5c667c	-0.2152347
50	0x3d91409d	0.07092402
51	0xbe1f1325	-0.15534647
52	0x3d866ae8	0.065633595
53	0xbe9242fc	-0.2856673
54	0xbe9fdea5	-0.31224552
55	0xbdd3c2c4	-0.10339883
56	0xbdb1e0f5	-0.08685485
57	0xbe77dcc6	-0.24205312
58	0x3dadb21d	0.08481238
59	0xbeb624e9	-0.35575035
60	0xbe318a23	-0.17337851
61	0xbddc78f7	-0.1076526
62	0xbe1c7835	-0.1528023
63	0x3dbfccc1	0.093652256
64	0xbe026940	-0.12735462
65	0xbe49712b	-0.19672076
66	0xbe5bd01d	-0.21466108
67	0xbe03a22a	-0.1285483
68	0xbdaded88	-0.08492571
69	0xbcd74cfd	-0.026281828
70	0xbe06c8ba	-0.13162509
71	0x39b56e89	0.00034605365
72	0xbebeb837	-0.3724992
73	0x3da5db58	0.08098477
74	0xbe761655	-0.24031956
75	0x3cb8873b	0.02252542
76	0xbe234c97	-0.15947185
77	0x3d900021	0.070312746
78	0xbdd21b4d	-0.102591135
79	0xbe4a150d	-0.19734593
80	0xbe7ac7d6	-0.24490294
81	0xbe810737	-0.25200817
82	0xbe0a95d9	-0.13533725
83	0xbe1cb4b7	-0.15303312
84	0xbe8c47f3	-0.27398643
85	0xbd700dd5	-0.05860694
86	0x3db03c6a	0.08605273
87	0xbe8754b1	-0.26431802
88	0xbda0ed31	-0.07857741
89	0xbe5f9675	-0.21834739
90	0xbd8fe44d	-0.07025967
91	0xbdaa6249	-0.08319528
92	0xbd14dd02	-0.036343582
93	0xbd9b9d00	-0.07598305
94	0xbe604adc	-0.21903557
95	0xbe94a78b	-0.29034075
96	0xbe6c9fa6	-0.23107776
97	0x3b8d494d	0.0043117166
98	0xbdeff99b	-0.1171753
99	0xbe18d1d4	-0.14923793
100	0xbd94084d	-0.07228146
101	0xbdf1709c	-0.11789057
102	0xbe721c31	-0.23643567
103	0xbe33dc32	-0.17564467
104	0xbe14fc60	-0.14549398
105	0xbd92d55b	-0.071696006
106	0xbdc01929	-0.09379799
107	0xbcb7d016	-0.02243809
108	0xbda513f7	-0.080604486
109	0x3d0892ad	0.033343006
110	0xbdb522f2	-0.08844556
111	0x3deaf130	0.11471784
112	0xbc01391a	-0.007887149
113	0xbe212fe0	-0.15740919
114	0xbcd1bdec	-0.025603257
115	0xbd98211d	-0.07428191
116	0xbe8373c7	-0.2567427
117	0x3d85c89b	0.06532403
118	0xbf01804e	-0.505864
119	0xbe0140b8	-0.12622344
120	0x3a6d0e5b	0.00090429717
121	0xbe18920e	-0.14899465
122	0xbe864c5c	-0.26230133
123	0xbe2e12a3	-0.16999297
124	0xbdb9ae58	-0.090664566
125	0x3a81f539	0.0009915001
126	0xbe9a3144	-0.30115712
127	0xbd84590c	-0.06462297
128	0xbeca6161	-0.3952742
129	0x3a32b565	0.0006817191
130	0xbdc073e6	-0.09397106
131	0x3c746137	0.014915756
132	0xbee6148f	-0.4493756
133	0xbd73ea3b	-0.05954955
134	0xbe7c47f1	-0.24636818
135	0xbe501364	-0.20319897
136	0xbdc881b8	-0.09790367
137	0xbc9d4014	-0.019195594
138	0x3da69d2c	0.08135447
139	0xbe841c34	-0.25802767
140	0xbd96ee14	-0.073696285
141	0xbeb633f2	-0.35586506
142	0xbe0f9682	-0.14022258
143	0xbe2004ab	-0.1562678
144	0xbe6dc598	-0.23219907
145	0xbd3ec74f	-0.046576794
146	0x3d8c1c53	0.0684134
147	0xbdb92b7b	-0.09041496
148	0xbb09a5fd	-0.0021003478
149	0xbe6f869b	-0.23391192
150	0xbe0e2202	-0.1388016
151	0xbe01a9f9	-0.12662496
152	0x3dc36b41	0.095419414
153	0xbf0ebb69	-0.55754715
154	0x3e2eb465	0.17061003
155	0xbe7f5cd7	-0.2493776
156	0x3e2d12f8	0.16901767
157	0xbe14df09	-0.14538206
158	0xbe31c680	-0.17360878
159	0x3c1fc423	0.0097513525
160	0xbe627ebc	-0.22118658
161	0xbe17e5ef	-0.14833806
162	0xbce842fa	-0.02835225
163	0xbeb0049b	-0.34378514
164	0xbe846a06	-0.2586214
165	0xbdf2ebb3	-0.11861362
166	0xbd8681d3	-0.06567731
167	0xbdd9b60f	-0.10630428
168	0xbdcd1ae2	-0.10014893
169	0xbd1616a7	-0.036642697
170	0x3c8b92a4	0.017037697
171	0xbde0464b	-0.10950907
172	0xbe1124e3	-0.14174227
173	0xbe0d67a6	-0.1380907
174	0xbe5f8825	-0.21829279
175	0xbecd6d78	-0.4012258
176	0xbd2a4ea4	-0.041578904
177	0xbe2e12a8	-0.16999304
178	0x3bb09286	0.0053885607
179	0xbe330eb6	-0.1748608
180	0xbe4511be	-0.1924505
181	0xbe25190b	-0.16122834
182	0xbd1f0ffd	-0.038833607
183	0x3cdf0b64	0.027227111
184	0xbe3f3fd5	-0.18676694
185	0xbe20859a	-0.15675965
186	0xbcb4eb35	-0.022084812
187	0xbe742d04	-0.23845297
188	0xbea52a8a	-0.32259017
189	0xbe1c5257	-0.15265785
190	0xbe09622e	-0.13416359
191	0x3d8276c3	0.06370308
192	0xbd9be57f	-0.07612132
193	0x3dfb47c4	0.122695476
194	0xbe0315f9	-0.1280135
195	0xbcf01cb7	-0.029310567
196	0xbd191d0f	-0.037381228
197	0xbe4ce4a1	-0.2000909
198	0xbd2b5c91	-0.041836325
199	0xbd570211	-0.052492205
200	0xbe29e6bc	-0.16591924
201	0xbc81c7ce	-0.015842345
202	0xbe2217a6	-0.15829334
203	0xbd7c2c70	-0.061565816
204	0xbc353ce5	-0.011061882
205	0xbed927de	-0.4241323
206	0xbe04be0f	-0.12963127
207	0xbe5c9dfb	-0.2154464
208	0xbddc79d4	-0.10765424
209	0xbc1ce1b2	-0.009575294
210	0xbd9049a9	-0.070452996
211	0xbeb8fdb4	-0.3613106
212	0x3d08214c	0.03323488
213	0x3c2cb7fb	0.010541911
214	0xbe960030	-0.29297018
215	0x3c1b8277	0.009491554
216	0xbded7cc5	-0.115960635
217	0xbe79c1e5	-0.24390371
218	0xbda879dc	-0.08226368
219	0xbe20f773	-0.15719394
220	0xbcbd93ed	-0.023141826
221	0xbe648ef1	-0.22320153
222	0xbde35a61	-0.11101223
223	0xbdd1b23b	-0.10239073
224	0xbe2dd469	-0.1697556
225	0x3e3a2b17	0.181805
226	0xbcf880db	-0.03033488
227	0xbdf5b8e9	-0.119981594
228	0xbdecc3a3	-0.11560752
229	0xbd9e30ba	-0.077241376
230	0xbe4e7615	-0.20162232
231	0xbe81e799	-0.25372007
232	0xbde23150	-0.11044562
233	0xbe0a1a52	-0.13486603
234	0xbdd6f310	-0.10495579
235	0xbd8924a5	-0.066964425
236	0xbebfa22a	-0.3742841
237	0xbe5997aa	-0.21249261
238	0xbe5b2bc0	-0.21403408
239	0xbcde5a8e	-0.02714279
240	0xbdbe6e24	-0.092983514
241	0xbe504a4d	-0.20340843
242	0xbdc3d7c0	-0.095626354
243	0xbe02ae51	-0.12761809
244	0xbe2acdc6	-0.16680059
245	0xbe89ec39	-0.26938036
246	0xbdde1933	-0.1084465
247	0x3aa54e86	0.0012611903
248	0xbe039dd1	-0.12853171
249	0xbda3b0ac	-0.07992682
250	0xbb673d45	-0.0035284322
251	0xbdc603ea	-0.09668715
252	0xbe6ac735	-0.22927554
253	0xbe0474a1	-0.12935115
254	0xbe7280a8	-0.23681891
255	0x39cd068e	0.0003910553

net.2.weight f4 [256, 256]
0	0xbcb8b35f	-0.022546468
1	0x3df00741	0.117201336
2	0xbc64883e	-0.013948498
3	0x3dbd3566	0.092387006
4	0xbc315b6b	-0.010825018
5	0x3fa1dea6	1.2646072
6	0x3b86e131	0.0041162004
7	0x3da37909	0.0798207
8	0xbe285f3f	-0.16442584
9	0xbd05709a	-0.03257809
10	0x3d511f4e	0.051055245
11	0x3d73b0fc	0.059494957
12	0x3d109342	0.035296686
13	0x3e99143a	0.29898244
14	0xbca92a11	-0.020649942
15	0x3dde75b5	0.108622946
16	0xbda7f092	-0.08200182
17	0xbd8df01d	-0.069305636
18	0x3da13a64	0.07872465
19	0xbd4abb00	-0.049494743
20	0xbd3c1833	-0.045921516
21	0xbdf6acd6	-0.120446846
22	0x3d0d1eec	0.034453318
23	0x3bc05f07	0.005870703
24	0x3db956e6	0.09049778
25	0xbca8d375	-0.020608643
26	0xbdec034d	-0.11524067
27	0xbd80799a	-0.06273194
28	0x3cfb09b0	0.030644268
29	0x3d3fcaca	0.046824254
30	0x3e465dc7	0.1937171
31	0xbd99e8d6	-0.07515113
32	0x3d69c11b	0.057068925
33	0x3df18e36	0.11794703
34	0x3cf58423	0.029970234
35	0xbdac5975	-0.084155
36	0xbcbc41a4	-0.022980519
37	0x3e28a8c3	0.16470627
38	0xbe252a2d	-0.1612937
39	0xbce36cf5	-0.027761916
40	0xbdd3e266	-0.103459165
41	0xbe61ce0a	-0.22051254
42	0xbd2ddde7	-0.04244795
43	0x3d4ab582	0.049489506
44	0xbe4be1f6	-0.19910416
45	0x3c28e471	0.010308371
46	0x3e28eb11	0.1649592
47	0x398b09c4	0.00026519422
48	0x3dd90796	0.1059715
49	0x3f5657b4	0.83727574
50	0x3e205221	0.1565633
51	0xbd704627	-0.058660652
52	0xbc4f525d	-0.012653914
53	0x3e238b6e	0.15971157
54	0x3ef72683	0.4827157
55	0x3e3987df	0.18118237
56	0x3dc4ff7f	0.096190445
57	0x3d9b23ac	0.07575163
58	0xbe60da60	-0.21958303
59	0xbe38d18d	-0.18048687
60	0xbd87fa05	-0.06639484
61	0xbcd0cd20	-0.025488436
62	0x3dbd36ba	0.09238954
63	0xbd3b75b1	-0.045766536
64	0xbe47eeb4	-0.19524652
65	0xbddec2c7	-0.108769946
66	0x3ebf6acc	0.37386167
67	0xbe361877	-0.1778277
68	0x3d8cfeff	0.06884574
69	0xbcadcc87	-0.02121569
70	0xbe19aa9b	-0.15006487
71	0xbd1c881a	-0.038215734
72	0x3ef80566	0.4844162
73	0xbde109cd	-0.109881975
74	0x3d9d7fd5	0.07690398
75	0xbd2d46a6	-0.042303704
76	0xbda997ef	-0.08280932
77	0xbd9f711b	-0.07785245
78	0xbd6a9346	-0.057269357
79	0xbd497ba2	-0.04919017
80	0x3e737851	0.23776366
81	0xbd599fba	-0.053130843
82	0x3dc1ac07	0.0945664
83	0x3d380b38	0.044932574
84	0x3e4b9ec8	0.19884789
85	0x3d538167	0.05163708
86	0xbe1b2d3f	-0.15153979
87	0xbe3b6aae	-0.18302414
88	0xbea6470d	-0.32476082
89	0x3e4cdb60	0.2000556
90	0xbe247cf2	-0.16063288
91	0xbc54423b	-0.012955244
92	0x3d2e58f0	0.042565286
93	0x3da8359f	0.082133524
94	0xbe6af3f0	-0.22944617
95	0x3ed3bcbb	0.41354927
96	0x3e21ec0c	0.15812701
97	0xbe10fe78	-0.14159572
98	0xba42e36c	-0.0007434401
99	0x3da85027	0.08218413
100	0x3cacdef4	0.021102406
101	0xbd8fe472	-0.07025994
102	0xba13d623	-0.0005639514
103	0xbd356357	-0.04428419
104	0xbd3269e8	-0.04355803
105	0x3de1ce6e	0.110257015
106	0xbe412bda	-0.18864384
107	0xbd5d1a76	-0.053980313
108	0xbc9cad00	-0.019125462
109	0x3d2c76c5	0.042105455
110	0xbde820bc	-0.113343686
111	0xbcd68b0c	-0.02618935
112	0xbd51839e	-0.05115091
113	0xbd7a0c50	-0.0610469
114	0xbd56b129	-0.052415047
115	0xbd2d3012	-0.04228217
116	0x3e36ae4e	0.1783993
117	0x3c958466	0.018251609
118	0x3f5e1b16	0.8676008
119	0x3d1641cd	0.036683846
120	0x3d4f15d4	0.050557926
121	0xbddc2bff	-0.10750579
122	0x3d7e9a65	0.06215896
123	0xbe16f119	-0.14740409
124	0x3d3ccce2	0.04609383
125	0xbc6b715f	-0.0143702915
126	0x3e7de45d	0.24794145
127	0xbe1ce438	-0.15321434
128	0x3e64dbe4	0.22349507
129	0xbc09aee0	-0.00840351
130	0x3d187d66	0.037228964
131	0x3dd251d8	0.10269517
132	0x3ed4a8b4	0.4153496
133	0xbe3c4f65	-0.18389662
134	0xbe662d9a	-0.22478333
135	0xbd3d4833	-0.046211433
136	0xbe1d66aa	-0.15371194
137	0x3de88693	0.11353793
138	0xbde5a7d5	-0.11213652
139	0x3f033ce1	0.5126477
140	0x3d3a967b	0.045553666
141	0xbd859552	-0.06522621
142	0x3dab3af4	0.08360854
143	0x3e4c83ee	0.19972202
144	0x3ca982d4	0.020692267
145	0x3d4c8d05	0.049939174
146	0x3d9aa467	0.075508885
147	0xbdd04ccb	-0.10170897
148	0x3c5a647a	0.01332962
149	0x3d73bf57	0.059508648
150	0x3dad175b	0.0845172
151	0xbd73ff2d	-0.059569526
152	0xbba24d09	-0.004953031
153	0x3f9db014	1.231936
154	0xbe1aecb5	-0.15129359
155	0xbc1a4568	-0.009415962
156	0xbdb4085c	-0.08790657
157	0x3da92efd	0.082609154
158	0xbd45c66f	-0.048284944
159	0xbe33d155	-0.17560323
160	0x3c768229	0.015045681
161	0xbdd5a1ad	-0.10431228
162	0xbe526069	-0.2054459
163	0x3e4041f8	0.18775165
164	0x3e1a0cc3	0.1504393
165	0x3ea6b516	0.32560033
166	0x3e46f558	0.19429529
167	0xbc4cbcf6	-0.012496224
168	0xbcf56d0e	-0.029959228
169	0xbdf9d44d	-0.12198696
170	0xbd840920	-0.06447053
171	0xbd93dc20	-0.0721972
172	0xbd9f979c	-0.07792589
173	0x3e9d5007	0.3072512
174	0xbe20e7cc	-0.15713423
175	0x3fb1047a	1.3829491
176	0xbd81607d	-0.06317232
177	0x3d3edd8b	0.046598
178	0x3c3421d0	0.01099439
179	0x3dc95394	0.098303944
180	0xbe139556	-0.14412436
181	0xbe46f37e	-0.19428822
182	0x3e00e282	0.12586406
183	0xbd3e72d8	-0.046496242
184	0x3ad2e7e5	0.0016090838
185	0xbd8c40b0	-0.06848276
186	0x3d73255f	0.05936181
187	0x3f177fc4	0.5917933
188	0x3f63f496	0.89045084
189	0xbd04c4eb	-0.032414358
190	0x3e7fa944	0.24966913
191	0xbe0d82c9	-0.13819422
192	0x3d6f6567	0.058446314
193	0xbcdbff45	-0.02685512
194	0x3e0ebf0e	0.13940069
195	0xbcf0968e	-0.029368665
196	0xbd46838f	-0.048465308
197	0xbd6f3191	-0.05839688
198	0xbe2a4ccd	-0.1663086
199	0x3e8c2456	0.27371472
200	0xbde8e102	-0.11371042
201	0xbe466055	-0.19372685
202	0x3dea4cf4	0.11440459
203	0x3defb269	0.11703951
204	0x3c2c8e0f	0.010531916
205	0x3d868189	0.065676756
206	0x3f15a04d	0.58447725
207	0xbd4ec8a9	-0.050484333
208	0xbc68ab88	-0.0142010525
209	0xbe0f4d1d	-0.1399426
210	0x3c923d95	0.01785163
211	0xbd5d4c59	-0.05402789
212	0xbccccd0f	-0.025000123
213	0x3d633b6c	0.05547659
214	0x3e4fe7a2	0.20303205
215	0x3d6433f4	0.05571361
216	0x3f9b374a	1.2126248
217	0xbe2e2430	-0.17005992
218	0x3d0a7685	0.033804435
219	0x3e950068	0.29101872
220	0xbe321157	-0.17389427
221	0xbcfba47b	-0.030718079
222	0x3d5ef5a4	0.05443348
223	0x3dd2f90c	0.10301408
224	0xbe5129ce	-0.20426103
225	0xbc03a353	-0.008034545
226	0x3c9044b8	0.017610893
227	0x3e8b4a08	0.2720492
228	0xbc20d3f3	-0.009816158
229	0x3e8b1a4a	0.27168494
230	0x3c42b356	0.011883577
231	0xbddd2238	-0.10797542
232	0xbe0ad20f	-0.13556693
233	0x3e08fe58	0.13378274
234	0x3d15d8d0	0.03658372
235	0xbc132b3c	-0.008982476
236	0x3eae08b0	0.33991003
237	0x3ce2f141	0.02770293
238	0x3c0553bc	0.00813764
239	0x3df470ed	0.119356014
240	0x3e1012ab	0.14069621
241	0xbd840a60	-0.064472914
242	0xbb70297c	-0.003664582
243	0x3e4fa38d	0.20277233
244	0x3e86df44	0.26342213
245	0x3eab70b5	0.33484426
246	0x3d23b2c8	0.03996542
247	0xbdc3d12b	-0.0956138
248	0xbe1cfca3	-0.15330748
249	0xbe2a9281	-0.1665745
250	0x3d80c486	0.06287484
251	0xbe7270c6	-0.23675832
252	0x3e6055e6	0.21907768
253	0x3e9c0c38	0.30478072
254	0x3b5fa969	0.0034128076
255	0xbd5e6586	-0.05429604

net.2.bias f4 [256]
0	0xbdb12025	-0.08648709
1	0xbe644882	-0.22293285
2	0xbe871e36	-0.26390237
3	0x3e07bb55	0.13255055
4	0xbd06826f	-0.032839235
5	0xbdaabc8c	-0.08336744
6	0x3e635c9c	0.22203296
7	0xbd13a8d6	-0.036049686
8	0xbde5b1b5	-0.112155356
9	0xbd992e55	-0.0747954
10	0xbe7992bb	-0.2437238
11	0xbcf1fe4a	-0.0295402
12	0xbd8a1915	-0.06743065
13	0xbd217bef	-0.039424833
14	0x3d1e8265	0.038698573
15	0x3d74a161	0.059724215
16	0xbcdb644d	-0.026781226
17	0xbd847143	-0.064669155
18	0xbca2fce2	-0.019895975
19	0xbda8b6bf	-0.08237981
20	0x3c9678f4	0.018368222
21	0x3dfedacb	0.12444075
22	0x3c96f746	0.018428456
23	0x3d9334d6	0.07187812
24	0xbe014402	-0.12623599
25	0x3db9bbd8	0.090690315
26	0xbe0ee726	-0.13955364
27	0xbda4af78	-0.080412805
28	0xbd4542f1	-0.048159543
29	0xbd846cc0	-0.06466055
30	0xbd99d5de	-0.07511495
31	0xbd698549	-0.057011876
32	0xbdbf1f2b	-0.09332117
33	0xbdbb796f	-0.09154021
34	0xbc7f0339	-0.015564733
35	0xbca02bb7	-0.019552095
36	0xbe127670	-0.14302993
37	0xbde07ce3	-0.1096132
38	0xbc9a263d	-0.018817062
39	0xbdab884c	-0.08375606
40	0xbe08735d	-0.13325258
41	0x3de04c5c	0.109520644
42	0xbc3a5d3f	-0.011374771
43	0x3d166d20	0.036725163
44	0xbe8b46ca	-0.27202445
45	0xbdde613d	-0.108583905
46	0xbc462201	-0.012093068
47	0xbd47ec59	-0.048809383
48	0x3dffbbc4	0.12486985
49	0x3dc42ba7	0.095786385
50	0x3e06982d	0.13143988
51	0x3e60d3d0	0.219558
52	0x3d07beb2	0.033140846
53	0xbdf9672f	-0.12177884
54	0x3e916548	0.28397584
55	0xbe8e4232	-0.27784878
56	0x3bfd5138	0.0077306293
57	0x3d8f3c08	0.06993872
58	0x3e637a24	0.22214562
59	0xbd5bd1c8	-0.05366686
60	0xbc955205	-0.018227587
61	0xbd0c83f8	-0.034305543
62	0xbe3ecfbe	-0.18633935
63	0xbe613485	-0.21992691
64	0x3e851e3b	0.25999627
65	0x3e182c19	0.14860572
66	0xbdaad913	-0.08342185
67	0x3c9b710a	0.0189748
68	0x3d91e729	0.071241684
69	0xbe836a5e	-0.2566709
70	0xbe1f08ec	-0.15530747
71	0x3d40bf59	0.047057483
72	0xbdb27567	-0.08713799
73	0x3e471e89	0.19445242
74	0x3e155cf1	0.14586236
75	0xbd9875f9	-0.074443765
76	0xbd83b78d	-0.06431494
77	0xbd1c0702	-0.03809262
78	0xbe1e52a7	-0.15461217
79	0xbe0e6941	-0.13907339
80	0xbdf71004	-0.120636016
81	0xbddaf513	-0.106912754
82	0xbddcd100	-0.10782051
83	0x3e90d553	0.28287753
84	0xbd9aad53	-0.0755259
85	0xbe1b3f26	-0.15160808
86	0xbd9bcbc9	-0.07607228
87	0x3d1c9fbe	0.03823828
88	0xbb8e8c6d	-0.004350236
89	0x3bd1017a	0.00637835
90	0x3e396c29	0.18107666
91	0x3cdce67f	0.026965378
92	0x3e8a5fd6	0.27026242
93	0xbd95ce58	-0.073147476
94	0xbdcdb649	-0.10044534
95	0x3e7a3b5b	0.24436705
96	0xbac943bb	-0.0015355268
97	0xbe22b76a	-0.1589028
98	0xbe450a5b	-0.19242232
99	0x3e872cf1	0.26401475
100	0xbd8c0efd	-0.06838796
101	0x3e00e7c1	0.12588407
102	0xbe0b5055	-0.13604863
103	0xbeb448be	-0.35211748
104	0x3dbed8f9	0.09318728
105	0x3cc4b2a2	0.02401096
106	0xbe2697d0	-0.1626885
107	0x3cdde0ea	0.027084786
108	0xbd553888	-0.052055866
109	0x3e2a1820	0.16610765
110	0xbd6489e9	-0.055795584
111	0xbe181485	-0.14851578
112	0xbd4386e4	-0.047736064
113	0xbd997481	-0.074929245
114	0xbd3e8ff7	-0.046524014
115	0xbddc1753	-0.10746636
116	0x3e21d0bd	0.15802284
117	0xbd268e3f	-0.040663
118	0xbd44ac1c	-0.0480157
119	0xbd8bc60c	-0.06824884
120	0xbd9a93bb	-0.075477086
121	0x3d21854f	0.039433774
122	0xbd72d4cc	-0.05928497
123	0xbd559478	-0.052143544
124	0xbda63fc2	-0.081176296
125	0xbde7b434	-0.11313668
126	0x3d16af4b	0.036788266
127	0xbbd76116	-0.006572853
128	0xbcc0f35e	-0.023553547
129	0xbded3973	-0.11583223
130	0xbeba40e9	-0.36377648
131	0x3c9a47df	0.018833099
132	0xbdab87b9	-0.083754964
133	0x3cf14e8e	0.029456403
134	0xbc6f0df0	-0.014590725
135	0xbeb67a4c	-0.3564018
136	0xbdcb9671	-0.09940804
137	0xbee7fc36	-0.4530961
138	0xbd880de8	-0.066432774
139	0x3d858dcf	0.065211885
140	0xbac9308a	-0.0015349549
141	0xbdfe06c1	-0.12403632
142	0xbda42879	-0.08015532
143	0xbc3b53a0	-0.011433512
144	0xbd31143b	-0.043232184
145	0x3d436613	0.047704767
146	0x3cd8c2d7	0.026460094
147	0xbe6d46a9	-0.23171486
148	0x3cbeac91	0.023275645
149	0xbc81622d	-0.015793884
150	0xbe02f966	-0.1279045
151	0xbd9e7793	-0.07737651
152	0xbea2e7f7	-0.318176
153	0xbd30caa0	-0.04316199
154	0xbd44e6db	-0.048071723
155	0xbd8f8eab	-0.07009634
156	0xbdab121f	-0.08353066
157	0x3d71a5d6	0.058996044
158	0xbaabadf0	-0.0013098102
159	0x3d3a25e6	0.0454463
160	0xbd786f41	-0.060652975
161	0x3cef015d	0.029175455
162	0x3d42943d	0.047504652
163	0x3d179195	0.037004072
164	0xbdf05bbf	-0.11736249
165	0xbdd15d4e	-0.102228746
166	0xbe5c2476	-0.21498284
167	0x3dce0186	0.10058884
168	0xbd9da8de	-0.076982245
169	0xbd9b1ca2	-0.07573821
170	0x3e50fa0a	0.20407882
171	0xbd555d56	-0.052090965
172	0x3d826446	0.06366782
173	0xbc9ed215	-0.019387284
174	0x3e07b42b	0.13252322
175	0x3de432d9	0.11142511
176	0xbc8a2782	-0.016864542
177	0x3e6029a2	0.21890882
178	0x3c8724ac	0.016496979
179	0x3ca71c8c	0.020399354
180	0x3c87d497	0.016580863
181	0xbe87ff20	-0.26561832
182	0xbcda8002	-0.026672367
183	0xbd91276d	-0.07087598
184	0xbe813952	-0.25239044
185	0xbe209101	-0.15680315
186	0x3ce11ddc	0.027480058
187	0x3ce4ebb3	0.027944421
188	0xbe967eb7	-0.2939355
189	0xbdc19449	-0.09452111
190	0x3e469f8a	0.19396797
191	0xbe0aa541	-0.13539602
192	0xbd1e0807	-0.038581874
193	0xbdac59aa	-0.084155396
194	0xbc540144	-0.012939755
195	0xbd41dc7b	-0.047329407
196	0x3d6d3a91	0.05791718
197	0xbdd9405c	-0.10607979
198	0xbdf2f7eb	-0.11863693
199	0xbdae443c	-0.085091084
200	0xbe04ff27	-0.12987958
201	0xbd37ccb6	-0.044872962
202	0xbd2598c0	-0.040428877
203	0xbd159584	-0.036519542
204	0x3b5a1b23	0.0033280335
205	0xbd98662e	-0.07441364
206	0xbca54390	-0.020173818
207	0x3d43f057	0.047836628
208	0xbe0fc75f	-0.14040898
209	0x3e185804	0.14877325
210	0x3b095657	0.0020956004
211	0xbe29c607	-0.16579448
212	0xbd3650e4	-0.044510737
213	0xbe2989c9	-0.16556467
214	0x3dc8c60b	0.09803399
215	0xbd2f70f9	-0.04283235
216	0x3d3eae4d	0.046552945
217	0x3db7e291	0.08978761
218	0x3e3467b3	0.17617683
219	0xbdbc4865	-0.09193496
220	0x3dee9d2a	0.116510704
221	0xbebd3c3d	-0.3696002
222	0xbd588787	-0.052863624
223	0xbe21228c	-0.15735835
224	0x3c9ad83d	0.018901939
225	0x3e44915e	0.19196078
226	0xbd8a14e4	-0.06742266
227	0xbec10184	-0.3769647
228	0xbd865855	-0.06559817
229	0xbd8ec646	-0.069714114
230	0x3b34cd35	0.0027588133
231	0xbcb487cc	-0.02203741
232	0xbc64d33c	-0.013966378
233	0xbd8978bb	-0.06712481
234	0x3e652954	0.22379047
235	0x3d14bdac	0.036313698
236	0xbda5552a	-0.080728844
237	0xbdefad68	-0.117029965
238	0xbd7c1fa3	-0.06155361
239	0xbcde142e	-0.027109232
240	0x3da2f15d	0.07956193
241	0xbd0fc3c2	-0.0350988
242	0xbe314619	-0.17311896
243	0x3d0e42f2	0.034731813
244	0xbd8faa0f	-0.07014858
245	0xbd9de99e	-0.077105746
246	0xbda7671f	-0.08173966
247	0xbdd2cfe4	-0.10293558
248	0xbdc6e32d	-0.09711299
249	0x3e346331	0.17615964
250	0xbdfb7946	-0.122789904
251	0x3ca15798	0.019695088
252	0x3d8ba1af	0.06817948
253	0x3e84a104	0.25904095
254	0xbc64d3eb	-0.013966541
255	0x3d2fe089	0.042938743

net.4.weight f4 [5, 256]
0	0x3cd6e5a5	0.02623255
1	0xbf0a64b6	-0.5405992
2	0xc031e346	-2.7794967
3	0xc0eca4f7	-7.3951373
4	0xbe5ac5af	-0.21364473
5	0xc042b099	-3.0420287
6	0xbe43231e	-0.19056365
7	0xbf2d696a	-0.67738974
8	0xc0604cd7	-3.50469
9	0xbcd7045e	-0.0262472
10	0xbfb5a96f	-1.4192332
11	0xbb0bb8cd	-0.0021319867
12	0x3dcac1df	0.09900259
13	0xbbc9af0c	-0.0061549004
14	0xc007e661	-2.1234362
15	0x3cf40152	0.029785786
16	0xbd4a679e	-0.049415223
17	0xc0f1efd7	-7.5605273
18	0xbd474033	-0.04864521
19	0xbd420e2d	-0.0473768
20	0x3d3441d0	0.044008076
21	0xc10811d6	-8.5043545
22	0x3cb988af	0.022648184
23	0x3e002cbb	0.12517063
24	0x3dcf3622	0.10117747
25	0x3dbbbe24	0.09167126
26	0xbfc5ba0f	-1.5447406
27	0x3d678252	0.056520768
28	0xbdd35f36	-0.103208944
29	0x3d4a54d4	0.049397305
30	0x3d5a8927	0.053353455
31	0xbedf6baa	-0.4363683
32	0xbce4d4a1	-0.02793342
33	0xc0a24a3d	-5.0715623
34	0x3d878072	0.06616296
35	0xbcc0e3b7	-0.023546083
36	0x3deb3930	0.11485517
37	0x3ccfaa2d	0.0253497
38	0xbeac6081	-0.33667377
39	0x3d111f03	0.035429966
40	0xbf7577c8	-0.95885897
41	0xbf012048	-0.5043988
42	0xbd4fb225	-0.050707
43	0xbbac4ff5	-0.005258555
44	0x3aeef7ee	0.0018231848
45	0xbda7114e	-0.081575975
46	0x3cfd298d	0.030903602
47	0x3d9ccc81	0.076561935
48	0xc12e74c1	-10.903504
49	0xbddde199	-0.10834045
50	0xbdf9811a	-0.12182827
51	0xbe50e06a	-0.20398107
52	0x3de3d9aa	0.111255005
53	0xc01392d3	-2.3058364
54	0x3d4428ab	0.047890346
55	0x3dae5401	0.08512116
56	0xbc71b972	-0.014753686
57	0xbd9cd749	-0.0765825
58	0x3e20f469	0.15718235
59	0x3d301f1f	0.04299843
60	0xc02a26e7	-2.6586244
61	0xbd0bdc1e	-0.034145467
62	0xbe4680ea	-0.19385114
63	0x3d620a26	0.05518546
64	0xbc05712c	-0.008144658
65	0x3dd0f1f8	0.10202402
66	0xbf349810	-0.7054453
67	0x3caec8d4	0.021335997
68	0x3c8d73c4	0.017267115
69	0xbf4bb6d1	-0.7957583
70	0xbf28a6f8	-0.65879774
71	0xbe1e2168	-0.15442431
72	0xbdf34d60	-0.118799925
73	0xbe3c4ca5	-0.18388613
74	0x3c2f09a2	0.010683449
75	0xbdb1719c	-0.086642474
76	0x3c548c06	0.012972837
77	0xbcd5d1fb	-0.026101103
78	0xbe40494c	-0.1877796
79	0xbd4aaf7e	-0.04948377
80	0x3daf31d2	0.08554424
81	0xbf2d22c7	-0.6763119
82	0xbd0b913a	-0.034074046
83	0x3def69a6	0.11690073
84	0xbe9a5d83	-0.3014947
85	0xc0005f1c	-2.005805
86	0x3bffbfde	0.007804855
87	0x3ce1758d	0.027521873
88	0x3d1cad3c	0.038251147
89	0xc037831d	-2.8673775
90	0xbe625d97	-0.22106014
91	0xbdc56cb7	-0.09639876
92	0x3b5aa052	0.0033359719
93	0xbf9949c4	-1.1975636
94	0xbfd9b164	-1.700726
95	0x3db99b18	0.09062785
96	0x3ccca4ac	0.024980865
97	0xbc5e8b54	-0.013583023
98	0xbfdf061e	-1.7423742
99	0x3d3c652a	0.045994915
100	0xc043a746	-3.0570846
101	0x3d9831bf	0.07431363
102	0xbf888149	-1.0664455
103	0x3c6d38e4	0.014478896
104	0x3e0d0841	0.1377268
105	0xb9f67956	-0.0004701118
106	0xbfcbad3e	-1.5912244
107	0xbc39fc4a	-0.011351654
108	0xbe831f7e	-0.25609964
109	0xbc9fb512	-0.01949552
110	0xbde4f110	-0.111787915
111	0xc0437069	-3.053736
112	0xbd42aea9	-0.04752985
113	0xc1186b3a	-9.526178
114	0x3df5d70f	0.1200391
115	0xbfbd5263	-1.4790767
116	0xbe1fdb75	-0.1561106
117	0xbe6dba91	-0.232157
118	0xc0e3c9e7	-7.1183963
119	0x3d3f9675	0.046774346
120	0xbe8dfb09	-0.27730587
121	0x3d28d74d	0.04122095
122	0x3cc2b40c	0.023767494
123	0x3d42a61a	0.047521688
124	0xbfce4d03	-1.6117252
125	0xbfcd444d	-1.6036469
126	0xc0723d5a	-3.7849946
127	0xbed6bb51	-0.41939786
128	0x3d8710de	0.06595014
129	0xbe6a0545	-0.22853573
130	0x3dbb2edd	0.09139798
131	0xbdd50bf7	-0.10402673
132	0xbf0ef4b8	-0.5584216
133	0xbd796851	-0.0608905
134	0xbe9f5a2b	-0.3112348
135	0xbd759280	-0.059954166
136	0x3d8ea684	0.06965354
137	0xbcb5afac	-0.022178493
138	0xbd3eb204	-0.046556488
139	0xbfbeb55e	-1.4899099
140	0xbd8a02b0	-0.06738794
141	0xbe00d64c	-0.12581748
142	0xbeeb228c	-0.45924795
143	0x3d8fdd4b	0.0702463
144	0xc0873a4a	-4.2258654
145	0xbfd5eab8	-1.6712255
146	0xbdf90bee	-0.121604785
147	0x3e021209	0.12702192
148	0x3bdd204b	0.0067482344
149	0x3d84b847	0.064804606
150	0xbe5a2111	-0.21301676
151	0xc00c3d66	-2.1912475
152	0xbd405cdf	-0.04696357
153	0xbe140a0c	-0.14456958
154	0x3c812511	0.015764745
155	0xbd192ace	-0.037394337
156	0xc0c61308	-6.189823
157	0xc02417df	-2.563957
158	0x3cdb1ff7	0.02674864
159	0xbd66ab2d	-0.05631559
160	0xbcfc7fc9	-0.030822651
161	0xbf385f15	-0.72020084
162	0x3c1f5144	0.009723965
163	0x3a10726d	0.0005510215
164	0x3cc8dbe2	0.02451891
165	0xc0d04574	-6.508478
166	0xbfd835aa	-1.6891377
167	0x3e2555d6	0.16146025
168	0xc0c8460f	-6.258552
169	0xbf40485b	-0.75110406
170	0xbda8e35a	-0.08246489
171	0x3d519b33	0.0511734
172	0xbe5b5816	-0.21420321
173	0xbd4c33c5	-0.04985406
174	0xbdf04d11	-0.11733449
175	0xbe93655e	-0.28788275
176	0xbfae55fe	-1.3619993
177	0x3d028dd8	0.031873554
178	0x3da5e9ed	0.081012584
179	0x3daec73d	0.085340954
180	0xbd0e2fee	-0.034713678
181	0x3dc2e75c	0.095167845
182	0x3d0c96a6	0.034323357
183	0xbb7e9153	-0.0038843944
184	0x3dc7e0da	0.09759684
185	0xbf23cbc3	-0.6398279
186	0xbf34e06f	-0.7065496
187	0xbf9b3091	-1.2124196
188	0x3df0ba3c	0.117542714
189	0xbf5b01a8	-0.855494
190	0xbd89366c	-0.06699833
191	0xbf6490d6	-0.892835
192	0xbfb69d6c	-1.4266791
193	0x3cf01918	0.02930884
194	0xbcdf61b8	-0.027268276
195	0xbd0d97ad	-0.034568477
196	0x3e2a0532	0.16603544
197	0xbf747933	-0.95497435
198	0xc001b13e	-2.026443
199	0xbf8517ab	-1.0397848
200	0xbf848d02	-1.0355532
201	0xbdbb9cef	-0.09160792
202	0xbf5c8e02	-0.86154187
203	0x3c94839e	0.018129166
204	0xbcb6e5e1	-0.022326412
205	0xbd484aa5	-0.04889931
206	0xbf08f870	-0.53504086
207	0x3d2a2f4c	0.041549012
208	0x3d673fea	0.056457438
209	0x3e196904	0.14981467
210	0xbf2f5e1d	-0.6850298
211	0xbf8541d0	-1.0410709
212	0x3c0f29ce	0.008737994
213	0xc0a6efef	-5.216789
214	0x3df8c8d1	0.12147678
215	0xbfb0db80	-1.3816986
216	0x3d3cccf7	0.046093907
217	0x3c0e3b17	0.00868108
218	0xc0a4f9d1	-5.155495
219	0xbf43ece1	-0.76533324
220	0x3dcef805	0.101059
221	0x3de5cf30	0.112211585
222	0xbd16b572	-0.036794133
223	0xbf323995	-0.69619113
224	0x3d16991d	0.036767114
225	0x3dcfcea5	0.10146836
226	0x3b513759	0.003192386
227	0xbffcc592	-1.9747794
228	0xc0f1eebf	-7.560394
229	0xc09de7f8	-4.9345665
230	0xbcc943c6	-0.02456845
231	0xbf999858	-1.1999617
232	0x3ccd1d67	0.025038434
233	0xbcf1e5e7	-0.029528571
234	0xbe8841bd	-0.26612654
235	0xbde2ccdc	-0.1107423
236	0x3d7e565a	0.06209407
237	0xbf9ee2ae	-1.2412927
238	0xbd7ecd9b	-0.0622078
239	0xbe13b695	-0.14425118
240	0x3e02d8f1	0.12778069
241	0x3bf5c1ab	0.0074998937
242	0xc04a0d8f	-3.1570776
243	0x3ccb3a76	0.02480815
244	0x3cad6de7	0.02117057
245	0xbf628fd5	-0.8850072
246	0xbf50f096	-0.81617105
247	0x3c8011d7	0.015633507
248	0xbe3fad8e	-0.1871855
249	0xbe690e6a	-0.22759405
250	0x3d92322d	0.071384765
251	0xbcaea4c6	-0.021318804
252	0xc0c343c7	-6.1020236
253	0x3d51ec8a	0.05125097
254	0x3dc7fc57	0.09764927
255	0x3d96c2ea	0.07361396

net.4.bias f4 [5]
0	0x3d488680	0.048956394
1	0x3ce518f7	0.027966006
2	0xbd7188b5	-0.058968265
3	0xbec3af9d	-0.3821992
4	0x3f010c65	0.5040954
